Results/Laplace_EXP/Models/Laplace_EXP_PINN_step_800.pth (torch, 4632 bytes, 7 tensors)

layers.layer_0.weight f4 [8, 2]
00000000: f3cf 3bbf 07ed 4ebd 18a7 c7be b601 cebd
00000010: 5361 30bf c4ad 303e f4b7 30bf 8961 66bd
00000020: 9a80 9a3e 8249 1dbe 9ae7 d03e 4117 2cbc
00000030: 19eb ba3e c31c e33e 5bde c2be beda 133e
-0.7336418 -0.050519016 -0.3899467 -0.1005892 -0.68898505 0.17253786 -0.6903069 -0.05624536
0.3017624 -0.15360072 0.40801698 -0.010503591 0.3650749 0.4435788 -0.3806027 0.14438912

layers.layer_0.bias f4 [8]
00000000: c64c 95be 1bed 3d3e 3751 aebe 046e 873e
00000010: 01b5 1a3e 16c9 8bbe 5f77 c2be 09a1 053e
-0.29160136 0.1854748 -0.34046337 0.26451123 0.1510811 -0.27301854 -0.37981698 0.13049711

layers.layer_1.weight f4 [8, 8]
00000000: 5c28 c63e 0ab5 6f3e 647c 983c d6a7 313d
00000010: 52fb 153e a8fc 9ebe bd3b b03d 40cf 63bd
00000020: c2f3 163e fab2 40be bb1c 1cbd a5a6 723d
00000030: 5c38 9a3e 3a3a 343c 7581 b93e 6ef7 b9be
00000040: 6ce1 eabd d63b d1be b769 a5bc 2ac7 3e3d
00000050: 4edf bcbd 0d1c 4f3e f019 8ebc 5bbd b9be
00000060: 40bf a33e 58a2 8a3e 3a4c 653e f9f0 a93e
00000070: eb55 ae3d b28e 0c3e 71a0 803e 7b94 b4bc
00000080: 7a07 aabe 1f51 6fbe 6590 d1bd 59da c8bd
00000090: cbeb 633d 5e7c 873e 194b 063e c0b7 a6be
000000a0: 1d31 e2bc a2b3 663b 4c44 943e 2dd2 31bd
000000b0: 7800 66be f776 13be f218 18be 6a01 1abb
000000c0: 3c2a a0be dbc8 b63e 7067 5f3e e550 04be
000000d0: b2d1 7dbe fa95 e4bc ca1f 263e 1211 5ebe
000000e0: 15b8 c1bd f49b 463e 2f21 43be 7777 853b
000000f0: 4c29 9cbe b2ed 903e 3bd1 1b3e 1915 90be
0.38702667 0.23408905 0.018614002 0.04337295 0.14646652 -0.31052136 0.08605144 -0.05561757
0.14741424 -0.18818274 -0.038113337 0.059240956 0.30121124 0.01100021 0.3623158 -0.36321586
-0.11468777 -0.40865964 -0.02019201 0.046576656 -0.092222795 0.20225544 -0.017346352 -0.3627728
0.3198185 0.27076983 0.2239236 0.3319166 0.08512481 0.13726309 0.25122407 -0.022043457
-0.3320883 -0.23370789 -0.10232619 -0.098072715 0.05564479 0.26462072 0.13114585 -0.32562065
-0.02761131 0.0035202284 0.28958356 -0.04341333 -0.22461116 -0.1440085 -0.14853266 -0.0023499378
-0.31282222 0.35700116 0.21816802 -0.12921484 -0.24787024 -0.027903546 0.16223064 -0.216862
-0.09458939 0.19395429 -0.19055627 0.004073079 -0.30500257 0.28306347 0.15216534 -0.28141096

layers.layer_1.bias f4 [8]
00000000: 2dad 0cbe c289 043e db32 273d e5d1 8f3d
00000010: 8b0a 71be 4f14 57be c866 523e e5b7 95be
-0.13737936 0.12943175 0.040819984 0.07022456 -0.23539178 -0.21003841 0.2054702 -0.29241863

layers.layer_2.weight f4 [16, 8]
00000000: 3264 04be 7361 5c3e d10e 783e 0724 02bd
00000010: e743 1f3e db4b c13d 1b41 e5bb c1ef 58bd
00000020: 06f3 593e 361f cf3e 35ef 673e dfb7 58be
00000030: c833 80be 6a3e d1be 1f2f 083d b469 afbd
00000040: d8cb 1fbe ac1b 8d3c eac4 ce3e 4d62 8a3e
00000050: 8bc1 f63c 27e5 36be c745 563e d160 dd3c
00000060: 56a9 c8be 21df 2f3e d66c cb3e 3e77 abbe
00000070: 450b b9bc c415 803c 76f8 84be 7c6a 82be
00000080: c035 3e3e 32b4 37bd 2dfa 923e d00f 32bd
00000090: eab6 243e 198c a2be 8b32 a5bc c971 983e
000000a0: d58d e93d 6676 58bd 4feb bd3d 1db8 653e
000000b0: 60ea 87be e896 223e a472 a6bd 5914 09bd
000000c0: 65d0 0b3e 052d 82be 6a28 8cbc 9cf3 9b3e
000000d0: 36cc 243e ba79 2ebe 52a1 5cbd 925b 9d3e
000000e0: 047f 6a3e ac42 1b3e aec5 a4be 7554 453e
000000f0: 966a cebc 136a 1f3e 475a 8a3e df62 e43d
00000100: 35ff a03e a232 b43d b8e1 9e3d 6392 c73b
00000110: dcf4 c0be dd6d 63be 00c3 84be 1ca3 92be
00000120: ed4e eb3d 8ee5 283e 7b6f 35bd 694b a4be
00000130: e084 cc3e 0857 563e 0642 4c3e 9758 c93e
00000140: 3df3 07be 9c55 85be 2332 88be 6e11 183d
00000150: 5947 bbbe 88c4 ae3e 2c7d d6bc 0438 063e
00000160: 9d68 7dbe 1210 ae3c ba83 d43d c4c6 18be
00000170: 0c53 c53e 19ad 62be 7f44 143e 8635 4bbe
00000180: e34e 243c 72cd 19be 7261 c73d 3d45 983e
00000190: 9189 153d cbed f03c 9dd6 f7bd abe0 713e
000001a0: 643d 08bd 4881 4b3e 812b 5abe 45ca ae3e
000001b0: 585f 9a3e f6b8 983e 8946 313e 68d9 b53d
000001c0: c207 72be 0466 8c3d 6a39 403e deef 1cbe
000001d0: b54d fd3d 3b81 0f3e 46e2 95be 3198 89be
000001e0: 273c 46be 93ee 873c d1d9 b3bd c5d1 c73d
000001f0: 4a90 dabd 7000 56be 2d6f e63c 5c57 603e
-0.12928846 0.21521549 0.24224402 -0.03177264 0.15553246 0.094382964 -0.0069962866 -0.052963022
0.21284112 0.404535 0.22649844 -0.21163891 -0.25039506 -0.4086793 0.033248063 -0.08565083
-0.15605104 0.017225109 0.40384609 0.27028123 0.030121585 -0.17860852 0.20925055 0.027023705
-0.39191693 0.1717496 0.39731473 -0.33489412 -0.022588382 0.015635379 -0.2597081 -0.25471866
0.18575191 -0.044849582 0.28706494 -0.04347211 0.16085401 -0.3174751 -0.020165702 0.2977431
0.114040054 -0.05284729 0.09273397 0.22433515 -0.26546 0.15877879 -0.08127335 -0.03346667
0.13653715 -0.25424972 -0.017109115 0.30459297 0.16093525 -0.17038622 -0.053864785 0.30733925
0.22900015 0.15162152 -0.32182068 0.19270499 -0.025197309 0.15567808 0.27022 0.11151671
0.31444708 0.0879872 0.07757896 0.0060904487 -0.37686813 -0.22209878 -0.25930023 -0.28640068
0.11489663 0.16493818 -0.04429577 -0.32088783 0.39945126 0.20931637 0.19947061 0.393254
-0.13276382 -0.26041877 -0.2660075 0.037125997 -0.3657787 0.34134316 -0.026182733 0.13107306
-0.24746938 0.021247897 0.10376687 -0.14919573 0.38539922 -0.22136344 0.14479254 -0.19844636
0.010028574 -0.15019777 0.09735383 0.29740325 0.036508147 0.029410264 -0.12101481 0.2362086
-0.03326167 0.19873536 -0.21305658 0.34138694 0.30150867 0.29828614 0.17312063 0.088793576
-0.23635772 0.068553954 0.18771902 -0.15325877 0.12368337 0.14014141 -0.29274195 -0.26873925
-0.19358884 0.016593253 -0.087817796 0.09756807 -0.10672052 -0.20898604 0.028129185 0.21908325

layers.layer_2.bias f4 [16]
00000000: f425 3abe 2ab3 a33e 5af8 bd3d 6af9 a23e
00000010: 8e80 89be e8d4 c8be e3d4 0a3e 0854 99be
00000020: 7ecb 8dbe c89b 4f3e 390e 133e 2aec 91be
00000030: ea16 733e 00de adbd 5760 863e e9f8 63be
-0.1817854 0.3197263 0.09275885 0.31830913 -0.26855892 -0.39224935 0.13557772 -0.29946923
-0.27694315 0.2027427 0.14360894 -0.2850049 0.2373921 -0.08489609 0.26245376 -0.2226292

layers.layer_3.weight f4 [1, 16]
00000000: 0f3e 9fbe 5319 82be e7ea e8bd c4bd 9ebe
00000010: 8a31 a6bd 980d a9bd 3926 813a 3f66 a53d
00000020: df63 713d 6020 95be 0b21 4a3e 4f7d 5ebe
00000030: be56 1a3e 2c67 573e 8da6 30be 4f32 6dbc
-0.31102034 -0.25409946 -0.11372929 -0.31004155 -0.081149176 -0.08254546 0.000985331 0.080761425
0.058933135 -0.29126263 0.19739167 -0.21727489 0.15072152 0.2103545 -0.17251034 -0.014477327
