Results/Laplace_EXP/Models/Laplace_EXP_PINN_step_900.pth (torch, 4632 bytes, 7 tensors)

layers.layer_0.weight f4 [8, 2]
0	0xbf3b054e	-0.7305497
1	0xbd41586a	-0.04720346
2	0xbec783cb	-0.38967738
3	0xbdc02619	-0.093822666
4	0xbf2fc9cd	-0.686673
5	0x3e24eb63	0.16105418
6	0xbf2fe218	-0.68704367
7	0xbd730200	-0.05932808
8	0x3e9b378c	0.30315816
9	0xbe12d640	-0.14339542
10	0x3ed08be1	0.4073172
11	0xbc63f267	-0.013912774
12	0x3eba496a	0.36384135
13	0x3edfe66e	0.4373049
14	0xbec238f8	-0.3793409
15	0x3e085ecf	0.13317417

layers.layer_0.bias f4 [8]
0	0xbe9c125c	-0.30482757
1	0x3e3e69d4	0.18595058
2	0xbeb4881a	-0.35260087
3	0x3e87914e	0.26478046
4	0x3e168003	0.1469727
5	0xbe8d2003	-0.27563486
6	0xbec7e21c	-0.39039695
7	0x3e0c0723	0.13674597

layers.layer_1.weight f4 [8, 8]
0	0x3ec6da12	0.3883825
1	0x3e70b3b9	0.23506059
2	0x3c9b00a8	0.018921211
3	0x3d320141	0.043458227
4	0x3e1529d9	0.14566745
5	0xbe9f80bf	-0.31152913
6	0x3dc430cf	0.09579622
7	0xbd64b04e	-0.0558322
8	0x3e168a8d	0.1470129
9	0xbe41d3f0	-0.18928504
10	0xbd1bb7b7	-0.038017
11	0x3d7028c0	0.058632612
12	0x3e9a7fe0	0.30175686
13	0x3c4f9384	0.012669448
14	0x3eb704e5	0.35745922
15	0xbeba833f	-0.36428258
16	0xbdeb8c50	-0.11501372
17	0xbed1ac1e	-0.40951627
18	0xbca26939	-0.019825565
19	0x3d3dad5f	0.046307918
20	0xbdbd42c0	-0.09241247
21	0x3e50093e	0.20316026
22	0xbca6def1	-0.020369979
23	0xbeb9b5ce	-0.36271518
24	0x3ea3f200	0.3202057
25	0x3e8aeb94	0.27132857
26	0x3e64c9d7	0.22342621
27	0x3ea9e577	0.3318288
28	0x3daff6da	0.08592005
29	0x3e0c69a4	0.13712174
30	0x3e81b4cb	0.25333247
31	0xbcbe162c	-0.023203932
32	0xbea93aff	-0.33052823
33	0xbe6ea42d	-0.23304816
34	0xbdcd199a	-0.10014649
35	0xbdc701f5	-0.0971717
36	0x3d5d3cdd	0.054013122
37	0x3e87ed84	0.26548398
38	0x3e00718b	0.12543313
39	0xbea67368	-0.32509923
40	0xbcd4159b	-0.025889209
41	0x3bc2b707	0.0059422287
42	0x3e94aa05	0.29035965
43	0xbd2c505a	-0.042068817
44	0xbe6759fa	-0.22592917
45	0xbe161ee1	-0.14660217
46	0xbe112afb	-0.14176552
47	0xba872132	-0.0010309576
48	0xbe9f6da4	-0.31138337
49	0x3eb77ce5	0.35837474
50	0x3e607993	0.21921377
51	0xbe038d30	-0.12846828
52	0xbe7e5b7d	-0.24839588
53	0xbceacbb2	-0.028661583
54	0x3e26378a	0.16232124
55	0xbe5dff31	-0.21679379
56	0xbdc0919f	-0.09402775
57	0x3e47ccdd	0.19511743
58	0xbe42e168	-0.19031298
59	0x3b9c7499	0.0047746417
60	0xbe9c521e	-0.305314
61	0x3e906357	0.2820079
62	0x3e1c30bf	0.1525297
63	0xbe8fdaf7	-0.28096744

layers.layer_1.bias f4 [8]
0	0xbe0ebcb3	-0.1393917
1	0x3dfd9680	0.12382221
2	0x3d246e5e	0.040144317
3	0x3d892612	0.066967145
4	0xbe734687	-0.23757373
5	0xbe561b50	-0.20908856
6	0x3e51f14d	0.20502205
7	0xbe95beef	-0.29247233

layers.layer_2.weight f4 [16, 8]
0	0xbe05d2b8	-0.13068664
1	0x3e5c6bbb	0.21525471
2	0x3e796b54	0.24357349
3	0xbd05be76	-0.03265234
4	0x3e1fe801	0.15615846
5	0x3dc079a7	0.09398203
6	0xbbf0df23	-0.0073508187
7	0xbd567cc6	-0.052365087
8	0x3e57d4d3	0.2107728
9	0x3ecec75c	0.40386474
10	0x3e6997a9	0.2281176
11	0xbe5a47d1	-0.21316458
12	0xbe7fc92f	-0.24979089
13	0xbed1c456	-0.40970105
14	0x3d04256d	0.032262255
15	0xbdae3f6d	-0.08508191
16	0xbe222f62	-0.15838388
17	0x3c87361d	0.016505295
18	0x3ecfbf6a	0.40575725
19	0x3e898b79	0.26864222
20	0x3cfd5c82	0.0309279
21	0xbe378332	-0.17921141
22	0x3e550c16	0.20805392
23	0x3ce47b2e	0.027890768
24	0xbec999ad	-0.39375058
25	0x3e2e8851	0.17044188
26	0x3ecbf2fe	0.39833826
27	0xbeac14df	-0.33609673
28	0xbcb7179c	-0.022350125
29	0x3c778198	0.015106581
30	0xbe855186	-0.2603876
31	0xbe824e7d	-0.25450507
32	0x3e3ba9f5	0.18326552
33	0xbd3423c2	-0.043979414
34	0x3e944614	0.28959715
35	0xbd383c77	-0.04497954
36	0x3e26419d	0.16235967
37	0xbea2da1e	-0.31807035
38	0xbca4bee8	-0.020110562
39	0x3e99547c	0.2994727
40	0x3de6d229	0.112705536
41	0xbd5bd655	-0.0536712
42	0x3dbf8c34	0.093529135
43	0x3e64d682	0.22347453
44	0xbe87cc0c	-0.26522863
45	0x3e220982	0.1582394
46	0xbda793c4	-0.08182481
47	0xbd083fa7	-0.03326383
48	0x3e0be47f	0.13661383
49	0xbe822db5	-0.25425497
50	0xbc8cb862	-0.017177764
51	0x3e9bfa1f	0.30464265
52	0x3e24c457	0.16090523
53	0xbe2e6d63	-0.17033915
54	0xbd5c9463	-0.05385245
55	0x3e9d58ae	0.3073172
56	0x3e6e8e29	0.23296417
57	0x3e1bf839	0.15231408
58	0xbea63af1	-0.32466844
59	0x3e483f25	0.19555338
60	0xbcd950b3	-0.026527738
61	0x3e213370	0.15742278
62	0x3e8b671e	0.2722711
63	0x3de174e1	0.11008621
64	0x3ea20e54	0.31651556
65	0x3db7269e	0.089429125
66	0x3d9bbe4f	0.07604658
67	0x3bf76263	0.0075495704
68	0xbec132b3	-0.37733993
69	0xbe632d02	-0.22185138
70	0xbe83e327	-0.2575924
71	0xbe92eaad	-0.28694668
72	0x3de9509a	0.11392327
73	0x3e27ea38	0.16397941
74	0xbd31ca75	-0.04340597
75	0xbea4a324	-0.32155716
76	0x3ecca6bd	0.3997096
77	0x3e56af73	0.20965366
78	0x3e4b8249	0.19873919
79	0x3ec99102	0.39368445
80	0xbe06f863	-0.1318069
81	0xbe84f5c6	-0.2596876
82	0xbe88ac50	-0.26693964
83	0x3d1a4800	0.03766632
84	0xbebb74f0	-0.36612654
85	0x3eae68d6	0.34064358
86	0xbcd2388a	-0.025661726
87	0x3e0598d2	0.13046578
88	0xbe7e3b1d	-0.24827237
89	0x3ca7fdcb	0.02050676
90	0x3dd60d30	0.10451734
91	0xbe192e17	-0.14958988
92	0x3ec566db	0.38555035
93	0xbe624983	-0.22098355
94	0x3e13e5a0	0.14443064
95	0xbe4af432	-0.19819716
96	0x3c3f8dbf	0.01169151
97	0xbe19e794	-0.15029746
98	0x3dc47915	0.09593407
99	0x3e98d2a0	0.29848194
100	0x3d12d59c	0.035848245
101	0x3cf80621	0.03027636
102	0xbdf73a58	-0.12071675
103	0x3e7155fd	0.23567958
104	0xbd013b67	-0.03155079
105	0x3e4b04e0	0.19826078
106	0xbe5bc55f	-0.2146201
107	0x3eaf648f	0.34256408
108	0x3e99f231	0.3006759
109	0x3e994511	0.29935506
110	0x3e319bd1	0.17344595
111	0x3db455e3	0.08805444
112	0xbe746ab7	-0.23868833
113	0x3d8bcf2c	0.06826624
114	0x3e4210f2	0.18951777
115	0xbe1e90e3	-0.15484957
116	0x3dfefdf7	0.12450784
117	0x3e0e83fe	0.13917539
118	0xbe963ef5	-0.29344907
119	0xbe892c54	-0.26791632
120	0xbe47d3e8	-0.1951443
121	0x3c89a5fa	0.016802777
122	0xbdb0c0a0	-0.0863049
123	0x3dc5b119	0.09652919
124	0xbdd92b21	-0.10603929
125	0xbe5707a2	-0.20999005
126	0x3ce4a6db	0.027911594
127	0x3e60d71f	0.21957062

layers.layer_2.bias f4 [16]
0	0xbe3aa05c	-0.18225235
1	0x3ea3626e	0.31911033
2	0x3db8eab0	0.09029138
3	0x3ea2b8a1	0.31781486
4	0xbe89db89	-0.26925305
5	0xbec94009	-0.39306667
6	0x3e0ad85e	0.135591
7	0xbe97e21a	-0.2966469
8	0xbe8c327f	-0.27382275
9	0x3e4e7415	0.2016147
10	0x3e14e2c0	0.14539623
11	0xbe920a86	-0.28523654
12	0x3e737137	0.23773657
13	0xbdacad99	-0.084315486
14	0x3e85964d	0.26091233
15	0xbe643d1b	-0.22288935

layers.layer_3.weight f4 [1, 16]
0	0xbea0164f	-0.3126702
1	0xbe824295	-0.25441423
2	0xbdece399	-0.11566848
3	0xbe9fb511	-0.3119283
4	0xbda99874	-0.08281031
5	0xbda8229b	-0.082097255
6	0x3b46a184	0.0030308673
7	0x3dac44c2	0.08411552
8	0x3d741beb	0.059596937
9	0xbe9558cc	-0.2916931
10	0x3e4ae250	0.19812894
11	0xbe5f87dd	-0.21829171
12	0x3e1b61a0	0.1517396
13	0x3e59643c	0.21229643
14	0xbe33bb9a	-0.17552033
15	0xbc877e68	-0.016539767
