Results/Laplace_EXP/Models/Laplace_EXP_PINN_step_2300.pth (torch, 4644 bytes, 7 tensors)

layers.layer_0.weight f4 [8, 2]
0	0xbf2d4270	-0.676795
1	0xbd993ddb	-0.07482501
2	0xbec45d2d	-0.38352337
3	0xbdbc20b8	-0.09185928
4	0xbf23bfb4	-0.6396439
5	0x3d25260b	0.040319484
6	0xbf263c8b	-0.6493613
7	0xbe00d16f	-0.12579893
8	0x3ea25b11	0.31710103
9	0xbdb5d420	-0.0887835
10	0x3eccdcf3	0.4001232
11	0x3d35262b	0.044225853
12	0x3ed996f0	0.4249797
13	0x3f19b47e	0.60041034
14	0xbebbeb24	-0.36702836
15	0x3d401403	0.046894085

layers.layer_0.bias f4 [8]
0	0xbeca94fa	-0.39566785
1	0x3e582e36	0.21111378
2	0xbee55297	-0.44789574
3	0x3e9357c8	0.2877791
4	0x3d3b8af4	0.045786813
5	0xbeab1f54	-0.3342234
6	0xbec0ab06	-0.3763048
7	0x3e723c4b	0.23655812

layers.layer_1.weight f4 [8, 8]
0	0x3ecf89eb	0.4053491
1	0x3e89407c	0.2680701
2	0x3c31fec9	0.010863968
3	0x3d5dbca3	0.054134976
4	0x3e3b1112	0.1826823
5	0xbea6c377	-0.32571003
6	0x3e738c92	0.23784092
7	0xbda354df	-0.07975172
8	0x3e1dc8ce	0.15408632
9	0xbe53a1d6	-0.20667204
10	0xbcdd1a52	-0.02699009
11	0x3d4fcd51	0.050732914
12	0x3e9b74a0	0.30362415
13	0x3d245cfd	0.040127743
14	0x3e8ada67	0.27119753
15	0xbec57ede	-0.38573354
16	0xbde9c0b3	-0.114137076
17	0xbed919b7	-0.4240243
18	0xbc22d49e	-0.009938387
19	0x3d2d3fe1	0.042297248
20	0xbdd8c876	-0.1058511
21	0x3e5c7e95	0.21532662
22	0xbdb11e58	-0.08648366
23	0xbeb825a6	-0.35966223
24	0x3ea58fa2	0.32336146
25	0x3e904917	0.28180763
26	0x3e5bfef3	0.21483974
27	0x3eaa6517	0.3328025
28	0x3de16228	0.1100505
29	0x3e0d10af	0.13775896
30	0x3e9ca75b	0.30596432
31	0xbd3a09ed	-0.045419622
32	0xbe9e95cf	-0.3097367
33	0xbe78eaf7	-0.24308382
34	0xbd9c0e47	-0.07619911
35	0xbdc0e3a3	-0.09418418
36	0x3d2e28cd	0.04251938
37	0x3e9c7502	0.3055802
38	0x3d8797ad	0.06620727
39	0xbeb1afca	-0.3470443
40	0xbc8ee6b7	-0.017443998
41	0x3d0f1c9a	0.034939386
42	0x3e92d82d	0.28680554
43	0xbcfd0216	-0.030884784
44	0xbe6224dc	-0.22084373
45	0xbe31dc87	-0.17369281
46	0xbc608855	-0.013704379
47	0x3bd5b96e	0.006522349
48	0xbe973844	-0.29535115
49	0x3ec2ac48	0.38022065
50	0x3e6681e9	0.22510494
51	0xbdf1e3fb	-0.11811062
52	0xbe6d06a4	-0.23147064
53	0xbd0ffcc6	-0.035153173
54	0x3e4a24b5	0.19740565
55	0xbe6c7c31	-0.2309425
56	0xbdb27dfd	-0.087154366
57	0x3e5d46fe	0.21609113
58	0xbe3fb131	-0.18719937
59	0x3c93b6a0	0.018031418
60	0xbe9c75b3	-0.30558547
61	0x3e882e0b	0.26597628
62	0x3e2100c8	0.15722954
63	0xbe8d3376	-0.27578324

layers.layer_1.bias f4 [8]
0	0xbe491993	-0.19638662
1	0x3c2a7581	0.010403992
2	0x3cfa748c	0.030573152
3	0x3b75c61c	0.0037502116
4	0xbe8ff246	-0.28114527
5	0xbe45fdb2	-0.19335058
6	0x3e3a125d	0.18171068
7	0xbe965be9	-0.29366997

layers.layer_2.weight f4 [16, 8]
0	0xbe1c7f58	-0.15282953
1	0x3e59deea	0.21276441
2	0x3e86a0f7	0.2629468
3	0xbd3c5770	-0.045981824
4	0x3e2a60ee	0.16638538
5	0x3dbdc54d	0.09266148
6	0xbcba0087	-0.02270533
7	0xbd40b51c	-0.04704772
8	0x3e3727e5	0.17886312
9	0x3ebbbef7	0.36669132
10	0x3e7be863	0.24600367
11	0xbe715261	-0.23566581
12	0xbe7d0552	-0.24709061
13	0xbed0ac94	-0.40756667
14	0xba3ff71e	-0.0007322895
15	0xbdb7201a	-0.0894167
16	0xbe4ae4b9	-0.19813813
17	0xbc875296	-0.016518872
18	0x3edddc00	0.4333191
19	0x3e7714a4	0.24128968
20	0x3d293b1c	0.041316137
21	0xbe304834	-0.17215043
22	0x3e2547ac	0.16140622
23	0x3cf62b10	0.03004983
24	0xbed9e980	-0.4256096
25	0x3e0d2fe2	0.13787797
26	0x3ed2ef1c	0.4119805
27	0xbeb6afee	-0.356811
28	0xbc9c0802	-0.019046787
29	0x3cb23607	0.021754278
30	0xbe902bf2	-0.28158528
31	0xbe83a30d	-0.25710335
32	0x3e141ced	0.1446416
33	0xbc7bd8d4	-0.01537152
34	0x3eaa37ea	0.33245784
35	0xbd8c3405	-0.068458594
36	0x3e47d671	0.19515397
37	0xbea6a517	-0.3254783
38	0xbd2c2807	-0.04203036
39	0x3ea8dba1	0.32980064
40	0x3dbc0bad	0.091819145
41	0xbda54863	-0.08070447
42	0x3dd3208e	0.10308944
43	0x3e5742ac	0.21021527
44	0xbe871f01	-0.26390842
45	0x3e2bf5e4	0.16793019
46	0xbdce5ef9	-0.10076708
47	0xbd0f66c1	-0.035010103
48	0x3e18d89f	0.14926384
49	0xbe7c8e9c	-0.24663776
50	0xbcd5e61a	-0.026110698
51	0x3ea0128a	0.31264144
52	0x3e211bd7	0.15733276
53	0xbe2d7269	-0.16938175
54	0xbd3f0c8a	-0.046642818
55	0x3e9d49c0	0.3072033
56	0x3e9d9367	0.30776522
57	0x3e457ff5	0.19287093
58	0xbebd9a85	-0.37031952
59	0x3e809fc1	0.25121883
60	0xbd4ef72f	-0.0505287
61	0x3e27b08a	0.16375938
62	0x3eb367bc	0.3504008
63	0x3dd35f84	0.103209525
64	0x3eb5fb0e	0.35543102
65	0x3e096a1a	0.13419381
66	0x3d581e87	0.05276349
67	0x3d0bcf96	0.034133516
68	0xbec42b5a	-0.38314325
69	0xbe6e4c6a	-0.23271337
70	0xbe4dbfce	-0.20092699
71	0xbe9170e2	-0.28406435
72	0x3dc6c88f	0.09706222
73	0x3e12c4d1	0.14332892
74	0xbce8377a	-0.028346766
75	0xbeaace1e	-0.3336038
76	0x3ecf9fab	0.40551504
77	0x3e62910f	0.22125648
78	0x3e304bee	0.17216465
79	0x3ecb825d	0.39747897
80	0xbdf06b21	-0.11739183
81	0xbe83384c	-0.2562889
82	0xbe915f4a	-0.28393012
83	0x3d3ca1b0	0.046052635
84	0xbec0c721	-0.37651923
85	0x3ea75a0b	0.32685885
86	0xbbde8a12	-0.0067913616
87	0x3df43afd	0.119253136
88	0xbe875fd6	-0.26440305
89	0x3c03ef03	0.00805259
90	0x3deff0f6	0.117158815
91	0xbe216b09	-0.15763487
92	0x3ec7e3c5	0.39040962
93	0xbe5abbbb	-0.21360676
94	0x3e06c97a	0.13162795
95	0xbe49b925	-0.19699533
96	0x3d1bcdca	0.038038053
97	0xbe0f46cc	-0.1399185
98	0x3d9d6971	0.07686127
99	0x3ea14814	0.31500304
100	0x3ce22224	0.02760417
101	0x3d0d2073	0.034454774
102	0xbdd718ee	-0.10502802
103	0x3e6f7f5a	0.23388425
104	0xbb9bb8c6	-0.0047522513
105	0x3e4752c1	0.19465162
106	0xbe72b496	-0.237017
107	0x3eb8abb8	0.3606851
108	0x3e9327e4	0.28741372
109	0x3e9e2a3e	0.30891603
110	0x3e3f75b4	0.18697244
111	0x3da4590e	0.08024798
112	0xbe8edb69	-0.27901772
113	0x3d44395f	0.047906276
114	0x3e5cb3b6	0.2155293
115	0xbe3a62d4	-0.18201762
116	0x3e0c0975	0.13675483
117	0x3e0db9de	0.13840434
118	0xbea4f92f	-0.32221362
119	0xbe86e1e1	-0.26344207
120	0xbe715382	-0.23567012
121	0x3a4e4d2f	0.00078697776
122	0xbd55bf45	-0.052184362
123	0x3d8ed413	0.06974044
124	0xbdb9f01c	-0.09079
125	0xbe5f3070	-0.21795821
126	0x3bf7093c	0.0075389426
127	0x3e649640	0.22322941

layers.layer_2.bias f4 [16]
0	0xbe3e7f6d	-0.18603297
1	0x3ea2d95d	0.3180646
2	0x3d74abac	0.05973403
3	0x3ea48373	0.32131538
4	0xbe938b2a	-0.2881711
5	0xbecd6c9f	-0.40121934
6	0x3e0a07b9	0.13479508
7	0xbe96a918	-0.29425883
8	0xbe748568	-0.23879015
9	0x3e3513e3	0.17683367
10	0x3e3b39f1	0.18283822
11	0xbe91a865	-0.28448787
12	0x3e6f78e2	0.23385957
13	0xbd9f07fe	-0.07765196
14	0x3e80109f	0.2501268
15	0xbe64601f	-0.22302292

layers.layer_3.weight f4 [1, 16]
0	0xbeabc2bd	-0.3354701
1	0xbe74aa0c	-0.23892993
2	0xbe0c78ef	-0.13718008
3	0xbeb097e8	-0.34490895
4	0xbdd64dc6	-0.10464053
5	0xbd9da9c4	-0.07698396
6	0x3d2003e7	0.03906622
7	0x3e143659	0.14473857
8	0x3d8dff1a	0.069334224
9	0xbe979f15	-0.29613557
10	0x3e553808	0.20822155
11	0xbe6dfc24	-0.23240715
12	0x3e2b54c5	0.16731556
13	0x3e7ff0f4	0.2499426
14	0xbe705aaa	-0.23472086
15	0xbd0d75b9	-0.034536097
