Results/Laplace_EXP/Models/Laplace_EXP_PINN_step_3100.pth (torch, 4644 bytes, 7 tensors)

layers.layer_0.weight f4 [8, 2]
-0.70513266 -0.119406104 -0.36919624 -0.1896618 -0.6292589 -0.03657529 -0.66845185 -0.26234162
0.40644866 -0.28909072 0.40188846 0.17861347 0.59299517 0.749409 -0.38533208 -0.0031771807
00000000: 9383 34bf 308b f4bd 4a07 bdbe b436 42be
00000010: 1c17 21bf f9cf 15bd a91f 2bbf a451 86be
00000020: 0a1a d03e b303 94be 53c4 cd3e 73e6 363e
00000030: 88ce 173f 45d9 3f3f 3f4a c5be 3f38 50bb

layers.layer_0.bias f4 [8]
-0.29519525 0.2689163 -0.42191467 0.3609858 -0.015154905 -0.3442204 -0.19354445 0.19820945
00000000: d523 97be 66af 893e 3305 d8be 21d3 b83e
00000010: 474c 78bc a83d b0be 8430 46be 6bf7 4a3e

layers.layer_1.weight f4 [8, 8]
0.39503703 0.3330168 -0.052877102 0.10368041 0.36130622 -0.3883253 0.38731408 -0.13333286
0.149431 -0.21947601 -0.03087415 0.04166054 0.29443944 0.054583292 0.21877548 -0.39732972
-0.12313764 -0.4469152 -0.009842516 0.026766833 -0.20704624 0.2358271 -0.20234182 -0.3452024
0.32743728 0.31418633 0.20326196 0.35542247 0.22622521 0.1101998 0.4027722 -0.070724756
-0.3424446 -0.27001056 -0.109430104 -0.10726501 -0.011679881 0.33001906 -0.05567178 -0.35470873
0.0027739885 0.07871519 0.29354176 0.0039032158 -0.11113532 -0.2128602 0.07225424 -0.0007359724
-0.3310864 0.39897037 0.16065569 -0.11242811 -0.079750635 -0.055227645 0.3503392 -0.276653
-0.084461495 0.24844393 -0.19013612 0.04234262 -0.23962006 0.23388523 0.21472228 -0.27626005
00000000: 4b42 ca3e 2e81 aa3e a995 58bd 6556 d43d
00000010: 21fd b83e 93d2 c6be 084e c63e 6988 08be
00000020: 7104 193e 52be 60be c9eb fcbc 3ea4 2a3d
00000030: c4c0 963e bb92 5f3d ae06 603e cd6e cbbe
00000040: 962f fcbd 12d2 e4be 8142 21bc 1e46 db3c
00000050: ee03 54be a97c 713e b232 4fbe 5ebe b0be
00000060: dca5 a73e 08dd a03e e723 503e eff9 b53e
00000070: 95a7 673e 6fb0 e13d 2838 ce3e 24d8 90bd
00000080: e654 afbe d33e 8abe e41c e0bd c2ad dbbd
00000090: f95c 3fbc 42f8 a83e 1808 64bd 629c b5be
000000a0: cecb 353b 6e35 a13d 1b4b 963e 18cd 7f3b
000000b0: ea9a e3bd 06f8 59be 08fa 933d 46ee 40ba
000000c0: 2884 a9be d845 cc3e ed82 243e b540 e6bd
000000d0: 4d54 a3bd 6236 62bd a95f b33e 76a5 8dbe
000000e0: 26fa acbd 1668 7e3e 0bb3 42be 756f 2d3d
000000f0: f65e 75be 9c7f 6f3e 28e0 5b3e f571 8dbe

layers.layer_1.bias f4 [8]
-0.1563505 -0.006776549 0.07982976 -0.021599092 -0.25337407 -0.24429855 0.24570724 -0.2752537
00000000: 581a 20be d00d debb c97d a33d 94f0 b0bc
00000010: 3fba 81be 6629 7abe ae9a 7b3e 0eee 8cbe

layers.layer_2.weight f4 [16, 8]
-0.21651457 0.1496188 0.2981762 -0.08682844 0.17534068 0.084509075 -0.0637029 -0.051470615
0.11244102 0.30260006 0.28311315 -0.27960464 -0.2352985 -0.4052866 -0.05615191 -0.09790717
-0.29687986 -0.115714036 0.49597088 0.16820814 0.06339926 -0.16639785 0.06357395 0.016494751
-0.50071114 0.07763331 0.45663413 -0.40307975 0.0017096052 0.056703765 -0.33732045 -0.24722429
0.04212792 -0.09708471 0.40478793 -0.14877617 0.22949862 -0.35716853 -0.11510841 0.35179248
0.046630666 -0.12429615 0.12366636 0.18419114 -0.25793636 0.17551644 -0.1387386 -0.040120956
0.24636935 -0.14592397 -0.08985019 0.3791843 0.13743997 -0.17396717 0.015297894 0.30998415
0.44508475 0.32932538 -0.48039123 0.36382315 -0.11878396 0.07333429 0.49471962 0.050003927
0.45150226 0.2347561 -0.0032402351 0.10378863 -0.39803654 -0.24661496 -0.09162412 -0.2589331
0.041464295 0.08986785 0.0064421105 -0.37259543 0.41868475 0.21639055 0.11885752 0.3920795
-0.057346728 -0.2108394 -0.3218465 0.08496964 -0.39181408 0.33946404 0.020495135 0.11029888
-0.32906178 -0.060108792 0.15157649 -0.19869763 0.39639524 -0.22295775 0.09885939 -0.203213
0.10673462 -0.07041133 0.038365196 0.35871884 0.01683194 0.033763677 -0.05774044 0.23831926
0.06219467 0.24773787 -0.28200504 0.40387502 0.2660304 0.2973762 0.23591247 0.06888334
-0.37788454 -0.043782007 0.2814189 -0.25118914 0.16640526 0.16794424 -0.40495595 -0.2500358
-0.37556672 -0.14900999 0.0578476 -0.04407879 -0.045752503 -0.24160504 -0.09493565 0.21203592
00000000: ffb5 5dbe ac35 193e 8daa 983e 1cd3 b1bd
00000010: 828c 333e 1813 ad3d ab76 82bd dad2 52bd
00000020: 7a47 e63d 65ee 9a3e 35f4 903e 5728 8fbe
00000030: 17f2 70be ba81 cfbe 8cff 65bd 8e83 c8bd
00000040: a300 98be 7bfb ecbd e5ef fd3e c13e 2c3e
00000050: 79d7 813d 3364 2abe 0f33 823d 0020 873c
00000060: 9b2e 00bf 36fe 9e3d f3cb e93e 7860 cebe
00000070: d514 e03a 3542 683d 44b5 acbe 5d28 7dbe
00000080: 538e 2c3d 59d4 c6bd 5d40 cf3e c858 18be
00000090: b001 6b3e cbde b6be f5bd ebbd 251e b43e
000000a0: ccff 3e3d fb8e febd ca44 fd3d 9a9c 3c3e
000000b0: 3c10 84be 95ba 333e 7e11 0ebe df55 24bd
000000c0: 3f48 7c3e 186d 15be 6003 b8bd 7224 c23e
000000d0: 10bd 0c3e 7324 32be 05a4 7a3c 3eb6 9e3e
000000e0: 26e2 e33e 569d a83e d7f5 f5be 0747 ba3e
000000f0: 0145 f3bd 4a30 963d e44b fd3e ebd0 4c3d
00000100: 4e2b e73e e763 703e 205a 54bb 228f d43d
00000110: 72cb cbbe a288 7cbe 6da5 bbbd e192 84be
00000120: 77d6 293d a30c b83d 5718 d33b d4c4 bebe
00000130: d95d d63e 7c95 5d3e 926b f33d a5be c83e
00000140: 67e4 6abd 49e6 57be 10c9 a4be 9004 ae3d
00000150: db9b c8be 3bce ad3e 6ae5 a73c 61e4 e13d
00000160: c97a a8be a334 76bd de36 1b3e 6477 4bbe
00000170: 51f4 ca3e 094f 64be cb76 ca3d 1217 50be
00000180: ae97 da3d d133 90bd d324 1d3d ffa9 b73e
00000190: 23e3 893c c84b 0a3d 3d81 6cbd f709 743e
000001a0: d7bf 7e3d ffae 7d3e f762 90be b5c8 ce3e
000001b0: 2335 883e b141 983e 0a93 713e b512 8d3d
000001c0: 157a c1be c354 33bd 2316 903e dd9b 80be
000001d0: 2466 2a3e 93f9 2b3e 6356 cfbe b104 80be
000001e0: 484a c0be 1396 18be 9bf1 6c3d f68b 34bd
000001f0: fa66 3bbd 5067 77be 9f6d c2bd f21f 593e

layers.layer_2.bias f4 [16]
-0.14527401 0.33490172 0.08402557 0.28738654 -0.21508421 -0.40346685 0.106316745 -0.18724722
-0.24421114 0.1709351 0.1621085 -0.23996891 0.20041923 -0.055006497 0.22552551 -0.15019514
00000000: b6c2 14be 3d78 ab3e 9915 ac3d 5424 933e
00000010: 093f 5cbe 3593 cebe 98bc d93d bcbd 3fbe
00000020: 7c12 7abe 9c09 2f3e c5ff 253e 69ba 75be
00000030: b33a 4d3e 7e4e 61bd 29f0 663e c1cc 19be

layers.layer_3.weight f4 [1, 16]
-0.37661493 -0.26206934 -0.21319526 -0.4170481 -0.14359501 -0.06817568 0.13364437 0.25992718
0.10283321 -0.30578455 0.21912238 -0.26639688 0.2219348 0.34542367 -0.34443203 -0.14827827
00000000: acd3 c0be f42d 86be dc4f 5abe 5487 d5be
00000010: 920a 13be b19f 8bbd 12da 083e 2d15 853e
00000020: 389a d23d cb8f 9cbe 9e61 603e 2c65 88be
00000030: e042 633e 5fdb b03e 6559 b0be 42d6 17be
