Results/Laplace_EXP/Models/Laplace_EXP_PINN_step_3200.pth (torch, 4644 bytes, 7 tensors)

layers.layer_0.weight f4 [8, 2]
-0.7288501 -0.12154449 -0.3690255 -0.1876209 -0.6395254 -0.043980647 -0.6899584 -0.25957736
0.43594643 -0.3174133 0.41049698 0.17579228 0.6055155 0.7557856 -0.3900152 -0.003643316
00000000: ec95 3abf 51ec f8bd e9f0 bcbe b11f 40be
00000010: f0b7 23bf 0d25 34bd 1da1 30bf 53e7 84be
00000020: 5f34 df3e ff83 a2be a92c d23e e402 343e
00000030: 1003 1b3f 2a7b 413f 13b0 c7be b3c4 6ebb

layers.layer_0.bias f4 [8]
-0.27727652 0.27364543 -0.40945125 0.34769356 -0.019830713 -0.33189687 -0.17685004 0.18183608
00000000: 30f7 8dbe 411b 8c3e 98a3 d1be e404 b23e
00000010: 0574 a2bc 63ee a9be 2d18 35be 3d33 3a3e

layers.layer_1.weight f4 [8, 8]
0.39566308 0.3260993 -0.065050036 0.10307027 0.38628408 -0.38282442 0.4043968 -0.15145427
0.14995104 -0.2180749 -0.030985508 0.04281351 0.3014219 0.053149737 0.21999124 -0.39676434
-0.12739395 -0.44597754 -0.011641322 0.025051348 -0.22939034 0.23497483 -0.21543184 -0.34062847
0.32973596 0.31571093 0.20202738 0.3582537 0.24849993 0.10892687 0.41407305 -0.07747696
-0.35716867 -0.27397576 -0.12363475 -0.114083 -0.029874431 0.33149198 -0.04992398 -0.35866892
0.010702613 0.08378662 0.29913566 0.011256065 -0.09122479 -0.21776994 0.07812319 -0.0007000934
-0.33301172 0.3991221 0.15177248 -0.10685103 -0.058709655 -0.058212273 0.3667435 -0.27701727
-0.08367274 0.2508958 -0.1907504 0.044781014 -0.22266409 0.23133104 0.22223684 -0.2784975
00000000: 5a94 ca3e 7df6 a63e f438 85bd 8116 d33d
00000010: 07c7 c53e 9001 c4be 190d cf3e d416 1bbe
00000020: c48c 193e 074f 5fbe 52d5 fdbc 385d 2f3d
00000030: f953 9a3e 8ab3 593d 6245 613e b224 cbbe
00000040: 8f73 02be 2b57 e4be 3ebb 3ebc 7c38 cd3c
00000050: 4de5 6abe 3e9d 703e 2a9a 5cbe db66 aebe
00000060: 27d3 a83e dda4 a13e 44e0 4e3e 076d b73e
00000070: c476 7e3e 0d15 df3d 6201 d43e 3eac 9ebd
00000080: d0de b6be 8d46 8cbe 3734 fdbd 59a4 e9bd
00000090: 39bb f4bc 51b9 a93e 167d 4cbd 74a3 b7be
000000a0: 035a 2f3c 5298 ab3d 4f28 993e 5c6b 383c
000000b0: 10d4 babd 15ff 5ebe 0dff 9f3d 7986 37ba
000000c0: 8380 aabe bb59 cc3e 3f6a 1b3e b6d4 dabd
000000d0: 8979 70bd fe6f 6ebd cec5 bb3e 35d5 8dbe
000000e0: 9d5c abbd 6a75 803e 1354 43be 4c6c 373d
000000f0: 0e02 64be 0be2 6c3e 0e92 633e 3997 8ebe

layers.layer_1.bias f4 [8]
-0.14469159 -0.0019852612 0.09136825 -0.025634611 -0.23893481 -0.25765458 0.26492184 -0.27076575
00000000: 082a 14be 281b 02bb 471f bb3d adff d1bc
00000010: 54ab 74be 4deb 83be d6a3 873e cfa1 8abe

layers.layer_2.weight f4 [16, 8]
-0.22861995 0.13619351 0.30558217 -0.095215835 0.17740631 0.082895994 -0.06756605 -0.049633354
0.10008862 0.29206735 0.2916412 -0.28836885 -0.23093975 -0.40544143 -0.062464666 -0.09536354
-0.31380385 -0.13249393 0.5095791 0.1539607 0.07097522 -0.16350417 0.0514688 0.020831414
-0.51483685 0.06345124 0.4661237 -0.4127078 0.006377057 0.06496726 -0.3458922 -0.24204586
0.024973748 -0.1161347 0.4186284 -0.16433252 0.23701634 -0.36655724 -0.115206875 0.3636222
0.038753763 -0.12962852 0.12795092 0.1795679 -0.25577608 0.1757368 -0.14288178 -0.03948547
0.26584953 -0.12578233 -0.1062254 0.39546776 0.12950277 -0.1763312 0.025676645 0.30444196
0.46434596 0.35157666 -0.49749523 0.3817527 -0.13026284 0.057149168 0.5100092 0.03269068
0.46790826 0.25066254 -0.015620402 0.11711402 -0.40393192 -0.25200638 -0.078648895 -0.26013982
0.031111458 0.082478024 0.013784882 -0.3803268 0.42307776 0.21245077 0.11564404 0.39459527
-0.045907967 -0.20123991 -0.3297098 0.09318152 -0.39577472 0.34509304 0.017270973 0.105182454
-0.34113362 -0.07342008 0.15917179 -0.20707816 0.3983244 -0.225239 0.09768924 -0.20043613
0.12020448 -0.056437112 0.029515604 0.36812052 0.013543687 0.03316591 -0.05185563 0.23579122
0.07619021 0.2614061 -0.29205936 0.4139835 0.2607594 0.29564556 0.24287891 0.06354551
-0.39452562 -0.061284162 0.29478535 -0.26483145 0.17390265 0.17482415 -0.41547272 -0.24117808
-0.3979646 -0.1727302 0.07929803 -0.0654303 -0.029732605 -0.24563287 -0.109985664 0.22232181
00000000: 591b 6abe 5076 0b3e 4475 9c3e 8500 c3bd
00000010: 00aa 353e 60c5 a93d 1260 8abd 584c 4bbd
00000020: 43fb cc3d da89 953e ff51 953e 15a5 93be
00000030: 787b 6cbe 0596 cfbe f3da 7fbd f64d c3bd
00000040: e6aa a0be 7dac 07be c773 023f e0a7 1d3e
00000050: 755b 913d a36d 27be f3d0 523d a4a6 aa3c
00000060: 59cc 03bf b9f2 813d c4a7 ee3e 704e d3be
00000070: a2f6 d03b 8e0d 853d c818 b1be dfda 77be
00000080: bf95 cc3c 08d8 edbd 7656 d63e c946 28be
00000090: 69b4 723e 64ad bbbe 95f1 ebbd b02c ba3e
000000a0: 44bc 1e3d 57bd 04be 9105 033e a6e0 373e
000000b0: 15f5 82be 59f4 333e 9a4f 12be 84bb 21bd
000000c0: 6e1d 883e 15cd 00be b48c d9bd c07a ca3e
000000d0: 609c 043e 2b90 34be d457 d23c d1df 9b3e
000000e0: c1be ed3e db01 b43e b2b7 febe 1775 c33e
000000f0: 9f63 05be 3f15 6a3d f78f 023f aae6 053d
00000100: ac91 ef3e d756 803e b7ec 7fbc 7ad9 ef3d
00000110: 2ad0 cebe fb06 81be ac12 a1bd 0c31 85be
00000120: 75dd fe3c 3dea a83d fcd9 613c 32ba c2be
00000130: a69d d83e b28c 593e c8d6 ec3d 6408 ca3e
00000140: fe09 3cbd d611 4ebe b9cf a8be f4d5 be3d
00000150: fca2 cabe 09b0 b03e db7b 8d3c e669 d73d
00000160: 11a9 aebe 445d 96bd eefd 223e 4c0c 54be
00000170: 2df1 cb3e 0da5 66be 4c11 c83d 213f 4dbe
00000180: c42d f63d 9a2a 67bd b5ca f13c 4b7a bc3e
00000190: 57e6 5d3c fad8 073d 9266 54bd 4173 713e
000001a0: 9d09 9c3d 05d7 853e ce88 95be a5f5 d33e
000001b0: 4282 853e db5e 973e 40b5 783e 2624 823d
000001c0: 43ff c9be 1a05 7bbd 1bee 963e fd97 87be
000001d0: 8913 323e 1a05 333e d7b8 d4be 63f7 76be
000001e0: 04c2 cbbe 30e0 30be 0167 a23d 5200 86bd
000001f0: cb91 f3bc 2f87 7bbe 2a40 e1bd 54a8 633e

layers.layer_2.bias f4 [16]
-0.13645135 0.33660892 0.082630105 0.27799058 -0.19736443 -0.40505943 0.10028109 -0.17496136
-0.23484984 0.17274635 0.15286842 -0.23102361 0.19454938 -0.050014094 0.21687296 -0.13283893
00000000: e7b9 0bbe 0158 ac3e f939 a93d c854 8e3e
00000010: e719 4abe f363 cfbe 2c60 cd3d 1229 33be
00000020: 7a7c 70be 6be4 303e 8a89 1c3e 7491 6cbe
00000030: f437 473e 94db 4cbd f213 5e3e ee06 08be

layers.layer_3.weight f4 [1, 16]
-0.38667062 -0.27052528 -0.23082234 -0.4292515 -0.15633577 -0.06650424 0.15016392 0.27637932
0.11212054 -0.30999795 0.22291563 -0.2745872 0.23478733 0.3602886 -0.35969874 -0.1706739
00000000: b1f9 c5be 4a82 8abe b15c 6cbe dac6 dbbe
00000010: 7c16 20be 6033 88bd 92c4 193e 9781 8d3e
00000020: 749f e53d 0db8 9ebe ff43 643e b296 8cbe
00000030: 176c 703e bf77 b83e 6f2a b8be 24c5 2ebe
