Results/Laplace_EXP/Models/Laplace_EXP_PINN_step_1800.pth (torch, 4644 bytes, 7 tensors)

layers.layer_0.weight f4 [8, 2]
00000000: 6304 32bf a947 50bd 534f c5be a702 89bd
00000010: ff30 28bf 7d90 a53d b9aa 28bf f5f3 aabd
00000020: 2eef 9f3e 60bb b3bd 0ced cc3e 4865 b7b8
00000030: 2ccd bc3e 6041 003f 88d9 bcbe 7c87 8b3d
-0.69537944 -0.05084959 -0.38537082 -0.06689959 -0.6569976 0.080841996 -0.658855 -0.08347312
0.31237167 -0.08775973 0.40024602 -8.744985e-05 0.36875284 0.50099754 -0.36884713 0.06812951

layers.layer_0.bias f4 [8]
00000000: 95d9 c2be 63c0 493e 6f18 dbbe 7def 8c3e
00000010: 49d8 ba3d 8061 9fbe 95e5 e3be 698b 4e3e
-0.38056627 0.19702296 -0.4279208 0.27526465 0.09123284 -0.31129074 -0.44511095 0.20170368

layers.layer_1.weight f4 [8, 8]
00000000: b1aa cb3e 5fae 7d3e 052d 7b3c 0738 313d
00000010: f90f 1f3e e0d4 a1be 2277 353e df76 8bbd
00000020: a265 193e c49a 4bbe 42e8 03bd 72fe 5f3d
00000030: c669 9b3e 3236 e63c f2a7 9e3e d64f c0be
00000040: ab94 eabd 6a83 d5be de33 5ebc cbb7 383d
00000050: 2e0c c9bd b2bd 563e 3487 52bd 3ebf b8be
00000060: 3ed2 a43e 152b 8d3e fb1d 5f3e 4517 a93e
00000070: b870 c63d 4f13 0e3e 2cae 8e3e 1264 14bd
00000080: 8490 a1be 1d06 72be 2034 a7bd b1fd c0bd
00000090: c87a 303d 52d8 923e 3084 e73d 8ea4 aabe
000000a0: 1217 96bc 6474 c13c a3bb 943e 2020 12bd
000000b0: c4ec 6abe 6bc0 27be 4ab5 8bbd 2009 bd3b
000000c0: 343e 99be 2785 bd3e f234 683e 4973 fcbd
000000d0: ed31 7dbe 64c8 02bd 0e64 303e ed6c 63be
000000e0: 78fd b7bd 4f23 533e 7b11 41be 31bd 373c
000000f0: 570f 9dbe 370e 8c3e fd90 1d3e 9856 8ebe
0.39778665 0.24773549 0.015330558 0.043266322 0.15533437 -0.31607723 0.17721227 -0.06809782
0.14980176 -0.19883257 -0.03220392 0.054686017 0.30354136 0.028102014 0.30987507 -0.3756091
-0.114541374 -0.41701823 -0.013562171 0.045097154 -0.09816776 0.209708 -0.05139847 -0.36083406
0.32191652 0.2757193 0.2178878 0.33025566 0.09689468 0.13874553 0.27867258 -0.036228247
-0.3155557 -0.23635145 -0.08164239 -0.09423388 0.043085843 0.28680664 0.1130451 -0.3332867
-0.018321548 0.02361507 0.29049405 -0.035675168 -0.22941881 -0.16381995 -0.068216875 0.00576891
-0.2993027 0.3701565 0.22676447 -0.123266764 -0.24726076 -0.03192939 0.17225668 -0.2220952
-0.08983892 0.20618938 -0.18854325 0.01121454 -0.30675766 0.27354595 0.1538734 -0.2780044

layers.layer_1.bias f4 [8]
00000000: d433 30be cbd6 6a3d 949a 063d 3fe4 f03c
00000010: 937f 87be 1565 4dbe e651 433e 7875 96be
-0.17207271 0.05733375 0.03286226 0.029405711 -0.2646452 -0.20058091 0.1907421 -0.29386497

layers.layer_2.weight f4 [16, 8]
00000000: 7bdb 11be 565b 5e3e cea1 823e 7298 21bd
00000010: fc2d 263e dac2 bc3d fc9d 5dbc ce03 44bd
00000020: 67f4 453e a7e2 c63e 4a3e 753e 59e4 66be
00000030: a751 7dbe ae01 d3be 1509 8b3c e6a6 adbd
00000040: 6343 37be 43c8 a03b eff6 d73e 127b 823e
00000050: 78aa 183d c7cf 36be 0191 403e a863 043d
00000060: ffe4 d1be 3110 1d3e f38b cf3e c656 b1be
00000070: b072 b1bc 9316 863c d72d 8abe fed1 82be
00000080: f822 263e 05cb d4bc 10d1 a03e 73a5 68bd
00000090: 1271 383e bd56 a5be 840f d5bc 5585 a23e
000000a0: 5a20 d03d 3fbc 86bd 8a1d cb3d 4eb4 5d3e
000000b0: 2752 87be 6064 243e 17b3 b8bd 8316 08bd
000000c0: d628 103e 98ed 81be f350 a9bc f74c 9d3e
000000d0: 7a34 233e 5cc9 2cbe a6ea 55bd c103 9d3e
000000e0: 98cb 8a3e 5080 2b3e 8fa6 b2be bb0a 643e
000000f0: 7c8c 18bd 778e 2b3e 229b 9c3e d264 d43d
00000100: 32e0 ab3e 5fbd dc3d a1eb 803d 77aa a63c
00000110: 040d c3be 0ad4 66be 8929 6ebe 4ac5 93be
00000120: 7e95 d83d 4eab 1e3e 4377 10bd 2073 a7be
00000130: 4032 ce3e 19e6 5c3e 35c1 3f3e 6553 cb3e
00000140: 5fb1 ffbd 19d6 83be fa40 8dbe 94a0 283d
00000150: 9205 bebe 18d5 a93e cc20 8dbc b669 fd3d
00000160: 5bb9 82be 2809 833c 4031 e43d db12 1cbe
00000170: dab7 c63e ff28 5dbe a976 0e3e c4cd 48be
00000180: a3b4 d43c 4cf9 18be 7e93 ac3d 7651 9d3e
00000190: 7305 fa3c 3a8f 103d 52e4 eabd c47f 6e3e
000001a0: 988f 86bc 2f1e 463e e483 69be 928e b43e
000001b0: 1d1a 963e 94a5 9d3e 3d3a 373e cd78 a93d
000001c0: c9eb 84be 8819 7e3d e139 513e 9cae 2cbe
000001d0: cf3d 063e 1726 0a3e 1544 9cbe 11e6 86be
000001e0: 81fa 5bbe 44a6 8e3c 0ba4 8abd 30e3 ab3d
000001f0: 7994 c7bd b6fa 5fbe 9f5d ad3c 711b 653e
-0.14243881 0.2171453 0.25514072 -0.039452024 0.16228479 0.092168525 -0.013526436 -0.04785519
0.19331513 0.38844797 0.23949543 -0.22548045 -0.24738179 -0.4121222 0.016972104 -0.08479099
-0.178968 0.0049066856 0.42180583 0.2548452 0.037271947 -0.17852698 0.18805315 0.032321602
-0.40995023 0.15338208 0.4053646 -0.34636515 -0.021661133 0.016368186 -0.26988098 -0.25550836
0.16224277 -0.025975714 0.31409502 -0.05679841 0.18011883 -0.3229274 -0.026008375 0.3174235
0.101624206 -0.06578874 0.099177435 0.21650812 -0.26429865 0.16053915 -0.09018534 -0.033224594
0.14078078 -0.25376582 -0.020668482 0.30722782 0.15937987 -0.16873688 -0.05222573 0.30666927
0.27108455 0.16748166 -0.348927 0.22269718 -0.03724335 0.16753565 0.30587107 0.103707924
0.33569485 0.10778307 0.06294943 0.020344956 -0.38095868 -0.22541824 -0.23258032 -0.28861457
0.10575388 0.15495035 -0.035269987 -0.3270502 0.40272713 0.2157215 0.18726046 0.39712062
-0.12485003 -0.2574928 -0.27588636 0.041168764 -0.37113625 0.3317039 -0.017227553 0.123736784
-0.2553204 0.015995577 0.11142206 -0.15241568 0.38812143 -0.2159767 0.13912453 -0.19609743
0.02596504 -0.14938849 0.084265694 0.30726212 0.030520177 0.03529284 -0.1146933 0.23290926
-0.016425893 0.19347452 -0.22804219 0.35265023 0.29316798 0.3079039 0.1789331 0.08274994
-0.2596114 0.062036067 0.20432235 -0.16863483 0.13109516 0.13491093 -0.30520692 -0.26347402
-0.21482278 0.017413266 -0.0676957 0.08392942 -0.09745116 -0.21872982 0.021162806 0.2237375

layers.layer_2.bias f4 [16]
00000000: aaf2 3dbe 7277 a23e 1ec5 913d d5f1 a33e
00000010: db55 8ebe 34be cbbe d8b1 0a3e 4f6c 96be
00000020: 3155 80be 3ee5 403e 0b21 2b3e 6207 93be
00000030: 8451 723e 5741 a7bd b0d9 813e 24c5 64be
-0.185496 0.31731755 0.07117675 0.3202044 -0.27799878 -0.3979355 0.13544405 -0.29379508
-0.25064996 0.18837449 0.16711824 -0.2871657 0.23663908 -0.081667595 0.25361395 -0.22340828

layers.layer_3.weight f4 [1, 16]
00000000: 1035 a7be 1ad8 81be 2bf4 05be cc9a a8be
00000010: b0ae c5bd fc58 a1bd 31f4 aa3c 0a82 ed3d
00000020: 045b 853d 82f2 96be 8176 513e dacf 67be
00000030: 2641 233e df91 6c3e 46f3 52be 295c ecbc
-0.3265767 -0.25360185 -0.13081424 -0.329306 -0.096524596 -0.078783005 0.020868393 0.115970686
0.065115005 -0.29481894 0.20455362 -0.22637883 0.15942821 0.2310252 -0.20600614 -0.02885254
