Results/Laplace_EXP/Models/Laplace_EXP_PINN_step_2400.pth (torch, 4644 bytes, 7 tensors)

layers.layer_0.weight f4 [8, 2]
000000 89 51 2c bf 49 b8 a9 bd d8 0e c4 be c2 03 d3 bd
       -0.6731191 -0.08287103 -0.38292575 -0.10303451
000010 fa cd 22 bf 4b 3a 00 3d 25 d1 25 bf 4d ec 0f be
       -0.63595545 0.031305593 -0.64772254 -0.14054985
000020 23 f0 a2 3e 2b 2c c5 bd 65 1d cd 3e 3f 7c 7b 3d
       0.31823835 -0.09627565 0.4006149 0.061397787
000030 c4 c7 e4 3e e7 19 1f 3f ae 16 bc be 8a 5f 29 3d
       0.4468366 0.621489 -0.36736053 0.04135088

layers.layer_0.bias f4 [8]
000000 5a 61 c9 be 81 45 5d 3e 0e 14 e6 be 29 99 96 3e
       -0.39332086 0.21608545 -0.44937176 0.29413727
000010 e3 c7 17 3d 80 5a ad be eb a3 b3 be a1 7f 77 3e
       0.03705586 -0.3385811 -0.35085997 0.2416978

layers.layer_1.weight f4 [8, 8]
000000 92 03 d0 3e 54 d8 8c 3e ad ee 02 3c 0e 72 70 3d
       0.40627724 0.27508795 0.007991475 0.05870252
000010 8f 52 47 3e d6 50 a9 be 4b b7 81 3e df 56 a9 bd
       0.19465087 -0.33069485 0.25335154 -0.082685225
000020 67 86 1e 3e 3c a6 55 be 6c 67 d5 bc b5 28 4b 3d
       0.15480958 -0.20864195 -0.026050292 0.049599368
000030 4f 4c 9b 3e c7 64 2f 3d aa cd 85 3e 98 9a c6 be
       0.30331656 0.04282072 0.26133472 -0.3878982
000040 6b c3 e9 bd 52 32 da be 9c 16 16 bc 70 da 28 3d
       -0.11414226 -0.42616516 -0.009160664 0.041223943
000050 11 46 df bd 94 58 5e 3e ff bf c8 bd 4a e5 b7 be
       -0.10902036 0.21713477 -0.09802245 -0.3591712
000060 7f a6 a5 3e 6c 73 91 3e 2d ef 5a 3e cf 0e ab 3e
       0.3235359 0.28408372 0.21380301 0.33409736
000070 ad b3 eb 3d 85 c2 0b 3e f5 0a a1 3e e3 09 43 bd
       0.1150888 0.13648422 0.31453672 -0.04761685
000080 46 5d 9e be cc ee 7a be a6 8b 9b bd 94 3e c1 bd
       -0.30930537 -0.24505156 -0.07594995 -0.09435764
000090 0f 87 2d 3d 4b 61 9e 3e fd f1 3b 3d 7c 09 b3 be
       0.04236513 0.30933604 0.045885075 -0.34968174
0000a0 8a 01 8d bc 4b 73 1c 3d c7 57 92 3e 30 1c ee bc
       -0.017212648 0.03819589 0.28582594 -0.029066175
0000b0 da cd 5d be f8 bd 34 be 1c 23 c4 ba 77 3c ca 3b
       -0.21660557 -0.17650592 -0.0014964077 0.0061717588
0000c0 c7 7b 97 be 73 29 c4 3e e3 ed 63 3e 60 f5 ee bd
       -0.29586622 0.38312873 0.22258715 -0.11667895
0000d0 89 b6 64 be 02 f1 16 bd 23 a5 55 3e 0c 75 6f be
       -0.22335257 -0.036850937 0.20863776 -0.23384494
0000e0 61 83 b1 bd b2 3a 60 3e 08 94 3f be 8f 8f a4 3c
       -0.08667637 0.2189739 -0.18708813 0.020087985
0000f0 ad de 9b be 0f e7 86 3e 10 b1 23 3e 1d eb 8c be
       -0.30443326 0.2634816 0.15985513 -0.27523127

layers.layer_1.bias f4 [8]
000000 3f 77 4b be 00 05 05 3b 5d 26 fd 3c 9d e9 d9 b9
       -0.19869708 0.002029717 0.030902082 -0.0004156352
000010 a5 2f 91 be ce 61 45 be fc 6b 3a 3e 57 01 96 be
       -0.28356662 -0.19275591 0.18205255 -0.29297897

layers.layer_2.weight f4 [16, 8]
000000 56 2e 20 be 83 cb 56 3e b6 bf 87 3e db c3 45 bd
       -0.15642676 0.20976071 0.2651345 -0.048282485
000010 21 3a 2b 3e 41 cc bd 3d 3b 1c d5 bc 72 a1 42 bd
       0.16721393 0.09267474 -0.026014438 -0.047517247
000020 d7 a6 32 3e 56 a5 b8 3e ec eb 7d 3e 00 65 74 be
       0.17446457 0.3606364 0.24797028 -0.23866653
000030 a6 d1 7c be cd 28 d0 be 79 0d c1 bb d1 6e ba bd
       -0.2468935 -0.4065613 -0.0058914986 -0.09103168
000040 f7 61 51 be ce 1d c5 bc fa 9f df 3e 58 86 72 3e
       -0.20447527 -0.024062064 0.4367674 0.2368406
000050 b6 3e 2d 3d 96 da 2e be c2 a7 1c 3e bc c4 e8 3c
       0.042296134 -0.17075571 0.1529837 0.028414123
000060 0f 54 dc be b5 f2 08 3e 47 1b d4 3e 05 3e b8 be
       -0.43032882 0.13373835 0.4142706 -0.35984817
000070 d7 53 93 bc bf 49 c2 3c 29 28 92 be df cb 83 be
       -0.017984314 0.023716806 -0.28546265 -0.2574148
000080 b6 d4 0d 3e a0 f8 83 bc 79 ce ac 3e f2 20 95 bd
       0.13850674 -0.016109765 0.33751276 -0.072816744
000090 b8 4f 4b 3e 37 13 a7 be 5b af 47 bd d0 bf a9 3e
       0.19854629 -0.32631847 -0.048751216 0.33154154
0000a0 c3 cd b5 3d 78 0a ae bd 0b 96 d5 3d 59 57 55 3e
       0.088771366 -0.084980905 0.10429009 0.20834102
0000b0 35 0b 87 be 0a ae 2d 3e 6d 10 d5 bd 9c 2d 12 bd
       -0.26375738 0.16960922 -0.104035236 -0.035688028
0000c0 85 b3 1c 3e cf 53 78 be 4a 97 e7 bc 46 49 a1 3e
       0.15302856 -0.2425072 -0.028270382 0.31501216
0000d0 b6 73 20 3e 27 e8 2d be e7 f0 33 bd 89 95 9d 3e
       0.1566914 -0.1698309 -0.043930914 0.3077815
0000e0 28 25 a3 3e 91 81 4e 3e 92 36 c1 be 31 f2 84 3e
       0.31864285 0.20166613 -0.37736946 0.25966027
0000f0 8d 58 61 bd da 2e 24 3e 8a 9c ba 3e 92 13 d3 3d
       -0.05501609 0.16033497 0.36447555 0.10306467
000100 40 56 b9 3e 61 24 12 3e 3c 34 4b 3d e2 59 1e 3d
       0.36198616 0.1427169 0.04961036 0.038659938
000110 18 71 c4 be 3d ef 6f be f8 bd 43 be 6d 4b 90 be
       -0.38367534 -0.23431106 -0.19115436 -0.28182545
000120 88 48 c0 3d 41 7f 0e 3e fa da d6 bc 83 ff ab be
       0.09388834 0.13915731 -0.026227463 -0.33593377
000130 e9 fa cf 3e c5 97 63 3e 68 5a 2b 3e a4 38 cb 3e
       0.40621117 0.22225864 0.16733706 0.3969165
000140 5a 49 ea bd 62 5e 82 be f3 97 92 be ef c5 44 3d
       -0.11439772 -0.25462633 -0.28631553 0.048040327
000150 a4 6d c1 be ed 10 a7 3e c4 eb 61 bb d8 2b f3 3d
       -0.37778962 0.326301 -0.0034472803 0.11873597
000160 7e 2d 89 be c2 18 8a 3b bc ae f3 3d 38 a1 23 be
       -0.2679252 0.004214377 0.11898562 -0.15979469
000170 97 1b c8 3e f8 8c 5a be 80 ea 03 3e 78 ae 4a be
       0.3908355 -0.21342838 0.12882423 -0.19793117
000180 83 ff 2b 3d 33 03 0b be 06 0e 99 3d bc 92 a2 3e
       0.04199172 -0.13575439 0.07473378 0.31752574
000190 13 03 dd 3c 3c 9d 0b 3d ab fd cf bd 8e 49 70 3e
       0.026979005 0.034085497 -0.10155805 0.23465559
0001a0 58 e8 9d ba d4 19 49 3e 4e 49 75 be db e2 b9 3e
       -0.0012047393 0.19638759 -0.23953745 0.3630589
0001b0 58 6a 92 3e 37 e7 9d 3e cc 8b 42 3e 95 9a a3 3d
       0.2859676 0.30840465 0.18998641 0.079884686
0001c0 c4 08 92 be 73 e1 2d 3d 3a 4e 60 3e 0b ac 3e be
       -0.28522313 0.042451333 0.21904841 -0.18620317
0001d0 08 b8 0d 3e 62 69 0f 3e 2e 11 a8 be f3 15 87 be
       0.13839734 0.14005044 -0.32825607 -0.26383933
0001e0 bf bd 78 be 30 ed f8 bb b8 41 42 bd 73 a2 84 3d
       -0.24291132 -0.0075966343 -0.047425956 0.06476297
0001f0 2f a6 b6 bd c4 b4 5e be d9 77 13 3b cc 74 63 3e
       -0.08918416 -0.21748644 0.0022501855 0.22212523

layers.layer_2.bias f4 [16]
000000 c8 b2 3d be 3f 27 a3 3e 3f 5a 6f 3d 6a 03 a4 3e
       -0.18525231 0.3186588 0.058435675 0.32033855
000010 e1 23 94 be 47 c2 cd be a2 97 09 3e b8 17 94 be
       -0.28933623 -0.40187284 0.1343675 -0.28924346
000020 f2 3e 73 be 2c 9b 32 3e 1e c6 3d 3e b2 cb 90 be
       -0.2375448 0.17442006 0.18532607 -0.28280407
000030 68 3f 6e 3e 33 b1 9b bd 89 88 7e 3e 32 a3 63 be
       0.23266375 -0.076021574 0.24856772 -0.22230223

layers.layer_3.weight f4 [1, 16]
000000 2c f2 ac be f8 53 71 be 7b b8 0e be 73 12 b3 be
       -0.33778512 -0.23567188 -0.13937561 -0.34975013
000010 8b ec d9 bd 2b ac 9c bd 03 73 39 3d de 58 1d 3e
       -0.1064082 -0.07650026 0.0452757 0.15365931
000020 f7 b8 90 3d 3d b9 97 be 09 f1 55 3e 71 db 6f be
       0.07066529 -0.29633513 0.20892729 -0.23423554
000030 12 3f 2e 3e 8c 5f 83 3e 80 6f 79 be 6b ed 17 bd
       0.17016247 0.25658834 -0.2435894 -0.037091654
