Results/Laplace_EXP/Models/Laplace_EXP_PINN_step_400.pth (torch, 4632 bytes, 7 tensors)

layers.layer_0.weight f4 [8, 2]
0	0xbf38bcbe	-0.72163
1	0xbdb3512e	-0.08755718
2	0xbec1a598	-0.3782165
3	0xbe108470	-0.14113021
4	0xbf2cae3a	-0.6745335
5	0x3e69cbd5	0.22831662
6	0xbf2e492f	-0.6808042
7	0xbd74105e	-0.05958592
8	0x3e91029f	0.28322312
9	0xbe4af4bd	-0.19819923
10	0x3ec9a013	0.3937994
11	0x3d08799e	0.03331911
12	0x3ebc10a8	0.36731458
13	0x3ef4e9be	0.4783458
14	0xbebb66ea	-0.36601955
15	0x3e4a8266	0.19776306

layers.layer_0.bias f4 [8]
0	0xbe867274	-0.26259196
1	0x3e440af2	0.191448
2	0xbea55860	-0.32293987
3	0x3e9022e7	0.28151628
4	0x3e291955	0.1651357
5	0xbe8fccdc	-0.28085983
6	0xbeb40626	-0.3516094
7	0x3e073c6d	0.13206644

layers.layer_1.weight f4 [8, 8]
0	0x3eb8bee3	0.36083135
1	0x3e56eafc	0.20988077
2	0xbbc90481	-0.00613457
3	0x3ca7da1e	0.020489749
4	0x3e3210d7	0.17389236
5	0xbe92100e	-0.28527874
6	0x3d9d0811	0.07667554
7	0xbda32076	-0.07965176
8	0x3e2699ec	0.16269654
9	0xbe2eb135	-0.17059787
10	0xbcc5c08b	-0.024139663
11	0x3d9ab7e2	0.07554604
12	0x3e920208	0.28517175
13	0xbc06d07c	-0.0082284175
14	0x3eba4a37	0.36384746
15	0xbeb082fd	-0.34474936
16	0xbdcfe4fe	-0.10151099
17	0xbec9765b	-0.3934811
18	0xbc10bea9	-0.008834519
19	0x3d7650ac	0.06013553
20	0xbdd61976	-0.10454075
21	0x3e3f3f09	0.1867639
22	0xbc9d8e18	-0.019232795
23	0xbeb2a874	-0.34894145
24	0x3e9da55d	0.30790225
25	0x3e83bcbc	0.2572993
26	0x3e5bd0ca	0.21466365
27	0x3ea416fa	0.3204878
28	0x3dc0510e	0.0939046
29	0x3e195379	0.14973249
30	0x3e831dcf	0.2560868
31	0xbd011622	-0.031515248
32	0xbea4b1a6	-0.32166785
33	0xbe636912	-0.2220805
34	0xbdbee22b	-0.09320482
35	0xbdb0e160	-0.08636737
36	0x3d364bad	0.044505764
37	0x3e7f1184	0.24909025
38	0x3e1db5b0	0.1540134
39	0xbe9f58a3	-0.31122312
40	0xbd55d244	-0.052202478
41	0xbcc9a8f0	-0.024616688
42	0x3e891124	0.2677089
43	0xbd8d07b8	-0.06886238
44	0xbe4dd3c8	-0.2010032
45	0xbdea8cb6	-0.1145262
46	0xbe1415c1	-0.14461423
47	0xbceb1017	-0.028694196
48	0xbea3f854	-0.32025397
49	0x3eb1337c	0.34609592
50	0x3e59c8df	0.21268032
51	0xbe0cedff	-0.13762663
52	0xbe7a3d9e	-0.24437568
53	0xbc9575fa	-0.018244732
54	0x3e2e618f	0.17029403
55	0xbe64f95f	-0.22360753
56	0xbdd26c40	-0.10274553
57	0x3e3ac6a9	0.18239845
58	0xbe4a61fc	-0.1976394
59	0xbbc04874	-0.005868012
60	0xbe984c5b	-0.29745755
61	0x3e96cf7f	0.29455182
62	0x3e21ad30	0.15788722
63	0xbe955199	-0.29163817

layers.layer_1.bias f4 [8]
0	0xbe1c4b02	-0.15262988
1	0x3e164006	0.1467286
2	0x3d2c2b03	0.042033207
3	0x3d9ab783	0.07554533
4	0xbe7ab14a	-0.24481693
5	0xbe5f3a85	-0.21799667
6	0x3e3f77a1	0.18697979
7	0xbe956ae9	-0.29183128

layers.layer_2.weight f4 [16, 8]
0	0xbde58829	-0.11207611
1	0x3e4d8e59	0.20073833
2	0x3e66f677	0.22554956
3	0xbc8edb9b	-0.0174387
4	0x3e11b0e8	0.1422764
5	0x3de60a82	0.11232473
6	0xbc3e8fbb	-0.011630948
7	0xbd7feca1	-0.062481526
8	0x3e6e1f70	0.2325418
9	0x3ec7bd25	0.39011493
10	0x3e544172	0.2072809
11	0xbe473864	-0.19455105
12	0xbe88139a	-0.26577455
13	0xbec7a524	-0.3899318
14	0x3cffb822	0.031215731
15	0xbdc9a390	-0.0984565
16	0xbe0726bf	-0.13198374
17	0x3853bb4e	5.048076e-05
18	0x3ec344e0	0.38138485
19	0x3e94de05	0.29075637
20	0x3c435357	0.011921725
21	0xbe1f4330	-0.15552974
22	0x3e51e2a8	0.20496619
23	0x3c421670	0.01184617
24	0xbebf0722	-0.3731013
25	0x3e238efd	0.15972514
26	0x3ec2e0ce	0.38062137
27	0xbea37fb2	-0.3193336
28	0xbd1318f1	-0.035912458
29	0x3d105afd	0.035243023
30	0xbe858d49	-0.26084355
31	0xbe882724	-0.26592362
32	0x3e5b40af	0.21411394
33	0xbd8c927b	-0.068638764
34	0x3e84fc2c	0.25973642
35	0xbc9ebadc	-0.01937621
36	0x3e0cef75	0.1376322
37	0xbe952903	-0.29132852
38	0xbd0c0544	-0.03418471
39	0x3e8e8be6	0.2784111
40	0x3e037add	0.12839837
41	0xbd7dea5c	-0.06199108
42	0x3da54bb4	0.0807108
43	0x3e7137c3	0.23556428
44	0xbe8c9a44	-0.27461445
45	0x3e36bf93	0.17846517
46	0xbda7cac7	-0.081929736
47	0xbd25e982	-0.040505894
48	0x3e0fbe84	0.1403752
49	0xbe8451f0	-0.25843763
50	0xbcacbfe2	-0.02108759
51	0x3e9da6de	0.30791372
52	0x3e218353	0.15772752
53	0xbe29210e	-0.16516516
54	0xbd609f3f	-0.05483937
55	0x3e9c41c0	0.30518913
56	0x3e470dde	0.19438884
57	0x3e33c08b	0.17553918
58	0xbe94ca29	-0.29060486
59	0x3e26aeb1	0.16277577
60	0x3aba7b2b	0.0014227381
61	0x3dfef814	0.12449661
62	0x3e8ded64	0.27720177
63	0x3e0bf4dd	0.13667627
64	0x3e94cfc5	0.29064766
65	0x3dd3181d	0.103073336
66	0x3dca7b17	0.09886759
67	0xbc653e8d	-0.013991964
68	0xbeb83404	-0.35977185
69	0xbe7ae052	-0.24499634
70	0xbe8355de	-0.2565145
71	0xbe8b551d	-0.27213374
72	0x3e051eeb	0.13000076
73	0x3e1d582d	0.15365668
74	0xbd731cb8	-0.05935356
75	0xbe9d98ad	-0.30780545
76	0x3ec664ca	0.3874877
77	0x3e651992	0.22373036
78	0x3e496493	0.19667272
79	0x3ec4a1a6	0.38404578
80	0xbe18fc55	-0.14940007
81	0xbe7d67b4	-0.24746591
82	0xbe7fd911	-0.24985148
83	0x3cbdb372	0.023156855
84	0xbeb4a141	-0.35279277
85	0x3ea6ae99	0.32555082
86	0xbcb0be78	-0.021575198
87	0x3e1062cd	0.1410019
88	0xbe6d9b90	-0.23203874
89	0x3c117ac8	0.008879371
90	0x3db59139	0.0886559
91	0xbe0b7df8	-0.13622272
92	0x3ebf436c	0.37356126
93	0xbe52c4fb	-0.20582955
94	0x3e0f4265	0.13990171
95	0xbe534032	-0.20629957
96	0xbbdc51c7	-0.006723616
97	0xbe0ba491	-0.13636996
98	0x3de7ebb5	0.113242544
99	0x3e913f4e	0.2836861
100	0x3d4843d6	0.04889282
101	0x3c3199e9	0.010839918
102	0xbdf08d97	-0.11745756
103	0x3e7b0590	0.2451384
104	0xbd496dd9	-0.049177025
105	0x3e59e8f2	0.21280268
106	0xbe49c776	-0.19704995
107	0x3ea7ea62	0.32796007
108	0x3ea0efd6	0.3143298
109	0x3e90486f	0.28180262
110	0x3e3451e6	0.17609367
111	0x3dca1a90	0.09868348
112	0xbe5b5e09	-0.2142259
113	0x3d552ae7	0.052042868
114	0x3e2b0a0a	0.16703048
115	0xbe09e175	-0.13464911
116	0x3ddac16c	0.106814235
117	0x3e25772b	0.1615874
118	0xbe97d41a	-0.29654008
119	0xbe90db97	-0.28292534
120	0xbe410787	-0.18850528
121	0x3c54e1a3	0.012993249
122	0xbdbe8cff	-0.093042366
123	0x3dcff076	0.10153286
124	0xbde16221	-0.11005045
125	0xbe5013c0	-0.20320034
126	0x3ce46d3a	0.027884115
127	0x3e5e23f6	0.21693406

layers.layer_2.bias f4 [16]
0	0xbe3e50c8	-0.18585503
1	0x3ea78935	0.32721868
2	0x3dd8ae92	0.10580172
3	0x3ead3c01	0.33834842
4	0xbe91458b	-0.2837337
5	0xbec05e2a	-0.3757184
6	0x3e0b19b5	0.13584025
7	0xbeae1275	-0.33998457
8	0xbe998033	-0.2998062
9	0x3e50557d	0.20345111
10	0x3e13fbc4	0.1445151
11	0xbe959f93	-0.29223308
12	0x3e71a8de	0.23599574
13	0xbdb3ebf0	-0.08785236
14	0x3e8d9706	0.27654284
15	0xbe63503f	-0.2219858

layers.layer_3.weight f4 [1, 16]
0	0xbe93f3d9	-0.28896978
1	0xbe68126b	-0.22663276
2	0xbdb2b0ca	-0.08725126
3	0xbe9482ea	-0.2900613
4	0xbd6cf5d6	-0.057851635
5	0xbdbc0be5	-0.09181956
6	0xbc92426d	-0.01785394
7	0x3d4d6c95	0.05015238
8	0x3d434e2b	0.04768197
9	0xbe8fa63f	-0.28056523
10	0x3e380862	0.17971948
11	0xbe4c64b3	-0.19960289
12	0x3e0e45b9	0.13893785
13	0x3e50722d	0.20356055
14	0xbe125f8d	-0.14294262
15	0x3b020fb7	0.0019845793
