Results/Laplace_EXP/Models/Laplace_EXP_PINN_step_3300.pth (torch, 4644 bytes, 7 tensors)

layers.layer_0.weight f4 [8, 2]
000000 40 5c 40 bf a7 69 fb bd 70 6a bd be 7b 46 37 be
       -0.7514076 -0.12276011 -0.36995268 -0.1789798
000010 0f d9 26 bf cc 15 4e bd 8d 6b 36 bf b1 a9 7c be
       -0.65174955 -0.050313756 -0.7125786 -0.24674107
000020 a3 b7 ed 3e 4e 6a b0 be 51 8a d9 3e 49 a3 27 3e
       0.46429166 -0.34456104 0.4248834 0.16370882
000030 23 8f 1d 3f ca 56 41 3f b5 80 c9 be 1b 3c b0 ba
       0.61546534 0.75523055 -0.39356008 -0.0013445647

layers.layer_0.bias f4 [8]
000000 2e 5e 86 be be 66 8e 3e 31 61 cb be 3b 59 a7 3e
       -0.26243728 0.2781276 -0.3972259 0.32685265
000010 ab e3 97 bc 69 4a a2 be 14 2d 25 be 83 92 2a 3e
       -0.018541178 -0.31697395 -0.16130477 0.16657452

layers.layer_1.weight f4 [8, 8]
000000 bd 1a cc 3e 3d 14 a0 3e 07 40 9e bd db 60 cd 3d
       0.3986415 0.3126544 -0.07727056 0.10028239
000010 3c 2e d2 3e 03 e0 bd be b4 f5 d6 3e 61 5a 2e be
       0.410509 -0.3708497 0.41984332 -0.17026664
000020 af ac 1c 3e 19 73 5c be 24 74 ed bc f1 bb 3b 3d
       0.15300249 -0.21528281 -0.028986044 0.04583353
000030 97 71 a1 3e c8 37 4e 3d 0f e8 61 3e 60 16 ca be
       0.31531975 0.050346166 0.2206118 -0.39470196
000040 88 e5 06 be 68 72 e2 be 3e 8b 54 bc dd 72 c4 3c
       -0.13173497 -0.4422791 -0.012972651 0.023980552
000050 93 f7 80 be e2 44 6d 3e 05 f6 68 be 5c 62 ab be
       -0.25188884 0.23170808 -0.22750099 -0.3347348
000060 0c e7 a9 3e c9 e3 a0 3e 04 ee 4c 3e 36 2a b8 3e
       0.33184087 0.31423786 0.20012671 0.35969704
000070 d1 96 8a 3e 36 ac e2 3d 4d 48 d9 3e 01 ea b0 bd
       0.2706819 0.11068003 0.42437974 -0.08638383
000080 bf 95 be be 35 45 8e be d3 76 0d be d0 72 fd bd
       -0.37223622 -0.27787176 -0.13814859 -0.12375414
000090 ab d1 4d bd 62 29 ab 3e 38 a5 0f bd 7a 07 bb be
       -0.050248783 0.3343001 -0.035069674 -0.36529142
0000a0 f0 71 9f 3c e0 25 b3 3d bf 7a 9c 3e 6c e0 99 3c
       0.01946351 0.087474585 0.30562398 0.01878377
0000b0 42 79 93 bd 71 05 63 be 54 fa a7 3d e1 45 ae b9
       -0.072008625 -0.22170044 0.08202043 -0.0003323993
0000c0 1d 83 a9 be 16 57 cd 3e 23 0f 14 3e c5 85 c4 bd
       -0.33107844 0.40105504 0.14458899 -0.09595827
0000d0 04 e7 1c bd 0d d7 82 bd c7 c2 c2 3e ca 6f 8b be
       -0.03830625 -0.06388674 0.38039228 -0.27233726
0000e0 14 53 a9 bd 62 4e 81 3e 47 ca 43 be e6 7e 3f 3d
       -0.08267799 0.25255114 -0.19120131 0.04675188
0000f0 a4 6c 53 be 0c 38 6b 3e 18 c1 68 3e 6c d9 8f be
       -0.20646912 0.22970599 0.2272991 -0.28095567

layers.layer_1.bias f4 [8]
000000 3d 89 06 be 6a 4b 12 3b b2 07 d1 3d 22 40 f8 bc
       -0.1313829 0.0022322782 0.10206546 -0.030304018
000010 d4 cb 65 be 75 ef 8a be ea d0 91 3e 89 58 88 be
       -0.22441036 -0.27135816 0.284797 -0.26630047

layers.layer_2.weight f4 [16, 8]
000000 15 01 77 be e6 87 f9 3d 82 a7 a0 3e b3 21 d5 bd
       -0.24121507 0.12184124 0.31377798 -0.10406818
000010 08 3e 38 3e 36 3f a7 3d ca 15 90 bd fa 60 3f bd
       0.17992413 0.081663534 -0.07035406 -0.046723343
000020 38 cd b2 3d 8c 96 8f 3e 09 14 9a 3e c5 69 98 be
       0.087305486 0.28044546 0.3009341 -0.29768196
000030 97 3c 67 be cb bc cf be 95 fa 8a bd 81 31 bb bd
       -0.22581707 -0.40573725 -0.06786076 -0.091403015
000040 1c 6d a9 be 34 df 19 be 7b 24 06 3f c5 b0 0e 3e
       -0.33091056 -0.15026551 0.52399415 0.1393462
000050 2e 49 a3 3d b2 6b 22 be fd b0 24 3d 2d e7 e6 3c
       0.07972942 -0.15861395 0.04020785 0.028186405
000060 8b 81 07 bf 17 98 43 3d af dd f3 3e 8f 8d d8 be
       -0.5293204 0.047752466 0.4763007 -0.422955
000070 d9 40 3c 3c 4f a8 97 3d 49 2f b5 be 31 2b 71 be
       0.01149007 0.07405149 -0.35387638 -0.23551632
000080 48 7e 01 3c 52 f8 0a be a2 d3 dd 3e c4 41 38 be
       0.007903643 -0.13571289 0.43325526 -0.17993838
000090 a5 16 7c 3e ca 96 c0 be 35 a0 e0 bd 68 fd c1 3e
       0.24618013 -0.37615043 -0.10968057 0.37888646
0000a0 a8 25 fc 3c 01 6b 0a be a0 9e 07 3e 57 0e 33 3e
       0.030779675 -0.13517381 0.13244104 0.17485939
0000b0 b6 b5 81 be 94 2c 34 3e 5f ef 15 be 55 40 1d bd
       -0.25333947 0.1759513 -0.14642094 -0.03839143
0000c0 3e 17 92 3e 12 35 d8 bd aa 79 fd bd 63 2e d3 3e
       0.28533357 -0.10556997 -0.12376721 0.41246328
0000d0 d4 14 f4 3d 9e 71 36 be 14 e1 0c 3d 10 47 97 3e
       0.11918035 -0.17816779 0.03439434 0.29546404
0000e0 fe 5b f7 3e d5 fc be 3e d5 c3 03 bf a4 88 cc 3e
       0.48312372 0.3730227 -0.5147069 0.39948
0000f0 78 04 12 be 3d d8 2e 3d e1 d7 05 3f 2e 40 69 3c
       -0.14259517 0.04268669 0.5228253 0.014236493
000100 1e 38 f8 3e 51 2a 89 3e eb 49 ed bc 57 10 06 3e
       0.48480314 0.26790097 -0.02896591 0.1309217
000110 9b 39 d2 be 27 3c 85 be a3 21 88 bd da 20 87 be
       -0.41059574 -0.26022455 -0.06647041 -0.2639225
000120 bf a4 a9 3c 0e 02 99 3d 55 72 b0 3c 37 bc c6 be
       0.02070844 0.07471095 0.021538893 -0.38815472
000130 5f 3e db 3e 7e 50 55 3e 43 d7 e9 3d 65 18 cc 3e
       0.42821023 0.20831487 0.11418011 0.39862362
000140 ba 58 0d bd 0d 84 43 be bc 19 ad be 39 f8 cf 3d
       -0.034508444 -0.19093342 -0.33808696 0.101547666
000150 0a 1e cd be b5 ba b3 3e 56 62 3b 3c 3d 9e c9 3d
       -0.4006198 0.35103384 0.011437019 0.09844635
000160 0c ff b4 be 9d 0c b4 bd 30 5b 2b 3e 52 da 5c be
       -0.35350835 -0.08791468 0.16734004 -0.21567658
000170 5b 0b cd 3e 31 02 68 be a6 d8 c7 3d ed 20 49 be
       0.40047726 -0.22657086 0.09758119 -0.19641466
000180 3b 89 09 3e 90 92 29 bd d9 a7 a0 3c 42 ae c1 3e
       0.13431256 -0.04139954 0.019611286 0.3782826
000190 76 36 1b 3c ad b4 04 3d 86 6e 40 bd ee 70 6d 3e
       0.009473434 0.03239887 -0.046980403 0.2318761
0001a0 64 c3 b9 3d 87 46 8d 3e 70 38 9b be 59 98 d9 3e
       0.09070471 0.2759287 -0.30316496 0.42499045
0001b0 c4 36 82 3e cd ff 96 3e 09 49 7e 3e b0 78 67 3d
       0.25432408 0.29492036 0.24832548 0.05651158
0001c0 08 7a d2 be c5 17 a2 bd cc 1b 9e 3e 25 c8 8e be
       -0.41108727 -0.0791469 0.30880582 -0.27887073
0001d0 50 00 3b 3e 7f 1a 3a 3e 0c 42 d9 be b2 8c 6b be
       0.18261838 0.1817417 -0.42433202 -0.2300289
0001e0 52 c6 d6 be 1f 8b 48 be 17 7a cd 3d 18 10 b0 bd
       -0.4194818 -0.1958432 0.100330524 -0.0859682
0001f0 0a 92 46 bc 80 6b 7e be c1 55 fb bd 79 3a 74 3e
       -0.012119779 -0.24845695 -0.12272216 0.2385043

layers.layer_2.bias f4 [16]
000000 d2 9e 02 be dc 00 ad 3e 0b ee 9e 3d 53 d7 88 3e
       -0.12755898 0.33789718 0.07760247 0.2672678
000010 e6 8a 38 be 88 6b d0 be 7c 41 c0 3d 1f 56 2a be
       -0.18021736 -0.4070704 0.0938749 -0.16634415
000020 51 ab 63 be d0 c3 32 3e d1 17 13 3e 03 b0 63 be
       -0.22233321 0.17457509 0.14364554 -0.22235112
000030 80 f9 40 3e b3 e3 37 bd 17 36 54 3e 25 64 eb bd
       0.18845177 -0.044894885 0.20723759 -0.114937104

layers.layer_3.weight f4 [1, 16]
000000 bd b2 cb be ee 6f 8f be d8 fd 7e be 04 22 e2 be
       -0.39784804 -0.28015083 -0.24901521 -0.44166577
000010 88 e0 2e be cf bc 84 bd 17 e8 2a 3e b8 ce 95 3e
       -0.1707784 -0.06481325 0.16690098 0.29259276
000020 39 1c fb 3d f7 59 a1 be 78 25 69 3e 99 3d 91 be
       0.122612424 -0.3151395 0.227682 -0.28367308
000030 a6 a5 7e 3e 86 1f c0 3e 57 e7 bf be a5 de 44 be
       0.24867877 0.3752405 -0.37481186 -0.19225557
