Results/Laplace_EXP/Models/Laplace_EXP_PINN_step_100.pth (torch, 4632 bytes, 7 tensors)

layers.layer_0.weight f4 [8, 2]
000000 79 de 2d bf 2e 84 0b be f1 07 b3 be 15 6d 36 be
       -0.6791759 -0.13624641 -0.34966996 -0.17815049
000010 a6 bc 22 bf 55 78 8b 3e 05 12 25 bf ce 84 5f bd
       -0.63569105 0.27240244 -0.6448062 -0.05457001
000020 9a c9 82 3e 23 ff 69 be f6 d6 c8 3e eb 7c b1 3d
       0.25544435 -0.22851233 0.39226502 0.08666404
000030 1f 3e c2 3e 6e 40 ed 3e 1b 34 a6 be fc 02 7a 3e
       0.3793802 0.46338218 -0.32461628 0.24415201

layers.layer_0.bias f4 [8]
000000 5b a9 9e be b4 2c 59 3e 2d df b7 be db ee a1 3e
       -0.30988583 0.21208459 -0.35912457 0.31627545
000010 a2 1e 1c 3e a3 11 92 be 8e df b5 be ce 1d 30 3e
       0.1524606 -0.2852908 -0.3552212 0.1719887

layers.layer_1.weight f4 [8, 8]
000000 2a 77 a5 3e 46 6f 28 3e 04 bd 28 bd 4b bf bb bc
       0.32317477 0.16448697 -0.041195884 -0.022918364
000010 5e 2a 55 3e d4 57 76 be c4 d6 f7 3d ee 73 fc bd
       0.20816943 -0.24056941 0.1210151 -0.12326799
000020 11 ee 46 3e 2b f0 0b be f9 f2 eb 3b 9d 0b df 3d
       0.19426753 -0.13665836 0.0072005955 0.10890887
000030 9b b0 81 3e 91 24 2a bd f7 79 aa 3e 08 93 9e be
       0.25330052 -0.04153878 0.33296177 -0.3097155
000040 2e a0 95 bd 4c be b9 be c3 23 9e 3c a0 a9 b8 3d
       -0.073059425 -0.36277997 0.019304162 0.090167284
000050 f5 49 08 be 96 b6 20 3e 8f 5d 41 bd e1 8e a2 be
       -0.13309462 0.15694651 -0.047208365 -0.31749633
000060 8d 0b 90 3e ae a1 69 3e ca 2b 41 3e 65 90 95 3e
       0.28133813 0.22815582 0.1886436 0.29211727
000070 34 f1 f5 3d 74 32 36 3e b9 0e 91 3e 8c 01 7a bd
       0.120088965 0.17792684 0.28331545 -0.06103663
000080 fb cf 92 be a6 9f 3d be 47 6f 6e bd 5f 02 4d bd
       -0.28674302 -0.18517932 -0.05821159 -0.05005109
000090 6c 2d 0e 3c 4b d5 5a 3e 5e 08 ff 3d f5 a6 8b be
       0.008677822 0.21370427 0.12452768 -0.27275816
0000a0 88 a2 c1 bd ac a3 95 bd 90 04 68 3e 3a 03 ee bd
       -0.094548285 -0.073066086 0.2265799 -0.11621709
0000b0 46 3b 23 be 5d 5c 86 bd 0b 31 c7 bd f2 e9 9f bd
       -0.1594058 -0.06560586 -0.09726151 -0.078082934
0000c0 32 5e ac be 3c 35 a6 3e 50 25 4a 3e 7a 8f 21 be
       -0.33665615 0.3246249 0.19740796 -0.15777388
0000d0 21 5c 6b be ab e8 36 3b 19 7a 44 3e 0e 01 7a be
       -0.22984363 0.0027909677 0.19187202 -0.24414465
0000e0 72 d1 fd bd 56 8e 21 3e 4c b6 5f be f7 33 f2 bc
       -0.12393464 0.15776953 -0.21846884 -0.029565794
0000f0 36 6f 8d be ec e9 a2 3e 9d 25 39 3e 5e 3e a2 be
       -0.2762391 0.31819093 0.18080755 -0.31688207

layers.layer_1.bias f4 [8]
000000 9c a8 3e be 1f 12 0a 3e 70 9a ea 3c 83 59 ad 3d
       -0.18619007 0.13483475 0.028638095 0.08464339
000010 f8 8c 8e be ef 13 4c be 34 5b 1d 3e d9 b7 8e be
       -0.27841926 -0.19929479 0.15366822 -0.2787464

layers.layer_2.weight f4 [16, 8]
000000 a1 72 ab bd 44 20 2a 3e ab 7b 46 3e 0f 97 42 3c
       -0.08371473 0.16613871 0.19383113 0.0118768355
000010 0b ba e6 3d 05 c2 16 3e 17 51 02 bd e1 c0 b1 bd
       0.11265954 0.1472245 -0.031815615 -0.08679367
000020 35 60 85 3e 93 eb b5 3e af 5d 32 3e 50 9c 28 be
       0.26049963 0.3553129 0.1741855 -0.16465878
000030 f1 30 98 be 3a aa b7 be 16 fc 42 3c 74 bb 00 be
       -0.2972484 -0.3587206 0.011900922 -0.12571508
000040 c8 69 ca bd fb b4 1e bd e5 a5 b0 3e 9b 3e a6 3e
       -0.098834574 -0.038746815 0.34501567 0.3246964
000050 fa b9 b8 bc 45 81 ee bd 81 dd 39 3e f7 bf 93 bc
       -0.022549618 -0.1164575 0.18150903 -0.018035872
000060 5c 15 b1 be 91 eb 00 3e ce 9a b2 3e 42 a8 94 be
       -0.34586608 0.12589861 0.34883732 -0.2903462
000070 f6 6b 87 bd 6b 64 89 3d b9 92 8e be 06 e4 95 be
       -0.06612389 0.06708606 -0.27846316 -0.2927553
000080 26 98 82 3e fd dc eb bd 6e 11 5d 3e c1 cf b5 3c
       0.25506705 -0.115167595 0.2158868 0.022193791
000090 d1 11 c4 3d 50 e1 7a be ec 9c 88 bd f2 1d 78 3e
       0.09573711 -0.24500012 -0.066705555 0.24230173
0000a0 30 84 1c 3e 20 ef bb bd e6 94 5b 3d d4 81 85 3e
       0.152848 -0.09176469 0.053608797 0.26075613
0000b0 9f 81 99 be bd 6e 5e 3e d0 9d c6 bd 3f e4 7e bd
       -0.29981706 0.21721931 -0.09698069 -0.06222939
0000c0 66 e2 22 3e 3e 1b 91 be 6d e7 31 bd 0a ff a7 3e
       0.15906677 -0.28341097 -0.043433595 0.32811767
0000d0 bb 5b 0c 3e 3f b4 0f be 3d 09 8b bd 17 9d 93 3e
       0.13706867 -0.14033602 -0.067888714 0.28830788
0000e0 00 e4 15 3e 92 b8 67 3e 62 b2 76 be 5c 99 eb 3d
       0.14637756 0.22629002 -0.24091485 0.1150386
0000f0 10 e3 4c 3d dc e4 98 3d ab 8c a1 3e 9a 17 3b 3e
       0.05002123 0.074655265 0.31552634 0.18270722
000100 1d 1a 82 3e 82 3e 13 3e 57 bd 0c 3e f5 09 4f bd
       0.25410548 0.14379314 0.13744102 -0.050546605
000110 67 66 a5 be a5 56 93 be 38 13 6c be 98 5c 75 be
       -0.3230469 -0.28777042 -0.23054206 -0.23961103
000120 f1 a6 20 3e f9 02 f6 3d 78 3b b9 bd 75 12 8f be
       0.15688683 0.12012286 -0.09044546 -0.2794377
000130 9c 6f b7 3e 8e ec 82 3e cd e5 35 3e 01 38 b8 3e
       0.3582734 0.25571102 0.17763443 0.35980228
000140 ca d5 36 be 33 35 59 be e8 99 5e be 34 23 e2 bb
       -0.17854992 -0.212117 -0.21738398 -0.006901169
000150 2c 0d a5 be 35 85 94 3e e4 c9 08 ba 95 25 2a 3e
       -0.32236612 0.2900788 -0.00052180723 0.16615899
000160 d2 af 50 be 22 7b d2 bc 81 1f 69 3d 71 06 db bd
       -0.2037957 -0.02569348 0.05691481 -0.10694588
000170 8b 1c b0 3e 6f c1 2f be 34 69 f4 3d 3d 8b 6b be
       0.34396777 -0.17163633 0.119341284 -0.23002334
000180 15 e5 04 bd bb a3 d5 bd ef c6 11 3e 37 8d 83 3e
       -0.032445032 -0.1043162 0.14236043 0.25693676
000190 56 92 9b 3d ba f2 b5 bc 9b 8c cc bd 8c f6 88 3e
       0.07596271 -0.022210468 -0.09987756 0.267506
0001a0 2c d8 97 bd 56 92 7a 3e 4a 93 2b be 55 4c 9a 3e
       -0.074142784 0.24469885 -0.16755405 0.30136362
0001b0 9c 1f af 3e f9 13 81 3e e8 12 46 3e c4 8b f9 3d
       0.34203804 0.2521055 0.1934315 0.12184861
0001c0 1f ed 3b be 72 7b 76 3c f6 70 07 3e d9 3a d2 bd
       -0.18352173 0.01504408 0.13226685 -0.102651305
0001d0 72 13 97 3d a1 ca 49 3e 37 c9 a2 be b2 9d 9f be
       0.07376756 0.19706203 -0.3179414 -0.31175
0001e0 d5 91 4f be 20 bb 07 3d b7 04 9a bd d4 54 af 3d
       -0.20270474 0.03313744 -0.075204305 0.085611016
0001f0 10 ae bf bd c5 90 63 be 0a 38 1c 3d c3 cd 6b 3e
       -0.09359372 -0.22223194 0.03813938 0.2302771

layers.layer_2.bias f4 [16]
000000 d0 f2 4f be 5a 4d a3 3e ab 42 c5 3d 52 b5 b6 3e
       -0.2030747 0.31894952 0.096318565 0.3568521
000010 e4 7d a1 be fc 8c ab be 2c aa 03 3e 94 3b af be
       -0.3154136 -0.33506 0.12857884 -0.34225142
000020 62 41 99 be 7d 8d 41 3e 94 23 26 3e 4f 21 a0 be
       -0.29932696 0.1890163 0.1622451 -0.31275412
000030 36 74 7b 3e 9e 30 9f bd de 0c 8b 3e cb fe 5c be
       0.2455605 -0.07772945 0.27158254 -0.21581571

layers.layer_3.weight f4 [1, 16]
000000 22 4c 7a be 10 3f 34 be 80 d1 45 bd b9 e0 84 be
       -0.24443105 -0.17602181 -0.048295498 -0.259527
000010 58 48 60 bc 42 b9 eb bd 23 6c 45 bd 12 ad 1f 3c
       -0.013689123 -0.115099445 -0.04819883 0.009745853
000020 52 fb c1 3c d6 52 82 be 01 29 10 3e 31 07 28 be
       0.02367941 -0.25453824 0.14078142 -0.16408993
000030 b2 d7 12 3e 09 c9 60 3e b8 a0 c3 bd 86 cd 9e 3c
       0.14340094 0.21951689 -0.09552139 0.01938511
