Results/Laplace_EXP/Models/Laplace_EXP_PINN_step_600.pth (torch, 4632 bytes, 7 tensors)

layers.layer_0.weight f4 [8, 2]
000000 25 3e 3c bf bf ce 81 bd 0e d5 c6 be 35 52 f1 bd
       -0.73532325 -0.06338262 -0.38834423 -0.11783258
000010 75 68 30 bf cb 56 4b 3e e9 64 31 bf 69 5b 4b bd
       -0.6890939 0.19857328 -0.692946 -0.049647722
000020 f4 de 97 3e 97 30 34 be c9 ec cf 3e 57 f6 9b 3b
       0.29662287 -0.1759666 0.4061034 0.0047595906
000030 40 20 bc 3e 44 bd ec 3e c4 83 c2 be 48 bb 2d 3e
       0.36743355 0.46238148 -0.37991154 0.16965973

layers.layer_0.bias f4 [8]
000000 99 c4 86 be c3 6f 3e 3e 29 0c a3 be 8d f1 88 3e
       -0.26321867 0.18597321 -0.31845215 0.2674679
000010 07 a3 22 3e 01 13 8b be d9 53 b7 be e3 f1 fb 3d
       0.15882502 -0.27162936 -0.35806158 0.123019956

layers.layer_1.weight f4 [8, 8]
000000 1d ed c2 3e 0c 62 6a 3e 13 6a 5f 3c 89 d0 20 3d
       0.38071528 0.22888964 0.01363613 0.039261375
000010 7d 9b 1c 3e bf 06 9c be 68 85 8e 3d 90 6d 75 bd
       0.15293689 -0.30473897 0.06959039 -0.05991894
000020 f8 3a 1a 3e 7b 4e 3c be 2d 9c 12 bd 52 80 80 3d
       0.15061557 -0.18389313 -0.035793472 0.06274475
000030 72 6a 98 3e ca a3 b8 3b 41 41 bd 3e 8d b3 b7 be
       0.2976871 0.0056347596 0.36963847 -0.35879174
000040 cd 6c e5 bd fc 6a cf be 68 5f 99 bc a2 51 49 3d
       -0.11202393 -0.4051131 -0.018722251 0.049150117
000050 39 d5 c0 bd cf 3b 4b 3e b1 55 57 bc 3c 97 b8 be
       -0.09415669 0.19847034 -0.013142989 -0.36052883
000060 65 7b a2 3e 15 25 89 3e 98 71 64 3e 90 0e a9 3e
       0.31734768 0.26786104 0.22308958 0.33018923
000070 0d 37 af 3d 83 eb 0e 3e 17 11 7f 3e d0 b3 b4 bc
       0.08555422 0.13957028 0.24908863 -0.022058398
000080 2c 3e aa be c1 f7 6e be a2 7d d4 bd 90 40 c8 bd
       -0.33250558 -0.23336698 -0.10375525 -0.09777939
000090 5a 7f 65 3d 9e ee 85 3e b2 e2 16 3e 6e 13 a6 be
       0.056029655 0.26158613 0.14734915 -0.324367
0000a0 6b 3d 0c bd 9b 40 93 bb d2 bb 91 3e 66 8b 4b bd
       -0.03423826 -0.0044937856 0.28463608 -0.049693488
0000b0 bc d5 5f be 53 9e 0a be a3 cb 20 be 01 a2 0f bc
       -0.21858877 -0.13536958 -0.15702681 -0.008766652
0000c0 4b be a1 be 78 ec b4 3e 7d 1b 5d 3e 15 c8 06 be
       -0.31590495 0.3533666 0.21592517 -0.13162263
0000d0 26 7a 7c be 1a 60 ce bc 27 91 27 3e 02 68 5f be
       -0.24655971 -0.02519231 0.16363965 -0.2181702
0000e0 84 cb c5 bd 6c 3a 43 3e a1 8b 44 be 29 34 d4 3a
       -0.09657958 0.19065255 -0.19193889 0.0016189861
0000f0 ad 59 9b be 72 98 92 3e 5e e6 1b 3e 69 34 91 be
       -0.30341855 0.28631932 0.15224597 -0.28360298

layers.layer_1.bias f4 [8]
000000 74 0c 0d be 39 db 0e 3e 42 fc 2b 3d 8e b8 99 3d
       -0.13774282 0.13950814 0.04198862 0.07505904
000010 e4 ec 6f be 71 b7 5a be 68 8f 4f 3e 88 bf 95 be
       -0.2343021 -0.2135904 0.20269549 -0.2924769

layers.layer_2.weight f4 [16, 8]
000000 e5 3a ff bd ae 34 5a 3e 76 8c 73 3e b5 c4 e7 bc
       -0.12462405 0.21309158 0.2378405 -0.02829204
000010 1f 5e 1c 3e bd 73 c8 3d f6 29 e9 bb 00 eb 61 bd
       0.1527028 0.097877 -0.007115598 -0.055155754
000020 78 2b 60 3e ec 4e ce 3e 8a 6b 62 3e 96 b7 53 be
       0.21891582 0.40294588 0.22111335 -0.20675501
000030 b3 ea 81 be 21 dc ce be b8 c7 0c 3d 76 5c b5 bd
       -0.25374374 -0.4040232 0.034370154 -0.08855526
000040 25 75 18 be f3 88 7b 3c 63 8d cb 3e 41 45 8d 3e
       -0.14888437 0.015352475 0.39756307 0.275919
000050 84 9a d5 3c c3 df 31 be 05 54 57 3e 6d a5 bf 3c
       0.026074655 -0.17370515 0.21028145 0.02339431
000060 c0 ca c5 be c0 8f 2f 3e 3f 4d c9 3e 15 55 a9 be
       -0.38631248 0.1714468 0.39316747 -0.33072725
000070 87 4a cd bc 8f 2f a3 3c ad 7d 84 be 89 7d 83 be
       -0.025059951 0.019920139 -0.25877133 -0.25681713
000080 a4 72 46 3e 18 a0 4a bd 4c 01 8f 3e b2 51 19 bd
       0.1937967 -0.049469084 0.27930677 -0.037431426
000090 81 fb 1e 3e a6 da 9f be b5 52 b7 bc f4 ca 95 3e
       0.15525629 -0.31221503 -0.022378305 0.29256403
0000a0 4f f2 f1 3d 2e a5 59 bd f2 e2 b7 3d e6 b2 68 3e
       0.11813795 -0.053136043 0.08978833 0.22724494
0000b0 ea c5 88 be 4c c8 26 3e 56 e9 a4 bd 44 6f 0e bd
       -0.26713496 0.16287345 -0.08052318 -0.03477408
0000c0 cc 1c 0c 3e 36 46 82 be 77 74 8e bc db 10 9c 3e
       0.1368286 -0.25444192 -0.01738952 0.3048161
0000d0 11 9c 24 3e 29 24 2e be 36 b2 5c bd 7d 4b 9d 3e
       0.1607516 -0.17005982 -0.053880893 0.30721655
0000e0 1e 1a 5f 3e 88 c2 1e 3e 98 17 a0 be 19 3a 3c 3e
       0.21787307 0.15503895 -0.31268 0.18381537
0000f0 ff 4a 9a bc be 4a 17 3e 4c 62 89 3e 6b 46 f1 3d
       -0.018834589 0.14774606 0.26832807 0.11781009
000100 a5 93 9d 3e cf 38 b5 3d ab 2b aa 3d 67 37 58 3a
       0.30776706 0.08848726 0.0830911 0.00082480017
000110 96 3f bf be b8 e7 67 be e0 ce 85 be 42 1e 91 be
       -0.373532 -0.22646987 -0.26134396 -0.28343397
000120 50 fe f2 3d b4 8e 28 3e 24 f2 43 bd bb c4 a2 be
       0.118649125 0.16460687 -0.047838345 -0.31790718
000130 16 6f cb 3e 9f 5e 58 3e 27 ec 4c 3e 9a 5e c8 3e
       0.3973319 0.21129845 0.2001196 0.39134675
000140 28 15 0c be f8 e8 84 be c1 41 86 be 4a cd 0b 3d
       -0.13679945 -0.2595899 -0.2622204 0.034131326
000150 a6 0e ba be 7e d8 ad 3e 46 36 d7 bc a4 79 08 3e
       -0.363393 0.33954233 -0.026270997 0.13327652
000160 f0 c2 79 be 9a 38 a8 3c e9 a5 cd 3d 6d 1c 16 be
       -0.24390769 0.020534802 0.100414105 -0.14659281
000170 d7 56 c4 3e 62 89 60 be 1f 23 14 3e 58 a3 4c be
       0.38347504 -0.21927407 0.14466523 -0.19984186
000180 28 75 a5 3b 21 84 17 be b3 7f d0 3d 1f 64 96 3e
       0.0050493665 -0.14796497 0.10180607 0.2937326
000190 e5 0a 21 3d cb 01 ce 3c 35 b7 f7 bd 60 03 74 3e
       0.03931703 0.02514734 -0.12095491 0.23829412
0001a0 cb 22 1c bd 50 48 4e 3e ea 6d 55 be cc e3 ac 3e
       -0.03811912 0.20144773 -0.2084271 0.33767545
0001b0 6a f4 9b 3e 97 a2 96 3e 12 2c 31 3e 03 06 bb 3d
       0.3045991 0.2942092 0.17301968 0.09132006
0001c0 11 0f 6b be 03 b1 87 3d 42 43 3a 3e 1e 9a 17 be
       -0.22954966 0.06625559 0.1818972 -0.14804885
0001d0 38 72 f5 3d 47 a4 14 3e 05 9f 95 be d8 56 8b be
       0.11984676 0.14515792 -0.29222885 -0.27214694
0001e0 d4 c5 42 be 32 35 72 3c fb d8 ba bd 75 06 cd 3d
       -0.19020778 0.014783191 -0.09123417 0.10010997
0001f0 26 a8 de bd d7 82 52 be c7 8e e6 3c 42 fb 5e 3e
       -0.108719155 -0.20557724 0.028144253 0.21775535

layers.layer_2.bias f4 [16]
000000 07 0d 3a be 89 02 a5 3e f6 5e ca 3d 30 21 a5 3e
       -0.18169032 0.32228497 0.098813936 0.32251883
000010 9f 57 8a be 3d f5 c6 be 6f e1 0a 3e ae 52 9f be
       -0.27019975 -0.38858977 0.13562559 -0.31117767
000020 99 12 92 be d8 55 51 3e f3 df 10 3e 7a 59 92 be
       -0.28529814 0.20442903 0.1414793 -0.2858389
000030 bc 18 72 3e 8d 20 b1 bd 1c ef 88 3e 7e 71 63 be
       0.23642248 -0.08648787 0.26744926 -0.22211263

layers.layer_3.weight f4 [1, 16]
000000 fc 51 9c be 50 14 7f be 07 ba da bd 6b c5 9b be
       -0.305313 -0.24910092 -0.10680013 -0.30424055
000010 2c e4 99 bd 68 1f ad bd 92 cf 9f bb 84 c4 91 3d
       -0.075142235 -0.08453256 -0.004877039 0.071175605
000020 72 99 66 3d bb 00 94 be b7 4b 46 3e 00 39 5a be
       0.05629868 -0.28906807 0.1936482 -0.21310806
000030 84 87 16 3e fa 09 53 3e 0f a9 27 be 9a a4 09 bc
       0.14700133 0.20609275 -0.16373084 -0.0084010605
