Results/Laplace_EXP/Models/Laplace_EXP_PINN_step_1600.pth (torch, 4644 bytes, 7 tensors)

layers.layer_0.weight f4 [8, 2]
000000 21 06 34 bf 63 2e 3e bd ec bf c5 be ff 51 89 bd
       -0.7032185 -0.046430957 -0.38622987 -0.06705093
000010 5e f7 29 bf 2e 0f c6 3d 34 ff 29 bf e0 ea 98 bd
       -0.6639308 0.09670864 -0.66405034 -0.07466674
000020 a1 fc 9e 3e d1 dd c1 bd 09 77 cd 3e e4 06 e6 bb
       0.31052116 -0.09466136 0.4012988 -0.0070198644
000030 89 28 ba 3e 13 39 ef 3e d6 b4 bd be 15 da 9f 3d
       0.3635905 0.46723232 -0.3705203 0.07805268

layers.layer_0.bias f4 [8]
000000 62 74 bc be 06 4b 46 3e 12 af d4 be b8 a2 8b 3e
       -0.36807543 0.19364557 -0.41539818 0.27272582
000010 d0 38 db 3d 6e d0 9a be 47 0f e2 be bc 69 3f 3e
       0.107041955 -0.30237144 -0.4415228 0.18692678

layers.layer_1.weight f4 [8, 8]
000000 66 62 ca 3e c8 46 79 3e bc ac 84 3c a5 27 2d 3d
       0.39528197 0.24343407 0.016195647 0.042274136
000010 3f 80 1a 3e 5c 37 a1 be 00 bc 21 3e c7 20 84 bd
       0.15087985 -0.31487548 0.15794373 -0.06451564
000020 9a 11 18 3e 1e 18 49 be 6b 00 0b bd 60 59 64 3d
       0.14850464 -0.19638106 -0.033935945 0.055749297
000030 fb 45 9b 3e e1 a8 c5 3c 7d ca a4 3e cf a4 be be
       0.30326828 0.02412838 0.32185736 -0.37235114
000040 45 1b eb bd e8 83 d4 be 33 0b 76 bc 1f a0 3a 3d
       -0.114798106 -0.41506886 -0.015017319 0.04556286
000050 6f 99 c5 bd fb 1f 55 3e 66 10 30 bd e1 e8 b8 be
       -0.09648406 0.20812981 -0.04298439 -0.36115173
000060 63 97 a4 3e c4 86 8c 3e de 3b 60 3e fc 1b a9 3e
       0.3214675 0.27446568 0.21897838 0.33029163
000070 a0 3a c0 3d c7 a1 0d 3e 8a 10 8b 3e b7 9c 07 bd
       0.09386182 0.13831244 0.27161056 -0.03310844
000080 8f 17 a3 be 8c fd 6f be 93 f2 ad bd d5 f0 c0 bd
       -0.3185391 -0.23436564 -0.08493533 -0.09420935
000090 c2 64 35 3d f1 6a 8f 3e e6 35 eb 3d c2 84 a8 be
       0.044285543 0.28011277 0.1148489 -0.32913786
0000a0 33 01 9d bc 48 c1 a2 3c 76 15 95 3e 5a e9 16 bd
       -0.01916561 0.019867554 0.29117936 -0.036843635
0000b0 30 6e 6b be 55 36 24 be 1f 94 b2 bd 00 fb 98 3b
       -0.22991252 -0.16036351 -0.08719658 0.0046685934
0000c0 0a 8a 9a be 92 0b bc 3e 8b f3 66 3e 07 1a ff bd
       -0.3018344 0.36727577 0.22553842 -0.12456136
0000d0 c9 e2 7e be f1 ab 00 bd f8 3e 2c 3e e4 51 61 be
       -0.24891199 -0.031413976 0.16820896 -0.22003895
0000e0 bf f7 b9 bd 1a 3f 50 3e 79 91 41 be b6 fd 1a 3c
       -0.09080457 0.20336571 -0.1890315 0.009459903
0000f0 02 f8 9c be 87 18 8d 3e 6e 6f 1d 3e d5 b2 8e be
       -0.30657965 0.27557775 0.15374538 -0.27870813

layers.layer_1.bias f4 [8]
000000 9c b4 26 be b3 4b 99 3d e0 3f 0d 3d 7c 4c 20 3d
       -0.16279835 0.074851416 0.034484744 0.03913544
000010 9a 1f 84 be 15 12 50 be b1 a6 47 3e a9 49 96 be
       -0.2580536 -0.20319398 0.19497181 -0.29353073

layers.layer_2.weight f4 [16, 8]
000000 ee f4 0e be 11 06 5e 3e 8c 42 81 3e 6f b6 1a bd
       -0.13960621 0.21682002 0.25246084 -0.03777164
000010 84 90 24 3e 08 2b bd 3d ac df 3c bc dd bb 47 bd
       0.16070753 0.09236723 -0.011527937 -0.048763145
000020 ef 3b 4a 3e d1 a8 c9 3e 9e e6 72 3e c9 d9 63 be
       0.19749425 0.3938661 0.23720786 -0.22251047
000030 b2 97 7d be 0f 55 d3 be 96 86 b1 3c 76 49 ac bd
       -0.24764898 -0.41275832 0.02167062 -0.08412449
000040 1a 01 32 be 36 44 13 3c 86 0f d6 3e 78 4a 84 3e
       -0.17383233 0.008988431 0.41808718 0.25838065
000050 9b 62 12 3d ae 08 38 be f7 25 47 3e 13 5d 02 3d
       0.03573857 -0.17972061 0.19448076 0.031827044
000060 17 bd cf be 7f cf 21 3e e1 af ce 3e 3e ec af be
       -0.40573952 0.1580181 0.4036856 -0.34359926
000070 d3 40 b4 bc 1f 92 7b 3c ba b7 88 be cb 95 82 be
       -0.022003567 0.015354662 -0.26702672 -0.25504908
000080 33 3d 2b 3e ad 92 00 bd db ba 9d 3e 2c a4 5c bd
       0.16722564 -0.03138988 0.30806622 -0.053867504
000090 c3 56 33 3e 74 b9 a4 be db a1 bf bc 4e 1d a0 3e
       0.17513566 -0.3217274 -0.023392608 0.31272358
0000a0 fd aa d5 3d a5 23 7e bd 5f 96 c8 3d 09 7e 5f 3e
       0.10433004 -0.062045712 0.09794306 0.21825422
0000b0 43 68 87 be ca ae 22 3e 19 5a b3 bd 32 25 07 bd
       -0.26446733 0.15886989 -0.08757419 -0.032994457
0000c0 ac 8e 0e 3e fb 29 82 be 16 35 9f bc 26 cc 9c 3e
       0.13921613 -0.25422654 -0.019434493 0.30624503
0000d0 6f c4 23 3e 0e 28 2d be d2 0c 59 bd 4d 17 9d 3e
       0.15992902 -0.16909811 -0.052990742 0.3068184
0000e0 60 ab 85 3e 1f 0f 26 3e cc 9f af be b4 6a 5c 3e
       0.2610731 0.16216706 -0.34301603 0.21525079
0000f0 2a 16 0c bd 7e 40 2a 3e 25 26 97 3e 8e ff d5 3d
       -0.034200825 0.16626164 0.2952129 0.10449134
000100 d1 4c a9 3e 34 03 d1 3d ab 59 87 3d a3 6e 8a 3c
       0.3306642 0.10205689 0.066089 0.016898459
000110 aa 94 c2 be d4 18 65 be 42 1c 76 be 96 dc 93 be
       -0.38004047 -0.22372752 -0.24034217 -0.2887923
000120 d7 e9 dc 3d 64 24 21 3e b9 f5 18 bd e7 aa a6 be
       0.10786789 0.15736538 -0.037343714 -0.32552263
000130 95 b7 cd 3e df 25 5b 3e b7 73 43 3e 3b f5 ca 3e
       0.40179124 0.21401165 0.1908711 0.3964022
000140 c7 9c 01 be ba bb 83 be fd 07 8c be 2d 97 24 3d
       -0.12657462 -0.25729162 -0.27349845 0.040183235
000150 8a 2c bd be b6 e0 aa 3e e6 5f a2 bc 30 92 00 3e
       -0.36948043 0.33374566 -0.019821119 0.12555766
000160 74 b7 81 be 39 0f 8b 3c 94 98 e0 3d 30 21 1b be
       -0.25335276 0.016975032 0.10966602 -0.15149379
000170 92 44 c6 3e 4b 41 5e be 28 1e 10 3e 21 38 49 be
       0.3872419 -0.21704595 0.14074004 -0.19650318
000180 b8 bb b8 3c ca f5 19 be 7a db b1 3d 81 39 9c 3e
       0.022550449 -0.15035167 0.0868444 0.30512622
000190 7d fa 01 3d ba 22 0e 3d 41 1a ef bd bd d5 6e 3e
       0.031733025 0.034701087 -0.116749294 0.23323722
0001a0 8a f8 a3 bc 1e 0c 47 3e ba 63 66 be ab 4e b3 3e
       -0.020015974 0.19438216 -0.2249898 0.35020956
0001b0 62 10 97 3e 90 d8 9c 3e 60 6d 35 3e 16 bb ab 3d
       0.29504687 0.30633974 0.17717505 0.08385293
0001c0 b0 39 82 be 28 f0 83 3d 3d b5 4d 3e f0 08 29 be
       -0.25434637 0.064422905 0.20088668 -0.16507316
0001d0 fa 83 04 3e 92 56 0a 3e 2b 55 9a be 86 3c 87 be
       0.1294097 0.13509586 -0.30143103 -0.26413363
0001e0 bb 63 56 be a3 88 96 3c 0d a5 94 bd be 36 b3 3d
       -0.20936482 0.0183757 -0.072580434 0.087506756
0001f0 9a 6f cc bd 96 8b 5e be ce aa c2 3c 93 4e 64 3e
       -0.09982224 -0.21732935 0.023763087 0.22295599

layers.layer_2.bias f4 [16]
000000 2a 4d 3d be f1 81 a2 3e a8 e8 9a 3d b3 6b a3 3e
       -0.18486467 0.31739762 0.07563907 0.31918105
000010 61 ed 8c be e4 2d cb be ab cf 0a 3e f5 84 95 be
       -0.27524856 -0.3968345 0.13555782 -0.29203
000020 3b ea 82 be 8c 96 44 3e 9f 40 25 3e f8 f9 92 be
       -0.2556933 0.19198054 0.16137932 -0.28706336
000030 dd fc 72 3e 95 76 a8 bd 54 65 82 3e 1e cb 64 be
       0.23729272 -0.08225743 0.25467932 -0.22343108

layers.layer_3.weight f4 [1, 16]
000000 36 93 a5 be f0 fe 82 be 99 04 03 be 3a 5b a6 be
       -0.32338876 -0.25585127 -0.12794723 -0.32491475
000010 aa 37 bf bd 97 cc a2 bd 77 f1 85 3c 56 f5 dc 3d
       -0.09336789 -0.07949179 0.016350491 0.107889816
000020 a3 a8 82 3d c7 99 96 be 2d e1 4f 3e f3 db 65 be
       0.06379821 -0.29414198 0.20300741 -0.22447185
000030 24 4e 21 3e c8 a9 67 3e c9 c5 4a be 63 9a db bc
       0.15752465 0.2262336 -0.19802012 -0.026807016
