Results/Laplace_EXP/Models/Laplace_EXP_PINN_step_500.pth (torch, 4632 bytes, 7 tensors)

layers.layer_0.weight f4 [8, 2]
000000 2d 17 3b bf f1 b5 97 bd b6 f3 c4 be fe e6 03 be
       -0.7308224 -0.074077494 -0.38467187 -0.12881085
000010 b0 18 2f bf 59 3f 5a 3e a1 69 30 bf bc a2 55 bd
       -0.68397045 0.21313228 -0.68911177 -0.05215715
000020 99 0c 95 3e 65 ca 3f be 93 62 cd 3e 39 01 90 3c
       0.29111174 -0.18729551 0.4011427 0.017578708
000030 b7 34 bc 3e a0 ea f1 3e 04 0b c0 be 4b d0 3b 3e
       0.36758968 0.47249317 -0.37508404 0.18341176

layers.layer_0.bias f4 [8]
000000 f2 97 83 be 08 69 40 3e ba fb a1 be fb b2 8b 3e
       -0.25701863 0.18790066 -0.31637365 0.2728499
000010 71 82 26 3e 1c c2 8c be 8c 07 b4 be 5e 13 00 3e
       0.16260697 -0.27491844 -0.35162008 0.12507388

layers.layer_1.weight f4 [8, 8]
000000 f0 ed be 3e 28 f2 62 3e 9e 15 c4 3b 12 d1 03 3d
       0.37290907 0.22162688 0.0059840223 0.032181807
000010 34 2d 25 3e 7b 26 98 be 09 a3 8d 3d 95 1d 8a bd
       0.16130525 -0.29716858 0.06915862 -0.067439236
000020 d2 f2 1e 3e a5 0a 37 be bd d7 00 bd 68 7a 8a 3d
       0.15522316 -0.17875154 -0.031455744 0.067616284
000030 43 f0 95 3e e1 f3 d7 38 a2 f2 bc 3e 32 e9 b4 be
       0.29284868 0.00010297425 0.36903864 -0.35334164
000040 ac 4d dd bd 16 24 cd be 37 17 78 bc 94 14 5a 3d
       -0.1080583 -0.40066594 -0.015142254 0.05324228
000050 e9 b6 c8 bd 8b 93 46 3e d3 12 6b bc 38 67 b6 be
       -0.09800512 0.1939222 -0.01434775 -0.35625625
000060 d9 a9 a0 3e f4 1a 87 3e 04 6d 61 3e dc 42 a7 3e
       0.31379583 0.2638775 0.22014242 0.32668197
000070 d9 1b b5 3d c3 cb 12 3e 99 84 80 3e 37 ab ce bc
       0.08843202 0.14335541 0.25101164 -0.025228126
000080 d7 6c a8 be 95 32 6b be 89 b2 cd bd f6 7f c0 bd
       -0.32895538 -0.22968514 -0.100438185 -0.093994066
000090 e4 d1 55 3d fd 97 83 3e bb 97 1d 3e 85 bb a3 be
       0.05220212 0.25701895 0.15389912 -0.31979004
0000a0 ec d8 29 bd 18 37 4f bc b3 55 8e 3e 60 a8 6a bd
       -0.04146664 -0.012647413 0.27799758 -0.05728948
0000b0 00 9e 58 be 02 df 01 be ed b2 1d be cd 84 88 bc
       -0.21154022 -0.12682727 -0.15400286 -0.016664887
0000c0 8c b2 a2 be 86 66 b3 3e bd ba 5b 3e 17 2e 09 be
       -0.31776845 0.35039157 0.21457954 -0.13396488
0000d0 df 9e 7b be 15 ef b7 bc c4 15 2a 3e 3a 6c 61 be
       -0.24572323 -0.02245287 0.16609865 -0.22013941
0000e0 32 80 ca bd f1 f1 3f 3e 16 a3 46 be be 05 9d ba
       -0.098877326 0.18744637 -0.1939815 -0.0011979861
0000f0 e6 3c 9a be 98 3f 94 3e 6f ad 1d 3e 71 b9 92 be
       -0.30124587 0.28954768 0.15398191 -0.28657106

layers.layer_1.bias f4 [8]
000000 56 5d 12 be ed 2d 13 3e ad 28 2d 3d 19 59 9b 3d
       -0.14293417 0.14372988 0.04227512 0.075853534
000010 96 6f 73 be 77 94 5d be 42 a6 49 3e 41 b9 95 be
       -0.23773035 -0.21638666 0.19692329 -0.292429

layers.layer_2.weight f4 [16, 8]
000000 22 00 f5 bd 31 a6 55 3e 8e a2 6e 3e 62 9e c5 bc
       -0.11962916 0.20864178 0.23304197 -0.024123374
000010 fd 64 18 3e a9 bc d3 3d 5d 96 0b bc d6 e3 6c bd
       0.14882274 0.103387184 -0.008519736 -0.05783447
000020 21 f5 65 3e 39 ed cb 3e e7 bb 5c 3e 01 b2 4e be
       0.2245679 0.39829424 0.21556054 -0.2018509
000030 79 44 84 be 89 f7 cb be 30 e3 09 3d 36 17 bd bd
       -0.2583349 -0.39837292 0.03366393 -0.09232943
000040 d8 50 11 be 90 15 20 3c ce 36 c8 3e 5f 52 90 3e
       -0.14190996 0.009770766 0.39104313 0.28187844
000050 f1 fb a8 3c 1b 88 2a be 90 d3 55 3e 0e 4d 9b 3c
       0.020627948 -0.16653483 0.20881486 0.018957641
000060 08 04 c3 be 5f 6b 2b 3e ec cc c6 3e c5 08 a7 be
       -0.38089013 0.16740178 0.38828218 -0.32623878
000070 45 1f ee bc 3a 41 d5 3c b5 a9 84 be 38 32 85 be
       -0.029067645 0.026032079 -0.25910726 -0.26014876
000080 a7 e1 4e 3e be 47 68 bd f5 fb 8a 3e 53 85 f8 bc
       0.20203267 -0.056709044 0.27145353 -0.030337011
000090 75 02 18 3e 82 b3 9b be 22 18 da bc 41 04 93 3e
       0.14844687 -0.3041039 -0.026622836 0.28714183
0000a0 85 50 fa 3d ba b2 65 bd 37 da b0 3d 76 f3 6b 3e
       0.12222389 -0.05607865 0.08635371 0.23042092
0000b0 3e 23 8a be e1 ea 2c 3e e2 52 a5 bd 92 a8 16 bd
       -0.26980013 0.16886474 -0.08072449 -0.036781855
0000c0 11 1f 0d 3e b0 c6 82 be b2 94 96 bc c0 7b 9c 3e
       0.13781382 -0.25542212 -0.01838145 0.30563164
0000d0 bb d4 23 3e 71 ca 2c be d0 70 5d bd 98 0a 9d 3e
       0.15999119 -0.168741 -0.054062665 0.30672145
0000e0 f9 fd 54 3e 29 b4 26 3e 2a 76 9b be 53 63 33 3e
       0.20800008 0.16279663 -0.3036359 0.17518358
0000f0 0d d2 31 bc 7f 93 0d 3e fb 9d 8a 3e c9 42 00 3e
       -0.010853303 0.13825797 0.27073655 0.12525477
000100 1b 09 9a 3e 69 9e bf 3d 66 e3 b6 3d d6 77 a4 bb
       0.30085072 0.09356386 0.089300916 -0.0050191684
000110 5c 9d bc be dd 3f 6f be 1d 41 85 be 68 f9 8e be
       -0.36838806 -0.23364206 -0.2602624 -0.27924657
000120 55 14 fc 3d 4d c7 24 3e 8f ee 55 bd 75 cf a0 be
       0.123085655 0.16091652 -0.05222946 -0.31408277
000130 05 9c c9 3e b1 0f 5d 3e 4a fe 4b 3e 62 05 c7 3e
       0.39376846 0.21588017 0.19921222 0.38871294
000140 5b 20 11 be 7b c5 82 be 7f d5 83 be 35 b1 f5 3c
       -0.14172499 -0.2554129 -0.25748822 0.029991725
000150 dc 13 b8 be 61 38 ab 3e 3a 85 cb bc dd 58 0b 3e
       -0.35952652 0.3344145 -0.0248438 0.13608117
000160 95 11 75 be 46 92 87 3c 9b 8a c4 3d 3d 28 12 be
       -0.23932488 0.01654924 0.095967494 -0.14273162
000170 41 85 c2 3e d8 78 5b be ed 9b 12 3e 80 ec 4e be
       0.3799229 -0.21432817 0.14317293 -0.20207405
000180 a0 11 7c 39 7e 29 13 be 1e cf d9 3d 97 5e 94 3e
       0.00024039159 -0.14371297 0.106352076 0.28978416
000190 92 e0 2f 3d 57 f8 9f 3c 22 88 f5 bd 39 9e 76 3e
       0.042938776 0.019527597 -0.11988856 0.24083795
0001a0 4a a2 2e bd 4c 97 52 3e cc ca 50 be 97 ef aa 3e
       -0.04263524 0.20565528 -0.20389861 0.33385918
0001b0 62 d9 9d 3e 6e 22 94 3e 04 12 32 3e 24 bd c0 3d
       0.30829912 0.28932518 0.17389685 0.09411076
0001c0 0a 8f 64 be b1 fd 79 3d 27 27 34 3e ec 1b 12 be
       -0.2232019 0.061032955 0.1759306 -0.14268464
0001d0 ab 35 eb 3d 2c 57 1b 3e 52 3a 96 be b5 73 8d be
       0.11484846 0.15169972 -0.2934137 -0.2762734
0001e0 58 1c 41 be 5a 08 56 3c 0f 65 be bd 37 d3 cf 3d
       -0.18858469 0.013063515 -0.09296619 0.10147708
0001f0 3f 49 e1 bd 57 32 50 be ed 62 e4 3c b4 29 5e 3e
       -0.11000299 -0.20331703 0.027879203 0.21695596

layers.layer_2.bias f4 [16]
000000 b0 79 3b be 06 3f a6 3e da e3 d1 3d 4b 3a a8 3e
       -0.18308139 0.32469958 0.10248537 0.32856974
000010 0d f1 8c be f8 8d c4 be 1d fb 0a 3e d5 74 a5 be
       -0.27527657 -0.38389564 0.13572355 -0.32315698
000020 0b 5c 95 be 57 5c 51 3e e7 98 11 3e ee 87 93 be
       -0.29171786 0.20445381 0.14218484 -0.28814644
000030 60 bb 71 3e 18 e8 b2 bd 99 18 8b 3e eb 53 63 be
       0.23606634 -0.087356746 0.27167204 -0.22199981

layers.layer_3.weight f4 [1, 16]
000000 3c 10 99 be 55 0b 76 be 8f a7 ca bd 3d d0 98 be
       -0.29895198 -0.2402776 -0.098952405 -0.29846373
000010 ca 0f 8c bd a4 9f b2 bd 7c f8 26 bc 02 89 7f 3d
       -0.06838949 -0.08721855 -0.010191079 0.06238652
000020 e8 23 59 3d 97 66 92 be 42 ed 40 3e 6b ed 54 be
       0.05301276 -0.28593895 0.18840507 -0.20793693
000030 a7 bb 12 3e bc f6 50 3e 13 fb 1e be ba c4 6d bb
       0.14329396 0.20406622 -0.15525465 -0.0036280588
