Results/Laplace_EXP/Models/Laplace_EXP_PINN_step_2800.pth (torch, 4644 bytes, 7 tensors)

layers.layer_0.weight f4 [8, 2]
000000 33 2b 2a bf c4 9c e9 bd f8 77 c0 be 54 04 26 be
       -0.66472167 -0.11406854 -0.3759153 -0.16212589
000010 a7 1f 1f bf 5e 89 11 bc 82 6e 24 bf c4 08 5f be
       -0.6215767 -0.008882849 -0.6423112 -0.21780688
000020 2e 4a ab 3e 8f f3 48 be 50 75 cc 3e 83 6b 11 3e
       0.33455032 -0.1962416 0.39933252 0.14201169
000030 3d e6 09 3f 80 29 34 3f 79 fc be be 14 b9 40 3c
       0.5386694 0.70375824 -0.37301996 0.011762876

layers.layer_0.bias f4 [8]
000000 6d 3e b4 be 50 85 7c 3e d6 c3 e3 be ac 89 ae 3e
       -0.35203877 0.2466023 -0.44485348 0.3408941
000010 a4 c6 15 3c 72 37 b5 be 38 ec 81 be 0c dd 74 3e
       0.009141598 -0.35393864 -0.25375533 0.23912448

layers.layer_1.weight f4 [8, 8]
000000 b9 95 cd 3e 9c 2e a1 3e 04 6b a6 bc 6f b8 b0 3d
       0.40153292 0.31480873 -0.0203147 0.08628928
000010 bf c5 90 3e 78 24 bc be cd f8 a7 3e 6b d3 cc bd
       0.28275868 -0.36746573 0.32807007 -0.10001262
000020 0e 8e 1d 3e 2f 94 5e be 06 96 d5 bc bd 81 33 3d
       0.15386221 -0.21736215 -0.026072513 0.0438249
000030 b7 b2 97 3e 05 7b 58 3d fb 57 67 3e 7d 37 ca be
       0.29628536 0.052851696 0.22592156 -0.3949546
000040 9c c9 ec bd c2 99 e0 be cf d3 da bb d3 f1 0b 3d
       -0.115618914 -0.43867308 -0.0066780816 0.03416617
000050 be ba 15 be 55 c9 69 3e 57 8a 20 be ed 3d b5 be
       -0.14622018 0.22830708 -0.15677772 -0.35398808
000060 61 ce a5 3e 1a 78 99 3e 78 44 54 3e 50 0a b0 3e
       0.32384017 0.29974443 0.20729244 0.34382868
000070 be 7a 26 3e ac 4e fd 3d 80 81 b9 3e 62 95 6f bd
       0.1625776 0.12368521 0.36231613 -0.058492072
000080 86 7b a1 be 38 d7 83 be c1 39 a9 bd 26 65 c8 bd
       -0.31539553 -0.25750136 -0.08262969 -0.097849175
000090 35 80 eb 3c 1c c2 a5 3e 16 dd f1 bc 4b 6d b5 be
       0.028747657 0.32374656 -0.029524367 -0.35434946
0000a0 4f a6 49 bc c2 17 70 3d a3 90 91 3e a4 fa 78 bc
       -0.012307717 0.058616407 0.28430662 -0.015196476
0000b0 80 3e 2f be 62 28 47 be 35 7c 38 3d cf b5 f8 3a
       -0.17113686 -0.19448999 0.045040328 0.0018975082
0000c0 b1 25 9f be 7b 0e cb 3e 1b de 46 3e 3d 01 e7 bd
       -0.31083444 0.39659485 0.19420664 -0.11279533
0000d0 5a 78 19 be df dd 46 bd d3 92 92 3e 85 fd 82 be
       -0.14987317 -0.048551437 0.28627643 -0.25584045
0000e0 f0 39 af bd 2c 14 71 3e 7a bc 40 be 0b d3 02 3d
       -0.085559726 0.23542851 -0.18821898 0.031939548
0000f0 22 3b 91 be 7c 6b 7d 3e 5d 8c 3d 3e b5 1e 8c be
       -0.28365427 0.24748033 0.18510576 -0.27367178

layers.layer_1.bias f4 [8]
000000 e9 df 3c be 45 87 84 bc c5 28 3d 3d 8b 86 4d bc
       -0.1844479 -0.016177783 0.04618146 -0.012544285
000010 14 3a 90 be da 27 55 be fc 9c 4f 3e cc 6d 92 be
       -0.2816931 -0.20815983 0.20274729 -0.28599393

layers.layer_2.weight f4 [16, 8]
000000 0f 5c 3b be 83 9a 3c 3e 8d 0c 8f 3e f5 af 84 bd
       -0.18296836 0.18418317 0.27939263 -0.06478874
000010 f6 1a 2f 3e 6a 1f b9 3d 41 a1 3d bd de 7d 52 bd
       0.17100129 0.09039195 -0.04629636 -0.051389568
000020 bc c6 15 3e cf 48 a9 3e 33 37 86 3e 82 8e 83 be
       0.14626592 0.3306336 0.2621399 -0.25694662
000030 b3 7f 79 be dc f7 ce be 3d 0a 07 bd 9e 04 c9 bd
       -0.2436512 -0.40423477 -0.03296875 -0.09815334
000040 db 63 7d be a5 b8 8d bd 9e 0c ec 3e 5f d1 53 3e
       -0.24745123 -0.06919984 0.46103376 0.20685337
000050 8a 47 49 3d 61 0a 2b be e4 96 d8 3d 0e d0 93 3c
       0.04914049 -0.16703178 0.10575655 0.018043544
000060 b3 4c ec be 76 dd e0 3d 09 0a dd 3e 9e cb c1 be
       -0.46152267 0.1097974 0.4317172 -0.3785066
000070 e6 ca 22 bc 0f a0 1c 3d b9 a8 9e be d7 13 83 be
       -0.00993607 0.03823858 -0.309881 -0.25601074
000080 6e 81 bf 3d 9b 0b 39 bd 2a 7c bc 3e d4 62 d8 bd
       0.09350859 -0.045177083 0.3681348 -0.10565725
000090 53 10 5b 3e 87 c0 ab be c4 c8 b5 bd 6f 64 ac 3e
       0.21392946 -0.33545324 -0.08876184 0.33670375
0000a0 9d b3 8d 3d 72 8e da bd b3 78 e6 3d a7 cf 49 3e
       0.06919024 -0.106717005 0.1125349 0.1970812
0000b0 35 2c 86 be 4b 35 33 3e d0 1e fb bd 5a 8a 20 bd
       -0.26205602 0.17500798 -0.122617364 -0.039194442
0000c0 b9 1f 43 3e fc 0b 4f be 7a e1 4b bd b8 2b ad 3e
       0.1905507 -0.20219415 -0.049775578 0.33822417
0000d0 e7 ae 1a 3e 23 a3 30 be 6f a2 9b bc f9 f1 9f 3e
       0.15105782 -0.17249732 -0.018998353 0.31239298
0000e0 be 3d c4 3e b3 14 86 3e 6d 79 da be 56 95 9e 3e
       0.38328356 0.26187667 -0.42670766 0.3097331
0000f0 27 4c ae bd 17 83 f9 3d ee 63 df 3e aa 97 b7 3d
       -0.08510619 0.121832065 0.43630928 0.089644745
000100 ab 17 cf 3e 4c ae 42 3e 7a 57 e3 3c af 17 8b 3d
       0.40447745 0.19011801 0.027751673 0.06791627
000110 ef 84 c6 be cb 43 76 be 66 b5 0c be cc d6 88 be
       -0.38773295 -0.24049298 -0.13741073 -0.26726377
000120 13 bf 90 3d ac 0b e9 3d 23 c0 47 bc e8 33 b4 be
       0.070676945 0.11379179 -0.012191805 -0.3519585
000130 ac 3d d2 3e 8f b9 64 3e 25 f9 0e 3e 52 dc c8 3e
       0.41062677 0.2233641 0.13962229 0.3923059
000140 8a 1a b8 bd a1 a6 72 be 26 84 9a be e1 db 81 3d
       -0.08989437 -0.23696376 -0.30178946 0.06340767
000150 e6 a9 c4 be 60 18 a8 3e 02 ee 63 3c 1e e7 ef 3d
       -0.38410872 0.32831097 0.013911726 0.11714004
000160 2a fd 96 be 1a 86 ca bc bc 86 07 3e 7c 76 34 be
       -0.29490024 -0.024722148 0.13234991 -0.17623323
000170 88 2c c9 3e 9a d1 5c be 8f 28 e4 3d 0e 7d 50 be
       0.39291787 -0.21564332 0.111405484 -0.20360205
000180 9c f7 8f 3d d2 e1 d9 bd 67 4a 75 3d 8a 7f ab 3e
       0.070296496 -0.10638775 0.05988541 0.33495742
000190 04 20 be 3c 7d 83 07 3d a7 bf a2 bd 75 d1 74 3e
       0.023208626 0.03308438 -0.07946711 0.23908027
0001a0 d9 7c cd 3c dc 81 5c 3e f3 94 83 be 17 4a c2 3e
       0.025083946 0.21533912 -0.25699577 0.3794715
0001b0 f8 1d 8e 3e 10 2f 9b 3e 93 4b 58 3e 7f 67 9e 3d
       0.2775724 0.30309343 0.2112258 0.07734584
0001c0 ea fe a7 be e5 16 7f 3b f3 18 7b 3e 9b 6a 5b be
       -0.32811671 0.0038923558 0.24521236 -0.21427386
0001d0 49 2a 19 3e 95 54 1c 3e 6a b9 bb be b5 c9 86 be
       0.14957537 0.1526664 -0.36664897 -0.26325765
0001e0 b8 fb 9a be 9a 24 98 bd 3f 11 d5 bb 8e 98 ae 3c
       -0.3027017 -0.07428856 -0.0065023 0.021312978
0001f0 68 66 9d bd 38 8f 61 be 12 c8 25 bd 29 22 59 3e
       -0.07685548 -0.2202729 -0.040474005 0.21204437

layers.layer_2.bias f4 [16]
000000 8b df 2e be 8b 01 a7 3e bc 73 8b 3d 5a ce 9d 3e
       -0.17077462 0.32618365 0.06809184 0.30821496
000010 98 13 89 be 59 31 ce be d2 68 00 3e bd be 72 be
       -0.2677276 -0.40272024 0.12539986 -0.23705573
000020 67 95 79 be 6c 46 2c 3e 98 f5 3b 3e 9c 18 88 be
       -0.24373399 0.16823739 0.18355405 -0.26581275
000030 ec da 60 3e d6 4f 88 bd cb 07 75 3e d9 a9 4e be
       0.21958512 -0.066558525 0.23928754 -0.20181979

layers.layer_3.weight f4 [1, 16]
000000 ec d1 b4 be 66 74 72 be 1c e7 29 be 5a 2b c3 be
       -0.35316408 -0.23677215 -0.16592067 -0.38119012
000010 56 c1 f1 bd 96 68 95 bd f6 72 b0 3d e4 9c 54 3e
       -0.11804454 -0.07295339 0.08615677 0.20762974
000020 c7 47 a8 3d 54 d8 98 be a3 85 59 3e 7e 0c 7d be
       0.082168154 -0.29852545 0.21242385 -0.24711797
000030 86 6a 43 3e b1 8d 99 3e fe 61 97 be f9 2a a0 bd
       0.19083604 0.29990914 -0.2956695 -0.078206964
