Results/Laplace_EXP/Models/Laplace_EXP_PINN_step_1300.pth (torch, 4644 bytes, 7 tensors)

layers.layer_0.weight f4 [8, 2]
000000 41 1e 37 bf 8d af 32 bd 70 84 c6 be d3 3f 98 bd
       -0.7153054 -0.04362445 -0.38772917 -0.074340485
000010 a7 9d 2c bf 0a 9a f9 3d 69 5a 2c bf 18 ce 87 bd
       -0.6742806 0.12187584 -0.67325455 -0.06631106
000020 92 7e 9d 3e 1d 00 e3 bd 79 a4 ce 3e 5b 90 5d bc
       0.30760628 -0.11084006 0.40359858 -0.013523187
000030 14 1b b9 3e b9 6b df 3e 16 67 bf be 5e 28 c7 3d
       0.3615347 0.43636873 -0.37383336 0.09724496

layers.layer_0.bias f4 [8]
000000 59 c4 b0 be b0 1f 42 3e 89 f0 c8 be 13 a5 89 3e
       -0.345248 0.189574 -0.39246014 0.26883754
000010 07 e0 01 3e 67 60 94 be 1e 59 d9 be 4d e7 28 3e
       0.12683116 -0.289798 -0.42450804 0.16494484

layers.layer_1.weight f4 [8, 8]
000000 9e d8 c8 3e b3 b3 74 3e 3a 8f 90 3c 88 b4 2d 3d
       0.39227766 0.23896675 0.01764642 0.042408496
000010 a1 78 16 3e 88 92 a0 be c2 9e 06 3e 2f ad 75 bd
       0.14694454 -0.31361794 0.13146499 -0.059979614
000020 9d c2 16 3e f9 d1 45 be 8f d5 13 bd 85 95 69 3d
       0.14722677 -0.1931838 -0.036092337 0.05702736
000030 31 04 9b 3e 6c f8 9a 3c dc f5 ac 3e b3 9b bc be
       0.30276635 0.018917285 0.33781326 -0.3683754
000040 51 cd eb bd 20 3a d3 be 37 18 8d bc b3 24 3c 3d
       -0.1151377 -0.41255283 -0.01722346 0.045933437
000050 14 6e c1 bd 94 f1 52 3e 6c a0 05 bd 3f 36 b9 be
       -0.09444824 0.20599967 -0.032623693 -0.361742
000060 44 57 a4 3e b9 ca 8b 3e 3a 1f 62 3e cf 64 a9 3e
       0.32097828 0.27303103 0.22082224 0.33084723
000070 e6 8e b8 3d b7 ed 0c 3e 2f a0 86 3e 21 57 eb bc
       0.09011631 0.13762556 0.26294085 -0.02872807
000080 69 a0 a5 be bc 1c 6e be 03 29 ba bd 0e e1 c1 bd
       -0.32348946 -0.23253149 -0.090898536 -0.09466754
000090 f7 99 42 3d 9a 3c 8b 3e ee 84 ed 3d 91 92 a6 be
       0.047510114 0.27194673 0.1159762 -0.32533696
0000a0 b8 16 ae bc 4a a3 68 3c 19 37 95 3e 81 60 1e bd
       -0.021251068 0.014199087 0.291436 -0.038666252
0000b0 1f 8c 6a be 6c a9 1e be c9 56 e6 bd f8 7c 26 3b
       -0.22905014 -0.15494317 -0.11247022 0.0025404077
0000c0 dd 94 9c be 37 11 ba 3e 9c 72 64 3e e8 31 01 be
       -0.30582324 0.3634126 0.22309345 -0.12616694
0000d0 cf 84 7f be e7 57 fa bc 4c 80 28 3e ef 2e 5f be
       -0.24953006 -0.030559493 0.16455191 -0.21795247
0000e0 a8 ba bc bd 66 73 4c 3e 43 2b 42 be ea d6 ef 3b
       -0.09215289 0.19965896 -0.18961816 0.007319321
0000f0 b6 bd 9c be 2e 80 8e 3e 1d 27 1d 3e a7 30 8f be
       -0.30613488 0.27832168 0.15346952 -0.27966806

layers.layer_1.bias f4 [8]
000000 02 d1 1a be 71 c6 c8 3d 3c cf 17 3d f3 46 55 3d
       -0.15118793 0.09803475 0.03706287 0.052069616
000010 54 a4 7e be 7f 0a 53 be 9e 17 4d 3e 9a 05 96 be
       -0.24867374 -0.20609473 0.2002854 -0.2930115

layers.layer_2.weight f4 [16, 8]
000000 5c fd 0a be 23 17 5d 3e 0b 8a 7e 3e 88 9e 11 bd
       -0.13573211 0.21590857 0.24857347 -0.035551578
000010 76 5f 22 3e c3 70 be 3d 2c e4 18 bc 78 dc 4d bd
       0.15856728 0.09298851 -0.009331744 -0.050259084
000020 89 19 50 3e e6 7e cc 3e ef 2c 6f 3e 3f bb 5f be
       0.20322241 0.39940566 0.23356985 -0.21848772
000030 b6 49 7e be ce 14 d3 be f6 1b de 3c a8 05 ac bd
       -0.24832806 -0.4122681 0.027112942 -0.08399516
000040 99 06 2b be e1 d5 52 3c 4b 53 d3 3e 3a 9e 86 3e
       -0.16701736 0.0128683755 0.41274485 0.26292592
000050 1c 94 09 3d 83 76 38 be b3 72 4e 3e 9a 8b f9 3c
       0.033588514 -0.18013959 0.20160942 0.030462075
000060 22 01 cd be 34 d3 27 3e 4c 8c cd 3e c1 31 ae be
       -0.40039927 0.16389161 0.401461 -0.34022334
000070 27 a6 b5 bc e6 62 70 3c b2 02 87 be a5 58 82 be
       -0.022173954 0.014672017 -0.26369244 -0.25458255
000080 86 5c 32 3e 3f bf 1c bd f3 72 99 3e 4f bf 4c bd
       0.17418107 -0.038268324 0.29970512 -0.049987134
000090 f7 e7 2c 3e 0e ce a3 be 8c 22 ad bc 64 f4 9c 3e
       0.16885363 -0.31993145 -0.021134637 0.30655205
0000a0 71 13 dd 3d a9 00 6d bd 52 df c4 3d 22 d2 61 3e
       0.10794724 -0.057861958 0.096129075 0.22052816
0000b0 c3 8c 87 be a5 92 21 3e 3b 4e ad bd 7a e8 06 bd
       -0.2647458 0.15778597 -0.08462187 -0.03293655
0000c0 33 f3 0c 3e 22 35 82 be a7 39 94 bc 55 4d 9c 3e
       0.13764648 -0.25431162 -0.018093897 0.3052775
0000d0 d7 5e 24 3e 61 d8 2d be 5f 7e 5b bd 61 39 9d 3e
       0.16051804 -0.16977073 -0.053587314 0.3070784
0000e0 5b 45 7e 3e 76 a9 20 3e 62 84 ab be dd 1e 53 3e
       0.24831145 0.15689644 -0.33499438 0.20617242
0000f0 d3 55 fb bc b5 e5 26 3e 0e 02 91 3e e8 bd d9 3d
       -0.030680573 0.16298564 0.2832188 0.10631925
000100 d5 05 a6 3e 48 80 c4 3d e9 56 90 3d 74 49 4f 3c
       0.32426324 0.0959478 0.07047827 0.01265179
000110 f9 ed c1 be 82 b7 63 be 6e 1b 7f be 4e 9f 93 be
       -0.3787687 -0.22237971 -0.24912807 -0.28832477
000120 2a 6f e2 3d 62 0a 24 3e 6e 52 24 bd a1 bc a5 be
       0.11056359 0.16019586 -0.040117674 -0.32370475
000130 b0 24 cd 3e e5 04 59 3e e3 99 47 3e 37 5b ca 3e
       0.40067053 0.21193273 0.19492297 0.39522716
000140 98 e6 03 be 98 e2 83 be aa 74 8a be eb 06 20 3d
       -0.12880933 -0.25758815 -0.27042133 0.039069097
000150 27 39 bc be 92 6c ac 3e fe f0 ba bc 07 fe 02 3e
       -0.36762354 0.33676583 -0.022819992 0.12792216
000160 3d 84 80 be 18 87 94 3c 96 b8 db 3d e0 2f 1a be
       -0.2510089 0.018130824 0.10728566 -0.15057325
000170 45 bf c5 3e 12 f3 5f be 6d 03 12 3e 22 fe 49 be
       0.3862249 -0.21870068 0.1425912 -0.1972585
000180 ad 2b 92 3c c5 2f 1a be 86 c5 b9 3d 0b c0 9a 3e
       0.017843092 -0.15057285 0.09070878 0.30224642
000190 9c 55 09 3d 4d 6f 07 3d aa 89 f3 bd c2 b3 6f 3e
       0.03352891 0.03306513 -0.11891492 0.23408416
0001a0 85 23 cd bc 56 d7 48 3e fc d0 61 be 65 98 b1 3e
       -0.025041351 0.19613394 -0.22052377 0.3468658
0001b0 bc 5c 98 3e b5 5a 9b 3e bf 6c 33 3e 5a 3a af 3d
       0.2975825 0.3034264 0.17521952 0.085560516
0001c0 82 5a 7d be 0d 2d 88 3d 42 b4 48 3e f2 5f 24 be
       -0.24741557 0.06649218 0.19600013 -0.16052225
0001d0 10 44 02 3e f1 ad 0b 3e 5a 31 98 be 81 ef 87 be
       0.12721276 0.13640572 -0.29725152 -0.26549914
0001e0 05 55 4f be 13 68 92 3c b6 20 a2 bd de 33 bc 3d
       -0.20247276 0.017871892 -0.07916395 0.091895804
0001f0 c7 c0 d2 bd 9b 53 5b be 2e f2 d6 3c 74 d6 62 3e
       -0.102906756 -0.21418612 0.026238527 0.2215212

layers.layer_2.bias f4 [16]
000000 f2 4a 3c be 70 b6 a2 3e 86 86 a7 3d 89 d5 a2 3e
       -0.18387964 0.31779814 0.08179955 0.3180354
000010 f7 77 8b be d2 67 ca be e3 e3 0a 3e 89 55 95 be
       -0.27239963 -0.39532334 0.13563494 -0.2916682
000020 72 b7 86 be a5 3c 49 3e 56 88 1d 3e dc a6 92 be
       -0.26311833 0.1965204 0.1538404 -0.2864293
000030 c5 a5 73 3e e9 d4 a9 bd 27 73 83 3e 9d c8 64 be
       0.23793705 -0.082925625 0.25673792 -0.22342153

layers.layer_3.weight f4 [1, 16]
000000 7a 31 a3 be 92 0b 83 be 9d ba fb bd db 60 a3 be
       -0.31873685 -0.25594765 -0.12291453 -0.31909832
000010 05 ce b5 bd e8 0a a5 bd c6 0f 2c 3c a6 08 c7 3d
       -0.08877186 -0.08058721 0.010501808 0.097184464
000020 c1 c8 7d 3d 63 10 96 be fc 98 4d 3e d9 1b 63 be
       0.061959032 -0.29309377 0.2007789 -0.22178592
000030 3b c4 1e 3e cf 3f 61 3e c9 27 40 be 42 ea bc bc
       0.15504543 0.21996997 -0.18765177 -0.023060922
