Results/Laplace_EXP/Models/Laplace_EXP_PINN_step_1700.pth (torch, 4644 bytes, 7 tensors)

layers.layer_0.weight f4 [8, 2]
00000000: 0203 33bf 6e1b 46bd 3d85 c5be 0a0a 88bd
00000010: bf13 29bf d8b5 b53d ea4d 29bf 2845 a1bd
00000020: 9a76 9f3e f9fe b9bd b22a cd3e 0d46 80bb
00000030: 2430 bb3e 206a f73e dd3f bdbe 8830 953d
-0.69926465 -0.048366003 -0.38578215 -0.0664254 -0.66045755 0.088725746 -0.6613451 -0.07874519
0.31145173 -0.09081835 0.40071636 -0.0039146007 0.36560166 0.48323154 -0.36962786 0.07284647

layers.layer_0.bias f4 [8]
00000000: b3cd bfbe c0f0 473e 7c08 d8be 5348 8c3e
00000010: 3692 cb3d 0e13 9dbe 5395 e3be 32f8 463e
-0.37461624 0.19525433 -0.42193973 0.2739893 0.09939997 -0.306786 -0.44449863 0.19430616

layers.layer_1.weight f4 [8, 8]
00000000: 0bfe ca3e 4d4e 7b3e a609 813c ba92 2e3d
00000010: 8c8a 1c3e 5f7d a1be 0e5d 2b3e c7ab 87bd
00000020: 4db0 183e 144f 4abe b195 07bd b448 623d
00000030: f158 9b3e 6874 d53c 0ece a13e da71 bfbe
00000040: b7d6 eabd fafe d4be 9d0f 6abc f6ca 393d
00000050: 053b c7bd cfe8 553e 3975 40bd 9fd3 b8be
00000060: 9ab2 a43e 3bd3 8c3e 6ba9 5f3e 8113 a93e
00000070: 3e2e c33d fddd 0d3e fac9 8c3e 2ce4 0dbd
00000080: bb4f a2be def1 70be 9d6e aabd 59f0 c0bd
00000090: 0d8f 323d cf13 913e c908 ea3d 5c81 a9be
000000a0: ff20 99bc 2505 b23c f2ef 943e 7e90 14bd
000000b0: f150 6bbe 93fc 25be 568f 9fbd bd57 ac3b
000000c0: a8e1 99be 5fc2 bc3e c9a2 673e c8d9 fdbd
000000d0: 9535 7ebe c0b2 01bd ed18 2e3e a64b 62be
000000e0: 0900 b9bd 7ca4 513e 7854 41be 7da0 283c
000000f0: d905 9dbe b097 8c3e 177f 1d3e ee85 8ebe
0.39646944 0.24541588 0.015751671 0.042620398 0.15287226 -0.31540963 0.16734716 -0.06624561
0.14911003 -0.19756728 -0.03310174 0.055245116 0.30341294 0.026056483 0.3160252 -0.3739155
-0.11466735 -0.41600782 -0.014285949 0.045359574 -0.09728054 0.2088959 -0.046986792 -0.36098954
0.32167512 0.27504906 0.21841972 0.33022693 0.09530304 0.13854213 0.27497846 -0.03464143
-0.31701455 -0.23529765 -0.08321879 -0.09420843 0.043593455 0.28335425 0.11427457 -0.33106506
-0.018692492 0.021730969 0.29089314 -0.03627061 -0.22980095 -0.1620963 -0.07791011 0.0052594827
-0.30054975 0.36867043 0.22620691 -0.12395054 -0.24825127 -0.03166461 0.17001696 -0.2209917
-0.0903321 0.20472902 -0.18879879 0.01029217 -0.30668524 0.27459478 0.15380512 -0.27836555

layers.layer_1.bias f4 [8]
00000000: 8249 2bbe c2c3 873d f2d4 093d 6cd8 0c3d
00000010: 0ccb 85be 6dce 4ebe 378c 453e 1760 96be
-0.1672726 0.06629135 0.033650346 0.034386083 -0.26131475 -0.20195933 0.19291769 -0.29370186

layers.layer_2.weight f4 [16, 8]
00000000: 545e 10be cb3e 5e3e cdf0 813e f908 1ebd
00000010: de5b 253e 84e7 bc3d c92a 4cbc 70d1 45bd
00000020: 9926 483e bb5f c83e ba14 743e 1054 65be
00000030: da6f 7dbe 1439 d3be 834b 9f3c b6d5 acbd
00000040: c78b 34be 7f1c ea3b 4e00 d73e fe6b 833e
00000050: 4e7d 153d 5388 37be 1c10 443e 5398 033d
00000060: 26c5 d0be be85 1f3e ab19 cf3e 6498 b0be
00000070: 901d b3bc 1972 813c 9b68 89be fdb1 82be
00000080: b4bd 283e fb7b ebbc 343f 9f3e 3271 62bd
00000090: fbcd 353e 7509 a5be 073b c9bc db48 a13e
000000a0: fcfc d23d 31a9 82bd 6cd6 c93d a7a1 5e3e
000000b0: f25c 87be 176e 233e 6edd b5bd 7a85 07bd
000000c0: c74a 0f3e 7c14 82be b4f3 a3bc f606 9d3e
000000d0: c480 233e e8f2 2cbe c1af 57bd a80c 9d3e
000000e0: a320 883e 368d 283e 0d18 b1be c409 603e
000000f0: 45ea 11bd a205 2b3e cfb6 993e 071b d53d
00000100: a488 aa3e 516c d63d 3531 843d 70de 973c
00000110: 78d0 c2be 8bdd 65be 3560 72be 72d9 93be
00000120: 01d7 da3d e4fc 1f3e 17d2 14bd 8c09 a7be
00000130: aff2 cd3e 2ffb 5b3e d2b7 413e e525 cb3e
00000140: 09c4 00be 39c5 83be 809f 8cbe 1b79 263d
00000150: 7993 bdbe 715b aa3e c552 98bc 6353 ff3d
00000160: 0731 82be 6876 873c 785b e23d 058f 1bbe
00000170: 277c c63e a3b4 5dbe 2a57 0f3e 15fe 48be
00000180: 225f c63c 2495 19be f738 af3d 52c1 9c3e
00000190: cbfc fe3c af9a 0f3d d526 edbd 15a3 6e3e
000001a0: 2c8d 95bc b18a 463e 9bf0 67be ceea b33e
000001b0: 5398 963e 1446 9d3e 4b45 363e e698 aa3d
000001c0: 9586 83be 07c5 813d 2a70 4f3e 81c8 2abe
000001d0: 7859 053e 1728 0a3e 8e3c 9bbe 680d 87be
000001e0: 7e13 59be 9136 943c 67be 8fbd 1eb7 af3d
000001f0: a310 cabd 4e5e 5fbe 82fb b83c 6cbc 643e
-0.14098483 0.21703641 0.2537903 -0.038582776 0.16148326 0.092238456 -0.012461373 -0.04829544
0.19545974 0.39135537 0.23836032 -0.22395349 -0.24749699 -0.41254485 0.019445186 -0.084391996
-0.17631446 0.0071445103 0.4199242 0.2566833 0.036496453 -0.17923097 0.1914677 0.03212769
-0.40775412 0.15578362 0.4044927 -0.34491265 -0.021864682 0.015801476 -0.2683762 -0.2552642
0.16478616 -0.028745642 0.31102908 -0.055283733 0.17754357 -0.32233778 -0.02456428 0.31500897
0.10302159 -0.06379927 0.09855351 0.21741353 -0.264381 0.15959965 -0.08880125 -0.033086278
0.13993369 -0.25406253 -0.020013668 0.30669373 0.15967089 -0.16889536 -0.052657846 0.30673718
0.265874 0.16460118 -0.34588662 0.21878725 -0.035623807 0.16701367 0.30022284 0.10405546
0.33307374 0.104698785 0.06454698 0.018538684 -0.38049674 -0.22447793 -0.23669513 -0.28876835
0.1068554 0.15623814 -0.03633317 -0.3262447 0.40224215 0.21482538 0.18917778 0.3967735
-0.12574781 -0.25736406 -0.2746544 0.04064284 -0.37026575 0.3327289 -0.018594155 0.12467077
-0.2542803 0.016535953 0.110526025 -0.15191276 0.38766596 -0.21650939 0.13998094 -0.19628175
0.024215285 -0.14998299 0.08555787 0.30616242 0.0311264 0.035059627 -0.11579672 0.23304398
-0.018255793 0.19388844 -0.22650377 0.3514008 0.2941309 0.30717528 0.1779987 0.08329944
-0.25688615 0.06336408 0.20257631 -0.16678049 0.13022411 0.13491856 -0.30319637 -0.26377416
-0.21198842 0.018092426 -0.07018738 0.08579849 -0.098664545 -0.21813318 0.022580866 0.22337502

layers.layer_2.bias f4 [16]
00000000: 36a0 3dbe 937a a23e be70 963d 8aac a33e
00000010: 9592 8dbe 0874 cbbe 40c2 0a3e c4e7 95be
00000020: a5a2 81be e3d0 423e cb1c 283e 6006 93be
00000030: 03ac 723e 6dec a7bd 841c 823e 06c7 64be
-0.18518147 0.31734142 0.073457226 0.31967574 -0.27650896 -0.39736962 0.13550663 -0.29278386
-0.253194 0.19024996 0.16417234 -0.287158 0.2369843 -0.081993915 0.2541238 -0.22341546

layers.layer_3.weight f4 [1, 16]
00000000: ae62 a6be 5e8f 82be 318b 04be da71 a7be
00000010: 606e c2bd 5711 a2bd 4caf 973c 55f9 e43d
00000020: 77fb 833d bbc6 96be 23ab 503e c6d1 66be
00000030: 463d 223e a007 6a3e 83b8 4ebe e347 e4bc
-0.32497162 -0.25500005 -0.12943722 -0.3270405 -0.094937086 -0.079134636 0.018516205 0.11180369
0.064444475 -0.29448494 0.20377783 -0.2254096 0.15843686 0.22854471 -0.20187573 -0.02786631
