Results/Laplace_EXP/Models/Laplace_EXP_PINN_step_1400.pth (torch, 4644 bytes, 7 tensors)

layers.layer_0.weight f4 [8, 2]
-0.7112657 -0.04409613 -0.38721225 -0.07112137 -0.67086554 0.113217555 -0.6700281 -0.0684794
0.30860487 -0.104674794 0.40275374 -0.011746068 0.3617398 0.44339222 -0.3726289 0.09019736
00000000: 8215 36bf 259e 34bd af40 c6be 15a8 91bd
00000010: d8bd 2bbf 9bde e73d f686 2bbf ed3e 8cbd
00000020: 7501 9e3e bd5f d6bd bd35 ce3e 9472 40bc
00000030: f635 b93e 4e04 e33e 37c9 bebe 65b9 b83d

layers.layer_0.bias f4 [8]
-0.35339725 0.19081275 -0.40067047 0.27013597 0.12073214 -0.29386044 -0.43116412 0.17224284
00000000: 7cf0 b4be 6b64 433e ae24 cdbe 434f 8a3e
00000010: 6a42 f73d e074 96be 8bc1 dcbe 6d60 303e

layers.layer_1.weight f4 [8, 8]
0.39321548 0.24025536 0.01715686 0.042223852 0.14796633 -0.3140149 0.14011212 -0.06138556
0.14756033 -0.194202 -0.035429385 0.056630213 0.30294433 0.020574719 0.33270544 -0.36959025
-0.11504348 -0.413353 -0.016491877 0.045838516 -0.095080465 0.20669124 -0.035870943 -0.36152402
0.3211286 0.27347335 0.22018251 0.33061934 0.09129249 0.13784295 0.26563704 -0.030161574
-0.32178232 -0.23296276 -0.088782914 -0.09441177 0.046246268 0.27438504 0.11544571 -0.32625887
-0.020439295 0.016118245 0.29144484 -0.038021013 -0.22950223 -0.15680175 -0.104459986 0.0032989108
-0.3044749 0.36466652 0.22396667 -0.12564918 -0.24950652 -0.030876039 0.1655364 -0.21852893
-0.09170853 0.20084776 -0.18943736 0.007990123 -0.30630016 0.27742544 0.1535865 -0.27935493
00000000: 8a53 c93e 8005 763e 8b8c 8c3c ebf2 2c3d
00000010: 7c84 173e 90c6 a0be 8d79 0f3e 6d6f 7bbd
00000020: 0e1a 173e e4dc 46be 671e 11bd 15f5 673d
00000030: 851b 9b3e 508c a83c 5e58 aa3e ef3a bdbe
00000040: eb9b ebbd 01a3 d3be f919 87bc 2bc1 3b3d
00000050: 8cb9 c2bd dea6 533e 69ed 12bd ad19 b9be
00000060: f86a a43e b304 8c3e 8677 613e f046 a93e
00000070: 8ff7 ba3d b426 0d3e 9401 883e 6815 f7bc
00000080: a7c0 a4be ca8d 6ebe d1d3 b5bd f55a c1bd
00000090: ba6c 3d3d 327c 8c3e cd6e ec3d 670b a7be
000000a0: 4f70 a7bc 690a 843c 4238 953e ecbb 1bbd
000000b0: a202 6bbe a390 20be 1eef d5bd 8a32 583b
000000c0: 22e4 9bbe 92b5 ba3e 8557 653e 2eaa 00be
000000d0: a37e 7fbe bfef fcbc 6082 293e 0cc6 5fbe
000000e0: afd1 bbbd 09ab 4d3e defb 41be 01e9 023c
000000f0: 60d3 9cbe b50a 8e3e c845 1d3e 9c07 8fbe

layers.layer_1.bias f4 [8]
-0.1547809 0.090708785 0.036209214 0.047956064 -0.251731 -0.20524265 0.19866058 -0.29318222
00000000: e27e 1ebe 87c5 b93d 1d50 143d 946d 443d
00000010: e3e2 80be 212b 52be ae6d 4b3e fb1b 96be

layers.layer_2.weight f4 [16, 8]
-0.13699543 0.21622173 0.24985383 -0.036268 0.15924804 0.092754655 -0.009977907 -0.04974944
0.2013508 0.3978442 0.23481777 -0.21979645 -0.24806473 -0.4126009 0.025480554 -0.08393717
-0.16921672 0.011781017 0.41450492 0.26147512 0.034284584 -0.18014643 0.19950756 0.030981049
-0.40209764 0.16205207 0.40218666 -0.34128118 -0.022144537 0.014797003 -0.2647022 -0.25470728
0.17190227 -0.03617661 0.30241087 -0.05123833 0.17079915 -0.32050857 -0.021706907 0.30850834
0.106772885 -0.05911149 0.09673655 0.21979791 -0.26464942 0.15798324 -0.08550308 -0.032924406
0.13808553 -0.2543214 -0.018477796 0.30554625 0.16035141 -0.16955279 -0.05344101 0.306994
0.25236267 0.15838173 -0.3376032 0.20900802 -0.031766374 0.16421187 0.28677535 0.10562348
0.32629588 0.09776177 0.06904722 0.013984196 -0.37917235 -0.22270547 -0.24650136 -0.2885517
0.10970543 0.15930484 -0.03923109 -0.3242669 0.40100402 0.21257897 0.1937166 0.39562353
-0.12808916 -0.25738877 -0.27138874 0.03940945 -0.36816272 0.33576247 -0.021920374 0.12718204
-0.25173676 0.017734487 0.10804664 -0.15083878 0.38651696 -0.2181395 0.14203331 -0.19700123
0.019382382 -0.15060246 0.08941768 0.30318153 0.032935992 0.0336832 -0.11829109 0.23376355
-0.023395173 0.1955266 -0.22200458 0.34795305 0.29676628 0.3044427 0.17579725 0.08498076
-0.24964681 0.0659387 0.19761075 -0.16197209 0.12791328 0.13586381 -0.29848644 -0.26500094
-0.20462656 0.01817517 -0.07707315 0.09053744 -0.1019468 -0.21530363 0.025563654 0.22201651
00000000: 8848 0cbe 3b69 5d3e afd9 7f3e c18d 14bd
00000010: eb11 233e 27f6 bd3d 607a 23bc 12c6 4bbd
00000020: e72e 4e3e 3cb2 cb3e 1274 703e 5212 61be
00000030: ae04 7ebe 6d40 d3be 98bc d03c 40e7 abbd
00000040: 2647 2dbe 2b05 413c fd39 d43e 11e0 853e
00000050: fe6d 0c3d 4e78 38be b64b 4c3e f8cb fd3c
00000060: bedf cdbe faf0 253e 69eb cd3e 68bc aebe
00000070: 7668 b5bc 216f 723c 0c87 87be fe68 82be
00000080: 2607 303e ed2d 14bd 99d5 9a3e 48df 51bd
00000090: f9e5 2e3e b319 a4be afd2 b1bc cef4 9d3e
000000a0: beab da3d e41e 72bd d01d c63d b412 613e
000000b0: 2180 87be 5cc6 213e 3d1c afbd bedb 06bd
000000c0: 4b66 0d3e 6a36 82be bf5e 97bc 8f70 9c3e
000000d0: 2933 243e 3f9f 2dbe f6e4 5abd 512e 9d3e
000000e0: ae35 813e d22e 223e 54da acbe 3306 563e
000000f0: 751d 02bd 2827 283e 38d4 923e 2051 d83d
00000100: 4110 a73e 5337 c83d a168 8d3d f81d 653c
00000110: e122 c2be e70c 64be da6a 7cbe 0cbd 93be
00000120: 3ead e03d cf20 233e c8b0 20bd 5006 a6be
00000130: 6650 cd3e 4dae 593e a55d 463e 2b8f ca3e
00000140: ce29 03be 76c8 83be 77f3 8abe ce6b 213d
00000150: d37f bcbe 0fe9 ab3e 5b92 b3bc 023c 023e
00000160: a4e3 80be ea47 913c 8f47 dd3d 7b75 1abe
00000170: 8de5 c53e f65f 5fbe 2e71 113e b1ba 49be
00000180: cdc7 9e3c 8837 1abe 9e20 b73d 9c3a 9b3e
00000190: e4e7 063d 65f7 093d 9942 f2bd b65f 6f3e
000001a0: 3ca7 bfbc 2038 483e 2b55 63be e726 b23e
000001b0: c0f1 973e eadf 9b3e 3204 343e 650a ae3d
000001c0: 6aa3 7fbe df0a 873d 795a 4a3e 03dc 25be
000001d0: b3fb 023e e21f 0b3e 37d3 98be 34ae 87be
000001e0: a089 51be 18e4 943c 87d8 9dbd b16b b93d
000001f0: 7cc9 d0bd 8e78 5cbe de6a d13c 4c58 633e

layers.layer_2.bias f4 [16]
-0.18421872 0.3176214 0.07978183 0.31835097 -0.27323976 -0.39582184 0.13562222 -0.29145148
-0.26063046 0.19509538 0.15622519 -0.28668457 0.23777728 -0.08270072 0.2559763 -0.22344609
00000000: d5a3 3cbe 469f a23e a864 a33d e6fe a23e
00000010: 15e6 8bbe 29a9 cabe 8de0 0a3e 2139 95be
00000020: 5b71 85be 15c7 473e 7ff9 1f3e 52c8 92be
00000030: e37b 733e ff5e a9bd 530f 833e 0dcf 64be

layers.layer_3.weight f4 [1, 16]
-0.32027397 -0.2562208 -0.124667965 -0.32096708 -0.09028607 -0.08021882 0.012381719 0.10062012
0.06255966 -0.29344422 0.20150314 -0.22266541 0.15584683 0.22197394 -0.19094516 -0.024410997
00000000: f3fa a3be 5f2f 83be eb51 ffbd cc55 a4be
00000010: e7e7 b8bd c449 a4bd b2dc 4a3c ec11 ce3d
00000020: 471f 803d 523e 96be d756 4e3e 6702 64be
00000030: 5096 1f3e 234d 633e 2187 43be 92f9 c7bc
