Results/Laplace_EXP/Models/Laplace_EXP_PINN_step_2100.pth (torch, 4644 bytes, 7 tensors)

layers.layer_0.weight f4 [8, 2]
-0.6841321 -0.06222995 -0.3843095 -0.07638364 -0.64667946 0.05711901 -0.6527023 -0.10344592
0.315124 -0.083941884 0.39962992 0.01916395 0.39131388 0.55931777 -0.3672232 0.05579396
00000000: 4823 2fbf d5e4 7ebd 37c4 c4be 076f 9cbd
00000010: c98c 25bf 9ff5 693d 7f17 27bf 74db d3bd
00000020: ef57 a13e b9e9 abbd 4b9c cc3e b7fd 9c3c
00000030: 4b5a c83e 732f 0f3f ae04 bcbe 3588 643d

layers.layer_0.bias f4 [8]
-0.39362037 0.20391099 -0.44215593 0.2803672 0.06428869 -0.32515192 -0.420345 0.22359204
00000000: 9c88 c9be 0bce 503e 4362 e2be 4a8c 8f3e
00000010: caa9 833d 507a a6be 7637 d7be 50f5 643e

layers.layer_1.weight f4 [8, 8]
0.40241414 0.25758752 0.013725778 0.04780401 0.16727614 -0.3197997 0.21070525 -0.07455017
0.15232028 -0.203183 -0.029136762 0.0525975 0.3037624 0.03497811 0.28879583 -0.3814221
-0.11423452 -0.42066935 -0.011414576 0.043816797 -0.101775765 0.21260247 -0.06869893 -0.36028272
0.3228086 0.27858752 0.21629754 0.3311553 0.10321351 0.13885073 0.29261044 -0.041435536
-0.31161165 -0.24001707 -0.07776852 -0.094202995 0.04249187 0.29797214 0.09731581 -0.34129795
-0.017710937 0.029744752 0.28858554 -0.033402503 -0.22603779 -0.16923214 -0.03687136 0.006640924
-0.2961293 0.37547773 0.22719485 -0.1205816 -0.24104643 -0.0331776 0.18315403 -0.2265558
-0.08823325 0.21143137 -0.18768054 0.014741665 -0.30657503 0.26969877 0.15469286 -0.27677256
00000000: 3a09 ce3e 83e2 833e 16e2 603c 23ce 433d
00000010: 704a 2b3e c9bc a3be 1ec3 573e c2ad 98bd
00000020: d9f9 1b3e 340f 50be 38b0 eebc 7a70 573d
00000030: bf86 9b3e 3545 0f3d 0cdd 933e c249 c3be
00000040: caf3 e9bd f961 d7be 3404 3bbc 3e79 333d
00000050: d06f d0bd 76b4 593e 06b2 8cbd fa76 b8be
00000060: 2b47 a53e 06a3 8e3e 1a7d 5d3e 308d a93e
00000070: 9b61 d33d e32e 0e3e 09d1 953e 4fb8 29bd
00000080: 908b 9fbe 09c7 75be 1a45 9fbd 80ed c0bd
00000090: f40b 2e3d ce8f 983e 834d c73d 9bbe aebe
000000a0: 8716 91bc 44ab f33c 7cc1 933e 10d1 08bd
000000b0: 7376 67be 314b 2dbe 6c06 17bd 1c9c d93b
000000c0: 429e 97be 9e3e c03e c4a5 683e 7cf3 f6bd
000000d0: e0d4 76be 3ce5 07bd bb8c 3b3e 3efe 67be
000000e0: a2b3 b4bd 7781 583e 542f 40be 0687 713c
000000f0: 67f7 9cbe f515 8a3e ce67 1e3e 22b5 8dbe

layers.layer_1.bias f4 [8]
-0.18770498 0.028934537 0.031017572 0.013597028 -0.27490574 -0.19595338 0.1841682 -0.29414696
00000000: bc35 40be 1f08 ed3c 9018 fe3c 12c6 5e3c
00000010: 72c0 8cbe 01a8 48be 9796 3c3e 6e9a 96be

layers.layer_2.weight f4 [16, 8]
-0.1476602 0.21608004 0.259441 -0.042679638 0.1647568 0.09237293 -0.017919494 -0.046912305
0.18574919 0.37701827 0.24301308 -0.23085983 -0.24722028 -0.40970227 0.007695204 -0.08694007
-0.18868548 -0.005220144 0.42798704 0.2479894 0.039643683 -0.1751006 0.17457876 0.03188368
-0.4181145 0.14495073 0.4086595 -0.35184476 -0.020506974 0.018929671 -0.27574018 -0.25641245
0.15335098 -0.017931473 0.32417768 -0.062444005 0.1887696 -0.32443592 -0.032964975 0.32517225
0.09655248 -0.07355523 0.101251125 0.21321484 -0.26408327 0.16457836 -0.09559531 -0.034019526
0.14455742 -0.25129148 -0.023269162 0.30963752 0.15829858 -0.168774 -0.049928498 0.30668744
0.29028922 0.1797743 -0.35986215 0.23753838 -0.043832246 0.16710848 0.3282138 0.10321928
0.34560475 0.12080843 0.057566706 0.027274074 -0.3822804 -0.22942756 -0.2164437 -0.28693488
0.1015321 0.14946494 -0.031614263 -0.3302378 0.4043255 0.2189411 0.17965731 0.39779437
-0.121355034 -0.25766373 -0.28017047 0.043396987 -0.37419137 0.3286155 -0.0119644115 0.12083107
-0.2595822 0.012903691 0.1144393 -0.15473962 0.38954112 -0.21441336 0.13559203 -0.19605954
0.032160364 -0.14551145 0.08020206 0.31121826 0.028753035 0.03513288 -0.11005984 0.23303454
-0.010213276 0.19313408 -0.23298046 0.35694006 0.28993827 0.3091606 0.18275398 0.0811526
-0.26958337 0.055628855 0.21022782 -0.17552589 0.13414285 0.13617551 -0.3134312 -0.26307797
-0.22529384 0.011289641 -0.059388116 0.07686513 -0.09358201 -0.218924 0.01483983 0.22415203
00000000: 3c34 17be 1644 5d3e 73d5 843e d8d0 2ebd
00000010: 02b6 283e 052e bd3d e7cb 92bc 1e27 40bd
00000020: 0935 3e3e 8a08 c13e 6cd8 783e 8566 6cbe
00000030: 5027 7dbe 7fc4 d1be 0d28 fc3b a30d b2bd
00000040: c436 41be be0d abbb 1e21 db3e eff0 7d3e
00000050: 6a61 223d 924d 33be c6c4 323e 7698 023d
00000060: 1b13 d6be f76d 143e d13b d13e ff24 b4be
00000070: 3efe a7bc 6612 9b3c d12d 8dbe 7e48 83be
00000080: 0a08 1d3e 06e5 92bc 9efa a53e 49c5 7fbd
00000090: d14c 413e 771c a6be 4806 07bd fa7c a63e
000000a0: 4ebd c53d 20a4 96bd c05c cf3d fe54 5a3e
000000b0: ec35 87be 3b87 283e 79c7 c3bd 0f58 0bbd
000000c0: dc06 143e 47a9 80be f89e bebc cf88 9e3e
000000d0: 0619 223e 17d3 2cbe d381 4cbd 2306 9d3e
000000e0: caa0 943e c116 383e da3f b8be 433d 733e
000000f0: 7189 33bd 7c1e 2b3e a40b a83e a164 d33d
00000100: 1bf3 b03e 696a f73d 11cb 6b3d e16d df3c
00000110: 42ba c3be 0fef 6abe 6ba3 5dbe 21e9 92be
00000120: 10f0 cf3d 560d 193e f57d 01bd ee14 a9be
00000130: c003 cf3e 1932 603e 16f8 373e b4ab cb3e
00000140: fd88 f8bd 80ec 83be 8172 8fbe 0ac1 313d
00000150: 0396 bfbe 4a40 a83e 6106 44bc 4876 f73d
00000160: f5e7 84be 016a 533c 275f ea3d 1074 1ebe
00000170: ef71 c73e 2d8f 5bbe a3d8 0a3e d5c3 48be
00000180: 96ba 033d f400 15be fa40 a43d 0058 9f3e
00000190: 7c8b eb3c 7fe7 0f3d 0e67 e1bd 9ba0 6e3e
000001a0: 9655 27bc f1c4 453e 6e92 6ebe d9c0 b63e
000001b0: ca72 943e 4c4a 9e3e dc23 3b3e 5633 a63d
000001c0: d506 8abe 15db 633d f645 573e 0fbd 33be
000001d0: be5c 093e 9871 0b3e 0e7a a0be 28b2 86be
000001e0: 6eb3 66be 30f8 383c f440 73bd 776b 9d3d
000001f0: eda7 bfbd 9d2d 60be c222 733c 1c88 653e

layers.layer_2.bias f4 [16]
-0.1862726 0.31749362 0.06393983 0.3215928 -0.28397033 -0.39984095 0.13517924 -0.2968395
-0.24296486 0.18177713 0.17667925 -0.2863582 0.23532568 -0.07994444 0.25204384 -0.22341654
00000000: 3fbe 3ebe 868e a23e e3f2 823d d0a7 a43e
00000010: 8f64 91be f4b7 ccbe 6d6c 0a3e 59fb 97be
00000020: c8cb 78be c923 3a3e 68eb 343e 8b9d 92be
00000030: 37f9 703e e9b9 a3bd e40b 813e 4ec7 64be

layers.layer_3.weight f4 [1, 16]
-0.3316097 -0.24595383 -0.13439633 -0.33742294 -0.101349466 -0.077752575 0.029879626 0.13089955
0.06736059 -0.29570022 0.20681953 -0.22960451 0.16326189 0.24031839 -0.22090532 -0.031705875
00000000: bfc8 a9be 52db 7bbe 319f 09be b3c2 acbe
00000010: 4f90 cfbd be3c 9fbd 1ec6 f43c 880a 063e
00000020: 59f4 893d 0566 97be 80c8 533e 721d 6bbe
00000030: 202e 273e 0616 763e 0135 62be 05de 01bd
