Results/Laplace_EXP/Models/Laplace_EXP_PINN_step_1500.pth (torch, 4644 bytes, 7 tensors)

layers.layer_0.weight f4 [8, 2]
000000 cb 0c 35 bf 97 66 38 bd bf fe c5 be 7e 9b 8c bd
       -0.70722646 -0.045019712 -0.38670918 -0.06865595
000010 26 db 2a bf 41 bc d6 3d 60 bd 2a bf f7 e7 91 bd
       -0.66740644 0.10485125 -0.66695213 -0.07124322
000020 84 80 9e 3e da 53 cb bd a0 d0 cd 3e 4e 23 1d bc
       0.30957425 -0.09928103 0.4019823 -0.009590937
000030 9a 89 b9 3e a6 52 e8 3e 2a 38 be be 50 a8 ab 3d
       0.36237794 0.45375556 -0.37152225 0.083817124

layers.layer_0.bias f4 [8]
000000 b3 d4 b8 be 04 c8 44 3e ee 0d d1 be 53 fa 8a 3e
       -0.36099777 0.19216925 -0.4083094 0.27144107
000010 ce c5 e9 3d 18 9b 98 be 96 b4 df be b7 e1 37 3e
       0.114146814 -0.29805827 -0.43692464 0.17957197

layers.layer_1.weight f4 [8, 8]
000000 6d d5 c9 3e 35 88 77 3e 7c 89 88 3c aa b1 2c 3d
       0.39420643 0.24173053 0.01666712 0.04216162
000010 fe d8 18 3e 1f fc a0 be 76 79 18 3e 77 d0 80 bd
       0.14926526 -0.31442353 0.14890084 -0.062897615
000020 08 8a 17 3e 25 f3 47 be d6 2c 0e bd 04 3a 66 3d
       0.14798748 -0.19526346 -0.034710728 0.05620767
000030 6c 31 9b 3e 75 bb b6 3c 88 a1 a7 3e 2f e8 bd be
       0.30311143 0.022306183 0.32740426 -0.37091205
000040 a4 5e eb bd 72 10 d4 be dc 0e 81 bc 82 43 3b 3d
       -0.11492661 -0.41418797 -0.015754156 0.045718677
000050 a6 1b c4 bd 33 60 54 3e 3b fc 20 bd 02 00 b9 be
       -0.09575586 0.20739822 -0.039303046 -0.36132818
000060 e7 7f a4 3e bb 42 8c 3e 07 d6 60 3e f3 2d a9 3e
       0.32128832 0.2739466 0.21956645 0.3304287
000070 90 82 bd 3d 8c 63 0d 3e 82 7a 89 3e 84 82 01 bd
       0.092534184 0.13807505 0.2685128 -0.03161861
000080 03 e8 a3 be b4 2f 6f be d6 bf b1 bd 5f 0f c1 bd
       -0.32012948 -0.23358041 -0.08679168 -0.0942676
000090 ad 03 39 3d f6 e1 8d 3e fc d2 eb 3d ff b1 a7 be
       0.04516952 0.27711457 0.115148515 -0.32752988
0000a0 be c2 a1 bc 7b 7a 93 3c 41 2d 95 3e 84 45 19 bd
       -0.01974618 0.01800274 0.29136088 -0.03741981
0000b0 ae 50 6b be 08 69 22 be 1d b4 c4 bd 41 6f 83 3b
       -0.22979996 -0.15860379 -0.096046664 0.0040110652
0000c0 c5 35 9b be 8f 5d bb 3e 3e 2e 66 3e 9b 1f 00 be
       -0.3031446 0.36594817 0.22478577 -0.12512057
0000d0 f7 4b 7f be c6 3b ff bc 8d bd 2a 3e af 7b 60 be
       -0.24931322 -0.031156432 0.1667387 -0.21922182
0000e0 32 e7 ba bd 95 ed 4e 3e f7 c8 41 be 09 84 0e 3c
       -0.09126128 0.20207818 -0.18924318 0.008698472
0000f0 f3 e6 9c be 73 93 8d 3e 34 5d 1d 3e dc dd 8e be
       -0.3064495 0.27651557 0.15367585 -0.2790364

layers.layer_1.bias f4 [8]
000000 31 73 22 be f4 f5 a9 3d 04 c5 10 3d 76 cd 32 3d
       -0.15864255 0.08298865 0.03534414 0.043652974
000010 ec 7c 82 be c1 2f 51 be 00 9d 49 3e d1 32 96 be
       -0.25485933 -0.20428373 0.19688797 -0.29335645

layers.layer_2.weight f4 [16, 8]
000000 cf 99 0d be d5 bb 5d 3e a3 96 80 3e b4 91 17 bd
       -0.13828205 0.21653683 0.25114927 -0.037004188
000010 06 cd 23 3e 65 87 bd 3d ec 65 2f bc ee b9 49 bd
       0.15996179 0.0925434 -0.010705452 -0.049249582
000020 65 3c 4c 3e 66 c2 ca 3e 97 b1 71 3e 36 70 62 be
       0.19944914 0.3960144 0.23602901 -0.22113118
000030 4e c9 7d be c8 56 d3 be 69 f0 c1 3c f7 fb ab bd
       -0.24783823 -0.41277146 0.023674207 -0.08397668
000040 03 98 2f be 12 35 2c 3c 1d 23 d5 3e 9b 1a 85 3e
       -0.17147832 0.0105107 0.41628352 0.2599686
000050 47 5d 0f 3d 48 56 38 be 6f e0 49 3e 1c c7 00 3d
       0.035001066 -0.18001664 0.19714521 0.031439885
000060 94 c7 ce be 93 f1 23 3e e9 4b ce 3e c2 4e af be
       -0.4038664 0.16010122 0.4029229 -0.34239775
000070 b4 fa b4 bc ca 1e 76 3c 0a 18 88 be 6f 7d 82 be
       -0.0220922 0.015021989 -0.2658084 -0.25486323
000080 09 a9 2d 3e 8b c0 0a bd a9 42 9c 3e 2d 25 57 bd
       0.16959013 -0.03387503 0.30519608 -0.052525688
000090 2a 0a 31 3e cd 68 a4 be 58 ea b7 bc db 01 9f 3e
       0.17289034 -0.32111207 -0.022450611 0.31056103
0000a0 e4 36 d8 3d 33 c9 77 bd d8 59 c7 3d 2e 4d 60 3e
       0.105573446 -0.060494613 0.09733933 0.21904442
0000b0 fd 73 87 be 31 23 22 3e 2c 1d b1 bd 84 ee 06 bd
       -0.2645568 0.15833737 -0.08648142 -0.03294231
0000c0 8d ee 0d 3e d4 33 82 be 58 06 9b bc 7f 9a 9c 3e
       0.13860531 -0.25430167 -0.018923923 0.3058662
0000d0 ca ff 23 3e 1a 63 2d be d1 18 5a bd c2 22 9d 3e
       0.16015545 -0.16932335 -0.053246323 0.3069058
0000e0 5e 60 83 3e 61 f5 23 3e 86 37 ae be 24 1a 59 3e
       0.2565946 0.16011573 -0.34026736 0.21201378
0000f0 fc df 06 bd 94 48 29 3e a7 dd 94 3e b2 11 d7 3d
       -0.032928452 0.16531593 0.29075357 0.10501422
000100 6e 26 a8 3e 31 55 cc 3d b6 6a 8a 3d 15 28 7c 3c
       0.3284182 0.099771865 0.06758635 0.015390416
000110 94 5a c2 be 40 80 64 be d3 6f 79 be 37 d2 93 be
       -0.3795973 -0.22314548 -0.24359064 -0.2887132
000120 e2 d8 de 3d e2 2c 22 3e d4 e8 1c bd 1d 55 a6 be
       0.10881211 0.15837434 -0.03830798 -0.3248681
000130 67 81 cd 3e cd 62 5a 3e c3 fd 44 3e ac c2 ca 3e
       0.4013779 0.21326752 0.19237427 0.39601648
000140 ea 67 02 be 2b bc 83 be 99 79 8b be 90 ec 22 3d
       -0.12734953 -0.25729498 -0.2724121 0.039776385
000150 c5 d0 bc be 2d 65 ab 3e 26 6b ab bc 92 6d 01 3e
       -0.3687803 0.33475628 -0.020925116 0.12639454
000160 3f 49 81 be 2d 39 8e 3c 71 e7 de 3d ad c4 1a be
       -0.25251195 0.017361248 0.10883988 -0.15114088
000170 23 12 c6 3e 86 cf 5e be 59 d0 10 3e f4 77 49 be
       0.38685712 -0.21758851 0.14141978 -0.19674665
000180 10 97 ab 3c 06 28 1a be 82 7d b4 3d e0 b7 9b 3e
       0.020946056 -0.1505433 0.08813001 0.30413723
000190 b5 73 04 3d 8e 3a 0c 3d e3 ca f0 bd 38 15 6f 3e
       0.03233691 0.03423553 -0.117574476 0.23347938
0001a0 e4 f6 b1 bc 09 9d 47 3e 16 db 64 be 89 b8 b2 3e
       -0.021724172 0.19493498 -0.223492 0.34906414
0001b0 38 83 97 3e 2e 60 9c 3e 22 ae 34 3e 70 e0 ac 3d
       0.295923 0.3054213 0.17644551 0.084412456
0001c0 16 ff 80 be 93 a9 85 3d 88 04 4c 3e 55 67 27 be
       -0.25194615 0.06526484 0.19923604 -0.16348012
0001d0 e3 ba 03 3e 4e ab 0a 3e bb 88 99 be 60 72 87 be
       0.1286426 0.1354191 -0.2998713 -0.2645445
0001e0 7b e2 53 be 22 80 96 3c f0 58 99 bd 72 6f b6 3d
       -0.20691864 0.018371645 -0.074876666 0.08907975
0001f0 ef ad ce bd b7 8f 5d be 8e ba ca 3c ab d6 63 3e
       -0.10091769 -0.21636854 0.02474716 0.22249858

layers.layer_2.bias f4 [16]
000000 64 f9 3c be fa 8d a2 3e 5b 35 9f 3d 60 31 a3 3e
       -0.1845451 0.31748945 0.077738486 0.31873608
000010 94 60 8c be b3 ea ca be d2 d9 0a 3e be 49 95 be
       -0.27417433 -0.39632186 0.13559654 -0.29157823
000020 10 2e 84 be 05 3c 46 3e 2d 8b 22 3e 9c e4 92 be
       -0.25816393 0.19358833 0.15873404 -0.2869004
000030 ca 42 73 3e fa ed a8 bd d5 b5 82 3e d9 ce 64 be
       0.23755947 -0.082485154 0.25529352 -0.22344531

layers.layer_3.weight f4 [1, 16]
000000 19 c6 a4 be 13 30 83 be 85 62 01 be fa 52 a5 be
       -0.32182387 -0.25622615 -0.12635238 -0.3228987
000010 f4 0a bc bd 39 8a a3 bd e5 9c 6a 3c 72 5a d5 3d
       -0.09181777 -0.07985348 0.014319633 0.10417642
000020 03 60 81 3d 30 6c 96 be fd 19 4f 3e a6 ec 64 be
       0.06317141 -0.29379416 0.20224757 -0.22355899
000030 83 6d 20 3e 38 6e 65 3e 30 0e 47 be 68 31 d2 bc
       0.15666775 0.22405326 -0.19439006 -0.025658324
