Results/Laplace_EXP/Models/Laplace_EXP_PINN_step_2600.pth (torch, 4644 bytes, 7 tensors)

layers.layer_0.weight f4 [8, 2]
00000000: bb92 2abf ebe4 cdbd f2dc c2be 1081 06be
00000010: b7d0 20bf c713 413c f8ed 24bf cff2 34be
00000020: cab3 a43e 27ab 08be 885a cd3e 0910 d03d
00000030: 93b6 fc3e 49e6 293f 9afa bcbe cfd1 e03c
-0.6663014 -0.10053428 -0.38059193 -0.13135171 -0.62818474 0.0117845 -0.6442561 -0.17670749
0.32168418 -0.1334654 0.40108132 0.101593085 0.49358043 0.6636701 -0.36909944 0.027443795

layers.layer_0.bias f4 [8]
00000000: ca46 c2be adf8 6a3e 1a11 e6be 58c3 a03e
00000010: bdfa b23c b3af b1be 40e8 99be 47a4 7c3e
-0.37944633 0.22946425 -0.44934922 0.31399035 0.021848077 -0.3470436 -0.30060005 0.24672042

layers.layer_1.weight f4 [8, 8]
00000000: 4dd1 cf3e 4c1b 963e beba 27bb 7849 913d
00000010: d826 6d3e e236 b1be 89a9 933e c7c4 b7bd
00000020: 781b 1f3e 0c1d 5abe 90aa ccbc c20c 403d
00000030: a747 9a3e c573 453d 5f66 773e 52a2 c8be
00000040: 5e43 eabd 78ff dcbe 3663 f8bb c7e1 1c3d
00000050: f836 f7bd 6744 633e dda9 00be 80fc b6be
00000060: 64b3 a53e d0ba 943e 0af7 573e 7604 ad3e
00000070: 22e8 063e 8dee 063e e005 ac3e 3f70 57bd
00000080: 13cd 9ebe 1221 80be 11ff 9dbd 9451 c3bd
00000090: 1a25 233d 7429 a23e acee a83b 2b00 b5be
000000a0: fd48 83bc cc57 3f3d fa73 913e a081 c2bc
000000b0: 1816 4ebe 935e 3cbe 69ca ba3c 92e4 953b
000000c0: b3ac 99be 44ab c73e 79b8 593e 7a41 e9bd
000000d0: a2be 47be d625 2cbd 1fda 773e 8b13 78be
000000e0: 8709 b0bd eea5 673e 33cf 3fbe 4bf7 ce3c
000000f0: 2700 99be 016f 833e 8143 2d3e 2e5f 8cbe
0.4058937 0.293177 -0.0025593485 0.07094091 0.23159349 -0.34612185 0.28840283 -0.08973079
0.15537822 -0.21300143 -0.024983674 0.046887167 0.3013279 0.04820611 0.24160145 -0.3918634
-0.114386305 -0.43163657 -0.0075801862 0.038301256 -0.12071031 0.22194062 -0.12564798 -0.35739517
0.32363427 0.29048777 0.21090332 0.33792466 0.13174489 0.13176937 0.33598232 -0.05259728
-0.31015834 -0.2502523 -0.07714666 -0.09537044 0.039830305 0.3167225 0.005155405 -0.3535169
-0.016026014 0.04671459 0.28408796 -0.02374345 -0.20125616 -0.18395452 0.022801595 0.004574367
-0.30014572 0.38997853 0.21261777 -0.11389442 -0.19506314 -0.04202827 0.242043 -0.24226205
-0.08595567 0.22621891 -0.18731384 0.025264403 -0.2988293 0.25670627 0.16920282 -0.27416366

layers.layer_1.bias f4 [8]
00000000: 656f 49be 9968 35bc 2757 0d3d f4e5 e8bb
00000010: 3654 92be 861c 48be da38 403e 7fac 94be
-0.196714 -0.011072301 0.034506943 -0.0071074907 -0.28579873 -0.19542131 0.18771687 -0.29037854

layers.layer_2.weight f4 [16, 8]
00000000: 53c9 2abe 47e7 4c3e abb2 8a3e be5e 60bd
00000010: 4f08 2d3e 01ad bc3d e1aa 0ebd b2e3 49bd
00000020: dece 263e 2c93 b13e d7c3 813e ab34 7cbe
00000030: 3fd7 7bbe 0c58 cfbe 259d 95bc 5b26 c2bd
00000040: c631 63be 6817 32bd 0776 e43e 5033 663e
00000050: c5d7 373d 8080 2cbe 5420 073e a394 c13c
00000060: 11b8 e2be e66a fd3d d97e d73e f629 bcbe
00000070: 98e0 73bc 0282 f03c b864 97be 00e4 83be
00000080: 1d29 f73d 5de8 c5bc d85e b33e 4639 afbd
00000090: 89c8 523e e29c a8be d4bd 88bd f3f0 aa3e
000000a0: 624f a53d ed83 c2bd c149 dc3d 2b7a 503e
000000b0: fac2 86be 39d8 303e b5dc e5bd c027 19bd
000000c0: 1ce4 293e dfad 69be 1545 11bd 1356 a53e
000000d0: c678 1e3e ee16 2fbe fff2 0ebd 19a1 9e3e
000000e0: 3453 b13e 9b32 673e 2957 cbbe f6c8 8f3e
000000f0: 43d0 89bd ccb3 163e 17af cb3e 6b49 ce3d
00000100: 9b5b c23e 43b0 273e f2d9 273d 0698 4f3d
00000110: 0c34 c5be a906 73be 2a0b 2bbe ad0a 8dbe
00000120: e996 ad3d dd53 033e 265f a8bc af4b afbe
00000130: a7e2 d03e b7f4 643e cfc8 1e3e 7e2f ca3e
00000140: d068 d7bd 3569 7ebe e6cf 95be 4ceb 5c3d
00000150: f1e3 c2be 140a a73e 0244 9c3b 7200 f23d
00000160: b783 8ebe 5ba9 ebbb d03f fe3d 9821 2abe
00000170: 0f94 c83e c9ed 5abe 1849 f83d 9d82 4dbe
00000180: 767a 593d 41d1 fdbd a92e 8d3d b01c a63e
00000190: 8b84 d03c c605 093d 51ce bcbd 1a8a 723e
000001a0: 22e7 0f3c 9db5 4f3e f23f 7cbe 5628 bd3e
000001b0: 2c9e 903e 47e7 9c3e 174d 4b3e c519 a23d
000001c0: 41c9 9abe 1b7f de3c 7689 6a3e b11f 4abe
000001d0: bd3b 123e d762 143e 3165 b0be a47b 87be
000001e0: f896 87be 8e11 08bd e744 08bd e24e 4b3d
000001f0: 59d9 adbd d085 5ebe 76ad 5ebc 5c67 5f3e
-0.16678362 0.200101 0.27089438 -0.054777853 0.168977 0.092126854 -0.03483093 -0.049289413
0.16289851 0.34682596 0.25344726 -0.24629466 -0.24593829 -0.40496862 -0.018263409 -0.09479972
-0.22186956 -0.043479353 0.44621298 0.22480512 0.04488351 -0.16845894 0.13195926 0.023630446
-0.44281057 0.12373905 0.42088965 -0.36750764 -0.01488509 0.029358868 -0.2956903 -0.25759888
0.120683886 -0.024158651 0.35033298 -0.08555846 0.2058431 -0.32932192 -0.06676832 0.33386955
0.08071782 -0.09497819 0.10756255 0.20359103 -0.2632063 0.17269982 -0.11223737 -0.037391424
0.16590923 -0.22820233 -0.035466272 0.32292232 0.15475759 -0.1709859 -0.034899708 0.30982283
0.3463379 0.22577898 -0.39714935 0.2808301 -0.06729176 0.14717025 0.3978202 0.10072597
0.37960514 0.16375832 0.040979333 0.05068209 -0.3851627 -0.2373301 -0.16703478 -0.27547207
0.084760495 0.1282496 -0.020553183 -0.3423743 0.40797922 0.22358976 0.1550629 0.3948936
-0.10518038 -0.24844821 -0.29260176 0.053935334 -0.3806453 0.32624876 0.0047688494 0.11816491
-0.27834865 -0.0071918196 0.12414515 -0.16614377 0.3917546 -0.2137977 0.121233165 -0.20069356
0.053095303 -0.12393428 0.06893665 0.32443762 0.025453826 0.03345277 -0.09219039 0.23685494
0.008783134 0.20284124 -0.24633768 0.36944836 0.28245676 0.306452 0.19853626 0.079150714
-0.3023167 0.027160218 0.22904 -0.19738652 0.14280601 0.1449083 -0.34452203 -0.26461518
-0.26482368 -0.033219866 -0.033268835 0.049635775 -0.084887214 -0.21730733 -0.013591161 0.21816772

layers.layer_2.bias f4 [16]
00000000: db56 39be 9c68 a43e d654 733d b5db a13e
00000010: da75 92be 3539 cebe e042 073e b6cd 89be
00000020: e2d0 73be a461 2e3e 5c21 403e 14c8 8dbe
00000030: 3ecc 693e dc19 93bd 342c 7a3e 52f8 5ebe
-0.18099539 0.3211106 0.059407078 0.31612936 -0.2860554 -0.4027802 0.13209105 -0.26914757
-0.23810151 0.17029434 0.18762726 -0.2769171 0.22831818 -0.07182667 0.24430925 -0.21774414

layers.layer_3.weight f4 [1, 16]
00000000: 730b b0be f5ae 6dbe 9440 17be 55ad b9be
00000010: 1fbd e2bd f0e4 99bd 2847 7e3d 6d0b 353e
00000020: 4300 993d 9006 98be 8c81 573e 1403 75be
00000030: d37f 363e 94a1 8c3e ea56 88be 4fe9 46bd
-0.34383735 -0.23211272 -0.14770728 -0.36265054 -0.11071228 -0.075143695 0.06207958 0.1768014
0.07470753 -0.29692507 0.21045512 -0.23926955 0.17822199 0.27467024 -0.2662881 -0.048562344
