Results/Laplace_EXP/Models/Laplace_EXP_PINN_step_1200.pth (torch, 4644 bytes, 7 tensors)

layers.layer_0.weight f4 [8, 2]
00000000: 8424 38bf dc93 32bd adc8 c6be 0239 a0bd
00000010: 6178 2dbf 7e0a 063e 0a36 2dbf e346 84bd
00000020: 08f7 9c3e c935 f1bd ca1a cf3e 3684 73bc
00000030: dd2d b93e ee77 dd3e 8710 c0be a60f d73d
-0.7193072 -0.04359804 -0.38824978 -0.078233734 -0.6776181 0.1308994 -0.6766058 -0.06458833
0.3065722 -0.11777837 0.40450126 -0.0148630645 0.36167803 0.43255562 -0.3751261 0.105010316

layers.layer_0.bias f4 [8]
00000000: 0c47 acbe 1dfb 403e b76b c4be 8c01 893e
00000010: 89a8 073e 6261 92be 0f8d d5be ec7a 213e
-0.33647954 0.18845792 -0.3836343 0.26758993 0.13247885 -0.28589922 -0.41709182 0.15769547

layers.layer_1.weight f4 [8, 8]
00000000: 7960 c83e 078a 733e 305c 943c a4c6 2e3d
00000010: e2b0 153e 595c a0be 4d94 fb3d df62 70bd
00000020: 3b85 163e 36cf 44be ca4e 16bd b826 6b3d
00000030: e7ea 9a3e 28dd 8d3c bd81 af3e f808 bcbe
00000040: 91ec ebbd a1d4 d2be fdf5 92bc 2479 3c3d
00000050: 4237 c0bd fc3d 523e 9bad f1bc a955 b9be
00000060: 2943 a43e 3b93 8b3e 71cb 623e aa85 a93e
00000070: 4741 b63d c9ba 0c3e 8251 853e 34bc dfbc
00000080: b585 a6be 8fe1 6dbe 09b7 bebd bead c2bd
00000090: 9f7e 483d 1526 8a3e cc8f ef3d 6d48 a6be
000000a0: 0ac5 b5bc 4b70 483c dd29 953e c044 21bd
000000b0: c7f2 69be d7af 1cbe c909 f6bd a103 e43a
000000c0: d547 9dbe 786e b93e e281 633e 6ebb 01be
000000d0: fc65 7fbe 595a f7bc 7aae 273e 3eb5 5ebe
000000e0: 72a5 bdbd 8d43 4b3e 5258 42be 72ab da3b
000000f0: 36a6 9cbe 7af5 8e3e ebfe 1c3e 4859 8fbe
0.39136103 0.23783122 0.018110365 0.042669907 0.14618257 -0.31320456 0.122841455 -0.05868804
0.14699261 -0.1921967 -0.036696233 0.057409972 0.3025734 0.01731737 0.3427867 -0.36725593
-0.11519731 -0.41177848 -0.017939562 0.046013966 -0.093855396 0.20531458 -0.029501727 -0.36198166
0.3208249 0.27260765 0.22147919 0.3310979 0.088991694 0.13743128 0.26038748 -0.027311422
-0.32523885 -0.23230575 -0.09312255 -0.09505795 0.04894888 0.2698218 0.11697349 -0.3247713
-0.022188682 0.012233804 0.29133502 -0.039372206 -0.22846518 -0.15301453 -0.12013585 0.0017396101
-0.30718866 0.36217093 0.22217515 -0.12669155 -0.24941248 -0.030194448 0.16375151 -0.21748826
-0.09260072 0.19849987 -0.18979004 0.00667327 -0.3059556 0.2792166 0.15331618 -0.27997804

layers.layer_1.bias f4 [8]
00000000: eb64 17be 7b06 d73d a633 1b3d b572 653d
00000010: df98 7bbe 52d5 53be 0299 4e3e 43f0 95be
-0.14784591 0.10499283 0.037891053 0.056017596 -0.24570034 -0.20686844 0.20175555 -0.29284868

layers.layer_2.weight f4 [16, 8]
00000000: 36b5 09be 23ce 5c3e 493e 7d3e cab8 0ebd
00000010: deb5 213e ecf0 be3d d971 0fbc 1ffa 4fbd
00000020: 6901 523e 212f cd3e 57db 6d3e 8366 5ebe
00000030: 4d98 7ebe f1d6 d2be a939 ea3c 5452 acbd
00000040: d9cf 28be 5db8 623c 5d6e d23e 2358 873e
00000050: 47ce 063d a658 38be f15e 503e c2df f43c
00000060: e427 ccbe a79d 293e 852c cd3e 9fab adbe
00000070: 95ce b5bc f7d9 6f3c 4789 86be c54c 82be
00000080: 36ad 343e 7354 24bd 591a 983e cab3 47bd
00000090: 400e 2b3e cf87 a3be 51a6 a9bc 27ff 9b3e
000000a0: 9c76 df3d 324d 68bd b49b c33d c68e 623e
000000b0: 0c9a 87be 7182 213e acab abbd bd11 07bd
000000c0: 9793 0c3e 7b32 82be 8695 91bc 2130 9c3e
000000d0: 0683 243e 630b 2ebe 27ef 5bbd 8143 9d3e
000000e0: c940 7a3e a253 1f3e c632 aabe 8456 503e
000000f0: c0d5 f2bc 8b8d 253e 6860 8f3e b058 db3d
00000100: 8203 a53e 320a c13d 6338 933d 3740 3a3c
00000110: 1abc c1be 5979 63be c3c6 80be b37a 93be
00000120: f925 e43d 35f3 243e dcd1 27bd 4e76 a5be
00000130: 53fe cc3e b163 583e f7b7 483e bf27 ca3e
00000140: 38a2 04be a00c 84be 4bfc 89be 8baf 1e3d
00000150: 2dfc bbbe a7ef ac3e 7f9f c1bc 29b4 033e
00000160: 0c29 80be 4c3c 983c 403a da3d 66f0 19be
00000170: a99f c53e 1089 60be 7989 123e 3540 4abe
00000180: 78a7 853c 9e1b 1abe 706c bc3d c046 9a3e
00000190: b7bb 0b3d feb7 043d 2ba7 f4bd 3e10 703e
000001a0: e27f dabc 2474 493e fe4d 60be c20b b13e
000001b0: c4c4 983e 60d3 9a3e 5be5 323e 8371 b03d
000001c0: 7c1c 7bbe b927 893d b30f 473e 08ed 22be
000001d0: e191 013e 5a4f 0c3e 6da0 97be f435 88be
000001e0: 6f42 4dbe fca7 8f3c 032d a6bd 15ce be3d
000001f0: 9a92 d4bd 652d 5abe c37e db3c a853 623e
-0.13448033 0.2156301 0.24730791 -0.034844197 0.15792033 0.09323296 -0.008755171 -0.050775643
0.2050835 0.4007502 0.23228203 -0.21718793 -0.24862786 -0.41179612 0.028591948 -0.0841414
-0.16485538 0.013837901 0.41099826 0.2643443 0.032911565 -0.18002567 0.20348717 0.029891852
-0.39874184 0.16564046 0.40073028 -0.3392 -0.022193233 0.014639369 -0.2627661 -0.25449196
0.176442 -0.0401196 0.29707602 -0.048755445 0.16704655 -0.3193955 -0.020709189 0.30468103
0.10911295 -0.056714244 0.095511824 0.22124776 -0.26484716 0.15772416 -0.08382353 -0.0329759
0.13728176 -0.2542914 -0.017771494 0.3050547 0.16065606 -0.16996531 -0.05369487 0.30715564
0.24438776 0.15559247 -0.33241862 0.20345503 -0.02964294 0.16167276 0.2800324 0.10710275
0.3222924 0.09425773 0.07188489 0.011367849 -0.37838823 -0.22214259 -0.25151643 -0.2880455
0.11140055 0.16108401 -0.040971622 -0.32316822 0.40037784 0.21131779 0.19601427 0.3948345
-0.12952507 -0.25790882 -0.26950297 0.03874163 -0.36715832 0.3377659 -0.023635624 0.12861694
-0.25031316 0.01858344 0.106556416 -0.15033111 0.38598374 -0.21927285 0.14310254 -0.19751056
0.016315207 -0.15049598 0.0920037 0.30132103 0.034114566 0.03240203 -0.11945947 0.23443696
-0.026672307 0.1967321 -0.21904752 0.34579283 0.2983762 0.3023939 0.17470305 0.08615401
-0.24522585 0.066970296 0.19439583 -0.15910733 0.12653305 0.13702145 -0.29614583 -0.26603663
-0.20044874 0.017536156 -0.08114054 0.09316651 -0.103795245 -0.21306379 0.026793843 0.22102225

layers.layer_2.bias f4 [16]
00000000: e2ec 3bbe 25d4 a23e afab ab3d cbb6 a23e
00000010: be10 8bbe 3625 cabe 12e4 0a3e e1a1 95be
00000020: a703 88be 65a0 4a3e f134 1b3e bc81 92be
00000030: 83bd 733e 2c5a aabd efe2 833e beb8 64be
-0.18352082 0.31802478 0.083823554 0.31780085 -0.2716121 -0.39481515 0.13563564 -0.29225066
-0.26565287 0.19787748 0.15156914 -0.28614604 0.23802762 -0.0831798 0.25759074 -0.22336099

layers.layer_3.weight f4 [1, 16]
00000000: 9b69 a2be 43d4 82be dd0b f8bd e571 a2be
00000010: e4bc b2bd 51cd a5bd 0ebd 0d3c 502f c03d
00000020: 4e5b 7b3d afe2 95be b0e1 4c3e dd37 62be
00000030: 92f3 1d3e 5b40 5f3e 3ae9 3cbe 5cff b0bc
-0.31721196 -0.25552568 -0.12111638 -0.3172752 -0.08727434 -0.080958016 0.008651031 0.09384024
0.06136637 -0.29274508 0.20007968 -0.22091623 0.15424946 0.21801893 -0.18448344 -0.02160614
