Results/Laplace_EXP/Models/Laplace_EXP_PINN_step_300.pth (torch, 4632 bytes, 7 tensors)

layers.layer_0.weight f4 [8, 2]
000000 e5 7b 35 bf 0c eb d2 bd 05 38 bd be f4 b2 1d be
       -0.70892173 -0.10298738 -0.36956802 -0.15400296
000010 22 83 29 bf f4 80 79 3e 9e 63 2b bf fe d1 84 bd
       -0.6621572 0.24365598 -0.6694888 -0.06485365
000020 42 51 8c 3e 32 b0 55 be 7e 89 c6 3e 5d 8c 4f 3d
       0.27405745 -0.20867994 0.38776773 0.05067097
000030 69 a1 bc 3e ac 7f f4 3e 1e 0e b5 be ff f3 59 3e
       0.36841896 0.47753656 -0.35362333 0.21284483

layers.layer_0.bias f4 [8]
000000 59 71 8d be 33 6c 49 3e 77 47 ab be 40 bf 95 3e
       -0.2762554 0.19670181 -0.3345296 0.29247475
000010 b7 56 28 3e 55 dd 92 be dc 11 b6 be 6b 76 12 3e
       0.16439329 -0.28684488 -0.355605 0.14302985

layers.layer_1.weight f4 [8, 8]
000000 51 ed b0 3e fd 30 47 3e 98 17 af bc a4 48 a9 3b
       0.34556058 0.19452281 -0.021373555 0.00516613
000010 f3 dc 41 3e a0 38 8a be 67 38 b8 3d 96 8d c3 bd
       0.18931942 -0.26996326 0.08995133 -0.0954849
000020 f0 8f 30 3e d1 e0 23 be b7 d5 6d bc ea e7 af 3d
       0.17242408 -0.1600373 -0.014516286 0.08589156
000030 ff f5 8c 3e 57 52 99 bc 01 bd b5 3e f7 de aa be
       0.2753143 -0.01871602 0.3549576 -0.33373234
000040 80 36 be bd ce a2 c4 be 7c 05 ba b9 87 ec 8d 3d
       -0.09287739 -0.3840546 -0.0003548077 0.0692988
000050 6d cf e7 bd 08 cf 35 3e 38 1a df bc cc b0 ad be
       -0.1131886 0.17754757 -0.027234182 -0.33923948
000060 87 9e 99 3e 3e 80 7e 3e cd 0a 54 3e 09 c4 9f 3e
       0.3000376 0.24853608 0.20707245 0.3120425
000070 30 eb cf 3d f9 03 22 3e 8c 1a 87 3e 7e 31 25 bd
       0.1015228 0.15821828 0.2638744 -0.040330403
000080 9b 61 9f be da 31 58 be 77 96 a9 bd 4d b3 9a bd
       -0.31129155 -0.21112767 -0.08280652 -0.0755373
000090 ad 28 0a 3d 3c 1f 74 3e 0c e4 16 3e 8d 55 99 be
       0.033730198 0.2384004 0.1473543 -0.29948083
0000a0 51 49 86 bd a4 f1 21 bd 6d 6c 82 3e d3 e8 aa bd
       -0.06556953 -0.039537087 0.25473347 -0.08345189
0000b0 4f 63 40 be d9 92 cb bd bf dd 05 be 01 91 33 bd
       -0.18787883 -0.09940118 -0.1307287 -0.04383946
0000c0 24 da a5 be 96 3d ae 3e f9 94 56 3e b7 42 12 be
       -0.3239299 0.3403136 0.20955266 -0.14283262
0000d0 de 81 77 be 1b 1b 4d bc 3c 67 34 3e a6 53 6a be
       -0.24170634 -0.0125186695 0.17617506 -0.22883472
0000e0 fe db dd bd 7b b1 33 3e 2b ee 4f be 7b 7b 4b bc
       -0.10832976 0.17548172 -0.20305698 -0.012419577
0000f0 49 75 95 be 9e 3e 9a 3e 77 f3 27 3e c4 f5 98 be
       -0.29191044 0.30125898 0.16401468 -0.29875004

layers.layer_1.bias f4 [8]
000000 d1 16 29 be 9b 41 16 3e 08 dd 24 3d c3 09 9b 3d
       -0.1651261 0.14673464 0.040249854 0.07570221
000010 29 76 82 be 31 c0 5c be 89 ce 31 3e e3 63 94 be
       -0.25480774 -0.2155769 0.17363943 -0.28982458

layers.layer_2.weight f4 [16, 8]
000000 f4 68 d2 bd c6 a7 42 3e 2a fe 5c 3e 28 f6 0c bc
       -0.102739245 0.19009313 0.21581331 -0.00860361
000010 5d 9d 08 3e ef 40 fd 3d 9d a8 88 bc 46 b5 8d bd
       0.1334128 0.12365901 -0.016681964 -0.06919341
000020 9f bd 77 3e 40 35 c2 3e e4 a0 49 3e 87 c9 3d be
       0.24193428 0.37931252 0.19690281 -0.18533908
000030 8a 09 8d be 6c 69 c2 be e9 3c da 3c de 42 da bd
       -0.2754634 -0.37971056 0.026640372 -0.10657285
000040 99 8a f6 bd ca 97 4c bc e5 31 bd 3e b9 7a 9a 3e
       -0.12038154 -0.012487361 0.3695213 0.30171755
000050 8a c4 60 3a c5 a7 11 be 19 75 4b 3e 4d 28 2a 3b
       0.00085742085 -0.14224155 0.19868888 0.0025963963
000060 95 50 ba be 3b e7 18 3e 3c d4 bd 3e 9f f5 9e be
       -0.36389604 0.14931957 0.37075984 -0.3104677
000070 96 b6 38 bd a4 ae 3c 3d 32 7d 87 be 27 36 8c be
       -0.045096003 0.046064988 -0.26462704 -0.27385065
000080 40 58 6a 3e a7 2c ac bd 1a e1 7a 3e 42 0d b1 bb
       0.22885227 -0.08406954 0.24499932 -0.005403192
000090 ec 35 fd 3d bc fd 8c be 67 ec 36 bd fb 83 88 3e
       0.123638004 -0.27537334 -0.044659045 0.26663193
0000a0 09 75 0b 3e 1f 81 90 bd 38 60 95 3d ee 7c 78 3e
       0.13618864 -0.07055878 0.07293743 0.24266407
0000b0 fc 2d 90 be 66 5c 43 3e d1 a1 ad bd 02 19 3d bd
       -0.28160083 0.19078216 -0.0847813 -0.046166427
0000c0 e9 8b 14 3e 4a 64 87 be 0e c3 d7 bc 36 fc 9f 3e
       0.14506496 -0.26443702 -0.026338127 0.3124711
0000d0 d6 c1 1c 3e 45 7d 22 be 30 4e 69 bd 33 85 9a 3e
       0.15308318 -0.15868099 -0.05695933 0.30179748
0000e0 c8 a6 36 3e 49 43 44 3e 84 a5 8c be 4f 26 17 3e
       0.1783706 0.19166292 -0.27470028 0.14760707
0000f0 f2 cd 89 3c 74 85 dd 3d c3 4b 93 3e 8d be 1a 3e
       0.016821835 0.1081647 0.2876874 0.15111752
000100 aa 7a 8e 3e af 2d ed 3d ef 62 e3 3d a9 45 d0 bc
       0.2782796 0.11580979 0.111028545 -0.025423842
000110 41 61 b2 be 48 a6 84 be 4d dc 7f be e2 5d 86 be
       -0.34839824 -0.25908113 -0.24986382 -0.26243502
000120 b7 03 0e 3e 44 f8 12 3e d1 de 8c bd c3 48 99 be
       0.13868605 0.14352518 -0.06878436 -0.29938325
000130 d9 f5 c1 3e a4 84 6f 3e d3 c4 44 3e f6 2f c1 3e
       0.3788288 0.23390442 0.19215707 0.37731904
000140 63 cc 22 be 76 43 72 be 0f 9a 75 be 12 66 66 3c
       -0.1589828 -0.23658547 -0.2398455 0.014062421
000150 74 ef af be a9 d2 a0 3e f0 11 85 bc b5 9d 17 3e
       -0.34362376 0.3141072 -0.016243905 0.14806254
000160 a9 2f 64 be 7d 5e de ba 23 bb a1 3d a3 83 02 be
       -0.22283806 -0.0016965416 0.078970216 -0.12745528
000170 89 c2 ba 3e 81 80 47 be 5a e9 09 3e 96 c9 59 be
       0.36476544 -0.19482614 0.13467923 -0.21268305
000180 0b be 77 bc ff a6 01 be 4f fc f9 3d 2d 30 8d 3e
       -0.015120993 -0.1266136 0.12206327 0.27575818
000190 cc e4 68 3d d5 a0 d8 38 7f 26 e8 bd f0 a0 80 3e
       0.056858823 0.0001032964 -0.113354675 0.25122786
0001a0 af 32 6a bd 67 bc 63 3e 31 b3 40 be f6 ed a3 3e
       -0.057177242 0.22239839 -0.18818356 0.32017487
0001b0 37 19 a5 3e 8c 75 8b 3e 6e 57 38 3e a7 31 d7 3d
       0.322458 0.2723812 0.18002102 0.10507517
0001c0 75 91 50 be d8 25 25 3d 75 aa 1f 3e e9 19 ff bd
       -0.20367987 0.040319294 0.15592368 -0.12456114
0001d0 b7 7c c5 3d 25 aa 31 3e 19 96 9a be d2 59 95 be
       0.09642928 0.17350061 -0.3019264 -0.2917009
0001e0 df b9 43 be ff 80 88 3c 2c 20 b8 bd 88 81 ca 3d
       -0.19113873 0.016663073 -0.08990511 0.098879874
0001f0 7e c2 db bd 72 f2 53 be 1a 19 ee 3c 30 22 60 3e
       -0.10730456 -0.20697954 0.029064704 0.21888041

layers.layer_2.bias f4 [16]
000000 5e 8a 42 be 80 e5 a7 3e cf 49 da 3d a7 3b b3 3e
       -0.18998095 0.32792282 0.10658609 0.3500645
000010 0f b5 96 be a8 46 ba be 2a cb 0a 3e ef ca b5 be
       -0.29435012 -0.3638203 0.13554063 -0.3550639
000020 2b c8 9c be 48 b3 4d 3e 40 1a 18 3e 2a 7c 98 be
       -0.30621466 0.20087922 0.14853764 -0.2978223
000030 d5 86 72 3e 0a 4d b2 bd 35 12 8f 3e 26 10 63 be
       0.23684247 -0.087061 0.27943578 -0.22174129

layers.layer_3.weight f4 [1, 16]
000000 b1 3a 8d be fe 8e 57 be d1 f2 95 bd a1 57 8f be
       -0.2758384 -0.21050641 -0.07321704 -0.27996543
000010 97 57 34 bd fc 4e c9 bd 60 dc e0 bc b7 ff 12 3d
       -0.044028845 -0.09829518 -0.027448833 0.0358884
000020 84 6f 26 3d 16 d6 8b be df 2a 2c 3e 9d 2d 41 be
       0.040633693 -0.27311772 0.16813229 -0.18865056
000030 14 a2 0b 3e 16 f8 52 3e ec d1 02 be 43 47 fd 3b
       0.13636047 0.2060245 -0.12775391 0.0077294423
