Results/Laplace_EXP/Models/Laplace_EXP_PINN_step_3400.pth (torch, 4644 bytes, 7 tensors)

layers.layer_0.weight f4 [8, 2]
0	0xbf456d27	-0.7711968
1	0xbdf564e8	-0.11982137
2	0xbebe659f	-0.37186906
3	0xbe289f40	-0.16466999
4	0xbf29f3ea	-0.6638781
5	0xbd62c6f7	-0.05536553
6	0xbf3ba16c	-0.73293185
7	0xbe69e8a9	-0.22842659
8	0x3efb5a12	0.49092156
9	0xbebdb9e4	-0.37055886
10	0x3ee2f120	0.4432459
11	0x3e15082c	0.14553899
12	0x3f1f8e37	0.6232638
13	0x3f3f5f52	0.7475482
14	0xbeca0bec	-0.3946222
15	0x3b8244d3	0.0039754896

layers.layer_0.bias f4 [8]
0	0xbe80d8ca	-0.25165397
1	0x3e9134e6	0.2836067
2	0xbec60988	-0.38679147
3	0x3e9d0ee0	0.3067541
4	0xbc688452	-0.014191704
5	0xbe9ab935	-0.30219427
6	0xbe15ccc6	-0.14628896
7	0x3e1cfe5d	0.15331407

layers.layer_1.weight f4 [8, 8]
0	0x3ecfd193	0.4058958
1	0x3e981cf4	0.2970959
2	0xbdb2d4f3	-0.08732023
3	0x3dcad609	0.09904105
4	0x3ede156d	0.43375722
5	0xbeb6d44f	-0.35708854
6	0x3ede3ca6	0.43405646
7	0xbe3f88eb	-0.18704574
8	0x3e22cb62	0.15897897
9	0xbe57cbe2	-0.21073869
10	0xbcc84ec5	-0.024451623
11	0x3d529530	0.051411808
12	0x3eac3c79	0.33639887
13	0x3d3ab6fc	0.045584664
14	0x3e60451c	0.21901363
15	0xbec80577	-0.3906667
16	0xbe0ab835	-0.13546832
17	0xbedf492c	-0.43610513
18	0xbc5c1ede	-0.013435094
19	0x3cc13616	0.02358536
20	0xbe8c6381	-0.27419665
21	0x3e67e1ab	0.22644679
22	0xbe750fba	-0.2393178
23	0xbea7b616	-0.32756108
24	0x3eaa8263	0.33302602
25	0x3e9e9370	0.3097186
26	0x3e49e2cb	0.19715421
27	0x3eb809cf	0.35944983
28	0x3e95c428	0.29251218
29	0x3dec7e15	0.11547486
30	0x3edea8be	0.43488115
31	0xbdc718ab	-0.09721502
32	0xbec54603	-0.38529977
33	0xbe8fab74	-0.28060496
34	0xbe1a8053	-0.15088014
35	0xbe096bb5	-0.13419993
36	0xbd95159a	-0.07279511
37	0x3ead1745	0.33806816
38	0xbc8277bf	-0.01592624
39	0xbebea389	-0.37234142
40	0x3ce841c7	0.028351678
41	0x3db7f3bd	0.08982036
42	0x3ea00c61	0.31259444
43	0x3cd64df7	0.026160223
44	0xbd5ab580	-0.05339575
45	0xbe664b1d	-0.22489591
46	0x3dae0f66	0.08499031
47	0x39452610	0.00018801563
48	0xbea6d32f	-0.32582995
49	0x3ecf7c8e	0.40524715
50	0x3e0e7fa7	0.13915883
51	0xbda6ab54	-0.08138147
52	0xbc956693	-0.018237388
53	0xbd95455a	-0.072886184
54	0x3ec8cf13	0.39220485
55	0xbe86f3a0	-0.26357746
56	0xbda6abda	-0.08138247
57	0x3e821d03	0.2541276
58	0xbe43cdb9	-0.19121446
59	0x3d47a9f6	0.04874607
60	0xbe44ae34	-0.19207078
61	0x3e69baac	0.22825116
62	0x3e6b4c39	0.22978295
63	0xbe90d1e1	-0.28285125

layers.layer_1.bias f4 [8]
0	0xbdf0eaac	-0.1176351
1	0x3bbd12a4	0.0057700444
2	0x3de50124	0.11181858
3	0xbd0e7dac	-0.03478782
4	0xbe588030	-0.2114265
5	0xbe91d84d	-0.28485337
6	0x3e9b71ff	0.3036041
7	0xbe863e57	-0.26219437

layers.layer_2.weight f4 [16, 8]
0	0xbe825d46	-0.25461787
1	0x3dd9e54d	0.10639439
2	0x3ea588fd	0.32331076
3	0xbde8db75	-0.11369983
4	0x3e3b51ac	0.18292874
5	0x3da41ba8	0.080130875
6	0xbd9546df	-0.07288908
7	0xbd3006eb	-0.042975347
8	0x3d97297e	0.07380961
9	0x3e88e1c8	0.26734757
10	0x3e9f77a7	0.31145975
11	0xbe9d9ccd	-0.30783692
12	0xbe611fd7	-0.21984802
13	0xbed05d91	-0.40696386
14	0xbd95acbe	-0.073083386
15	0xbdb039d5	-0.086047806
16	0xbeb272f9	-0.34853342
17	0xbe2d465e	-0.16921374
18	0x3f0a2c80	0.5397415
19	0x3dfe10e7	0.124055676
20	0x3db707dd	0.08937047
21	0xbe1ce92c	-0.15323323
22	0x3ce9de71	0.028548451
23	0x3d1b9bd0	0.03799039
24	0xbf0b5d52	-0.5443927
25	0x3cfd007b	0.030884018
26	0x3ef9bb33	0.48775634
27	0xbede43f0	-0.43411207
28	0x3c8e0fdb	0.017341545
29	0x3da9635f	0.08270907
30	0xbeb95c91	-0.36203435
31	0xbe69111d	-0.22760434
32	0xbc1ae035	-0.009452869
33	0xbe202948	-0.15640748
34	0x3ee5e2a1	0.44899467
35	0xbe486474	-0.1956957
36	0x3e83212c	0.25611246
37	0xbec5646a	-0.38553172
38	0xbdd28126	-0.10278539
39	0x3eca76fd	0.39543906
40	0x3cb8b2d6	0.022546213
41	0xbe10d479	-0.14143552
42	0x3e0c8f81	0.13726617
43	0x3e2e0bc7	0.1699668
44	0xbe806512	-0.2507711
45	0x3e33a98c	0.17545146
46	0xbe19583f	-0.1497507
47	0xbd177ac2	-0.036982305
48	0x3e9c2e5a	0.30504113
49	0xbdae8008	-0.08520514
50	0xbe12483b	-0.14285366
51	0x3edc5808	0.43035913
52	0x3dd95aeb	0.10613044
53	0xbe32d35b	-0.17463438
54	0x3d2c7716	0.042105757
55	0x3e90fe6f	0.28319117
56	0x3f007593	0.50179404
57	0x3ec9a808	0.3938601
58	0xbf086710	-0.5328226
59	0x3ed5ba2f	0.4174361
60	0xbe201dbc	-0.15636343
61	0x3d02fa5e	0.03197705
62	0x3f08d3ad	0.5344799
63	0xbb927abe	-0.0044701984
64	0x3f00a812	0.50256455
65	0x3e92e059	0.2868679
66	0xbd33b405	-0.043872852
67	0x3e1509b8	0.14554489
68	0xbed5b365	-0.4173843
69	0xbe8a8634	-0.27055514
70	0xbd5c7bc3	-0.053828966
71	0xbe8a1ae1	-0.26973632
72	0x3c23c6d0	0.009996131
73	0x3d85b3ff	0.06528472
74	0x3cf4558b	0.029825946
75	0xbecac9f0	-0.3960719
76	0x3eddfada	0.43355447
77	0x3e515e29	0.20446075
78	0x3de774fb	0.11301609
79	0x3eceaf86	0.4036829
80	0xbcbba488	-0.022905603
81	0xbe3718c9	-0.17880549
82	0xbeb1b9cd	-0.34712067
83	0x3de1688e	0.1100627
84	0xbecfd9b5	-0.40595785
85	0x3eb6ac9d	0.35678568
86	0x3ba4e6ee	0.005032412
87	0x3db99cd0	0.09063113
88	0xbebbb108	-0.36658502
89	0xbdd514ae	-0.10404335
90	0x3e34c3ed	0.17652865
91	0xbe6624c7	-0.22474967
92	0x3ece0a98	0.40242457
93	0xbe684ccf	-0.2268555
94	0x3dc64a9a	0.09682198
95	0xbe446b5f	-0.19181584
96	0x3e18e750	0.14931989
97	0xbcce3302	-0.025170807
98	0x3c044432	0.0080729
99	0x3ec7748d	0.3895611
100	0x3b91cb70	0.0044493005
101	0x3d0695d6	0.03285774
102	0xbd2ded99	-0.04246292
103	0x3e68201a	0.22668496
104	0x3dd8c54f	0.10584509
105	0x3e951c60	0.2912321
106	0xbea1ae29	-0.31578186
107	0x3edfc761	0.43706802
108	0x3e7c4256	0.2463468
109	0x3e97c742	0.2964421
110	0x3e817ba6	0.2528965
111	0x3d4386b8	0.0477359
112	0xbedb1018	-0.42785716
113	0xbdc782e5	-0.09741763
114	0x3ea5e3a3	0.32400236
115	0xbe965102	-0.2935868
116	0x3e45602b	0.19274966
117	0x3e3ef640	0.18648624
118	0xbedd7417	-0.43252632
119	0xbe5e68cc	-0.21719664
120	0xbee1988d	-0.440617
121	0xbe5ff128	-0.21869338
122	0x3df92dcc	0.12166938
123	0xbdd98ac7	-0.10622173
124	0x3bc8b34f	0.006124891
125	0xbe844811	-0.25836232
126	0xbe0a2b27	-0.13493024
127	0x3e83d5ab	0.25748953

layers.layer_2.bias f4 [16]
0	0xbdf1f802	-0.11814882
1	0x3ead61d7	0.33863708
2	0x3d8fa927	0.07014685
3	0x3e829d48	0.2551062
4	0xbe279087	-0.16363727
5	0xbed16b1d	-0.40902033
6	0x3daf8c4e	0.08571683
7	0xbe267232	-0.162545
8	0xbe560432	-0.20900038
9	0x3e345857	0.17611824
10	0x3e0a2f55	0.13494618
11	0xbe5afec2	-0.21386245
12	0x3e39931a	0.18122521
13	0xbd221a43	-0.039575826
14	0x3e4afd71	0.19823243
15	0xbdc3f6a7	-0.095685296

layers.layer_3.weight f4 [1, 16]
0	0xbed2283b	-0.41046318
1	0xbe9697a2	-0.29412562
2	0xbe8941ec	-0.26808107
3	0xbee8df37	-0.454828
4	0xbe3f558f	-0.18684982
5	0xbd813f49	-0.06310899
6	0x3e3cc762	0.18435434
7	0x3e9e489c	0.30914772
8	0x3e099b18	0.1343807
9	0xbea467e9	-0.32110527
10	0x3e6f3b36	0.23362431
11	0xbe967ae9	-0.29390648
12	0x3e87298e	0.2639889
13	0x3ec833d8	0.39102054
14	0xbec7e450	-0.39041376
15	0xbe5ab5b4	-0.21358377
