Results/Laplace_EXP/Models/Laplace_EXP_PINN_step_2700.pth (torch, 4644 bytes, 7 tensors)

layers.layer_0.weight f4 [8, 2]
-0.6642049 -0.108343385 -0.378547 -0.146998 -0.62447 0.0014597147 -0.6427439 -0.19700478
0.32570586 -0.16363543 0.4005069 0.12235998 0.5166127 0.6841616 -0.37069297 0.019532884
00000000: 5509 2abf 23e3 ddbd ead0 c1be a586 16be
00000010: 44dd 1fbf e653 bf3a dd8a 24bf 9fbb 49be
00000020: ebc2 a63e 0c90 27be 3e0f cd3e df97 fa3d
00000030: bb40 043f 3725 2f3f 78cb bdbe 6d03 a03c

layers.layer_0.bias f4 [8]
-0.36738822 0.23774026 -0.44777068 0.32705498 0.015426818 -0.3509366 -0.27667013 0.24498175
00000000: 4f1a bcbe 2f72 733e 3342 e5be c073 a73e
00000010: c4c0 7c3c f6ad b3be b5a7 8dbe 7fdc 7a3e

layers.layer_1.weight f4 [8, 8]
0.404215 0.30387267 -0.0106280055 0.078400664 0.2562612 -0.35639054 0.3077874 -0.09424923
0.15492827 -0.21527393 -0.02518712 0.045348905 0.2991455 0.050715327 0.23295462 -0.3935349
-0.11479566 -0.43500116 -0.0069530886 0.036394328 -0.1313811 0.22497027 -0.14097027 -0.35592267
0.32366234 0.29477376 0.20912078 0.340591 0.14526388 0.12813595 0.34867454 -0.055424374
-0.31197765 -0.25361258 -0.07910442 -0.09636238 0.035830267 0.3203286 -0.013235257 -0.3543356
-0.014624439 0.05225232 0.28378478 -0.019929057 -0.18809406 -0.18883675 0.034242827 0.003311511
-0.30460444 0.3935372 0.20444976 -0.112995766 -0.17383105 -0.045293946 0.26339063 -0.24836755
-0.0857272 0.23062909 -0.18768692 0.028433828 -0.2928251 0.25234896 0.1763266 -0.27379444
00000000: 45f5 ce3e 3395 9b3e 1621 2ebc 8790 a03d
00000010: ab34 833e d278 b6be 4f96 9d3e be05 c1bd
00000020: 84a5 1e3e c570 5cbe 3855 cebc c6bf 393d
00000030: 9929 993e e0ba 4f3d a88b 6e3e 687d c9be
00000040: fd19 ebbd 79b8 debe bcd6 e3bb 3812 153d
00000050: c488 06be 9b5e 663e 835a 10be 7f3b b6be
00000060: 12b7 a53e 96ec 963e c223 563e f261 ae3e
00000070: 0ec0 143e 1236 033e 7885 b23e ab04 63bd
00000080: 89bb 9fbe 82d9 81be 8001 a2bd a459 c5bd
00000090: c2c2 123d 1c02 a43e b1d8 58bc 7a6b b5be
000000a0: 589b 6fbc 8706 563d 3d4c 913e 4342 a3bc
000000b0: bb9b 40be 6c5e 41be 3542 0c3d ef05 593b
000000c0: 1df5 9bbe b57d c93e 475b 513e 536a e7bd
000000d0: c400 32be 2586 39bd 23db 863e 1054 7ebe
000000e0: be91 afbd 082a 6c3e 0031 40be 0fee e83c
000000f0: 2ced 95be e233 813e f68e 343e c92e 8cbe

layers.layer_1.bias f4 [8]
-0.19176808 -0.014851872 0.039034083 -0.00989096 -0.28484136 -0.20024529 0.19387893 -0.28842854
00000000: da5e 44be 4455 73bc 34e2 1f3d b10d 22bc
00000010: bad6 91be 1a0d 4dbe 3388 463e e8ac 93be

layers.layer_2.weight f4 [16, 8]
-0.17406717 0.19299608 0.27473238 -0.059271395 0.16994286 0.09146671 -0.040287558 -0.050383955
0.15529561 0.33903563 0.2572941 -0.25117236 -0.2450203 -0.40445504 -0.025363915 -0.096640766
-0.23357038 -0.055562366 0.4527828 0.21670176 0.046705455 -0.16758344 0.11943432 0.020788398
-0.4512482 0.117409974 0.42566806 -0.37248185 -0.012685508 0.033379555 -0.30222183 -0.25712872
0.10827844 -0.032817982 0.3585161 -0.09456153 0.20977543 -0.33180562 -0.0774849 0.33501804
0.07542911 -0.10067477 0.10979558 0.20058393 -0.26273522 0.17401522 -0.11718851 -0.038322892
0.17648365 -0.21682498 -0.041437127 0.32937518 0.15322834 -0.17174788 -0.02793441 0.31115493
0.36374214 0.2422659 -0.4106976 0.29420874 -0.07547673 0.13599804 0.41647658 0.09676678
0.39110962 0.1763434 0.035070296 0.058557633 -0.3862363 -0.23889683 -0.15278457 -0.27149135
0.07840654 0.12142599 -0.016771821 -0.34671548 0.40914667 0.22376277 0.1476379 0.39358515
-0.098388195 -0.24346454 -0.29676694 0.058146853 -0.38228217 0.32691774 0.009357174 0.11781649
-0.28578165 -0.015151615 0.12778413 -0.17064473 0.39228567 -0.21446198 0.11652386 -0.2022416
0.06082725 -0.115927495 0.064916365 0.32915744 0.024458265 0.033195663 -0.08623066 0.23805831
0.015970804 0.20817828 -0.25106338 0.37387896 0.28023762 0.3049221 0.20430979 0.07848608
-0.31404102 0.016633078 0.23619597 -0.20496517 0.1458191 0.14843717 -0.35485435 -0.26440638
-0.28151155 -0.05179104 -0.022036958 0.037658814 -0.08162041 -0.2180308 -0.025352776 0.21529692
00000000: aa3e 32be c4a0 453e b9a9 8c3e 90c6 72bd
00000010: 8005 2e3e e652 bb3d 9104 25bd 685f 4ebd
00000020: d005 1f3e 1496 ad3e 0dbc 833e aa99 80be
00000030: 9ae6 7abe bb14 cfbe fcc7 cfbc 98eb c5bd
00000040: 132d 6fbe 5d95 63bd 26d3 e73e 11e7 5d3e
00000050: 384e 3f3d fe9a 2bbe fb99 f43d 6e4c aa3c
00000060: 010a e7be a474 f03d 2af1 d93e f1b5 bebe
00000070: e0d6 4fbc 00b9 083d d2bc 9abe 60a6 83be
00000080: 16c1 dd3d 266c 06bd 6c8f b73e 7aa9 c1bd
00000090: 5fcf 563e 6de2 a9be 67b0 9ebd 7c87 ab3e
000000a0: 947a 9a3d 932e cebd 81dc e03d e065 4d3e
000000b0: 3b85 86be 0c31 323e 8800 f0bd 77f8 1cbd
000000c0: 21b8 343e 5e07 5ebe fab9 29bd dda3 a83e
000000d0: e4e7 1c3e adde 2fbe b4d6 e4bc b34f 9f3e
000000e0: 693c ba3e 8d14 783e f546 d2be 87a2 963e
000000f0: 8b93 9abd 1243 0b3e 6b3c d53e a92d c63d
00000100: 853f c83e 5d93 343e dfa5 0f3d 21da 6f3d
00000110: c4c0 c5be 5fa1 74be 8f73 1cbe ea00 8bbe
00000120: 9c93 a03d 30ae f83d 0f65 89bc b184 b1be
00000130: ac7b d13e 1122 653e 642e 173e fe83 c93e
00000140: c07f c9bd c54e 79be d6f1 97be 652b 6e3d
00000150: 7dba c3be c361 a73e d54e 193c c649 f13d
00000160: f951 92be 7b3e 78bc d8d9 023e 7ebd 2ebe
00000170: abd9 c83e ec9b 5bbe 10a4 ee3d 6c18 4fbe
00000180: ff25 793d 656b edbd dff2 843d 5387 a83e
00000190: b35c c83c 2df8 073d b399 b0bd 8fc5 733e
000001a0: 34d5 823c b02c 553e 618b 80be 106d bf3e
000001b0: 4e7b 8f3e c01e 9c3e 9636 513e 4fbd a03d
000001c0: fcc9 a0be 1842 883c 5bdd 713e 64e2 51be
000001d0: 9a51 153e eaff 173e 78af b5be 4660 87be
000001e0: 4822 90be d722 54bd da86 b4bc 2140 1a3d
000001f0: 9a28 a7bd 7743 5fbe a0b0 cfbc cc76 5c3e

layers.layer_2.bias f4 [16]
-0.17678128 0.32330048 0.06266591 0.31270182 -0.2792903 -0.40287584 0.12951435 -0.25421166
-0.24035366 0.1689087 0.18661232 -0.27214074 0.22460547 -0.06933212 0.24186598 -0.21198
00000000: 2706 35be a487 a53e fc56 803d 741a a03e
00000010: 23ff 8ebe be45 cebe 699f 043e 0828 82be
00000020: 451f 76be 67f6 2c3e 4d17 3f3e 0856 8bbe
00000030: fafe 653e 00fe 8dbd b7ab 773e 4911 59be

layers.layer_3.weight f4 [1, 16]
-0.34796435 -0.23303424 -0.15524176 -0.3711519 -0.11376171 -0.07417334 0.07312723 0.19132042
0.07787806 -0.2975212 0.21133456 -0.24275316 0.1838161 0.28640404 -0.2802329 -0.06048779
00000000: 6228 b2be 87a0 6ebe b2f7 1ebe 9f07 bebe
00000010: e6fb e8bd 31e8 97bd bbc3 953d 80e9 433e
00000020: 887e 9f3d b354 98be 1668 583e 4994 78be
00000030: 4a3a 3c3e 8da3 923e b07a 8fbe 0bc2 77bd
