Results/Laplace_EXP/Models/Laplace_EXP_PINN_step_2000.pth (torch, 4644 bytes, 7 tensors)

layers.layer_0.weight f4 [8, 2]
000000 48 15 30 bf 9b 1e 6c bd 78 f0 c4 be 5b ce 92 bd
       -0.6878247 -0.057646375 -0.38464713 -0.071682654
000010 53 6e 26 bf 6f 5c 85 3d 95 90 27 bf 27 78 c3 bd
       -0.6501209 0.06511771 -0.6545499 -0.095444016
000020 b6 de a0 3e f8 65 ac bd 73 a3 cc 3e 73 66 33 3c
       0.31419915 -0.084178865 0.39968452 0.010949719
000030 5b f2 c2 3e 45 14 0a 3f 32 3a bc be f6 cc 74 3d
       0.38075528 0.5393718 -0.3676315 0.05976578

layers.layer_0.bias f4 [8]
000000 6f cf c7 be 35 16 4e 3e d0 4b e0 be e5 76 8e 3e
       -0.39025447 0.20125659 -0.4380784 0.27825084
000010 7a a8 96 3d 6e 19 a4 be 26 6b de be 6a 9f 5d 3e
       0.07356353 -0.3205065 -0.43441123 0.21642843

layers.layer_1.weight f4 [8, 8]
000000 32 35 cd 3e a3 e5 81 3e 5b 1b 6c 3c d9 71 3b 3d
       0.40079647 0.2537051 0.014410819 0.04576287
000010 79 2c 26 3e 9a e2 a2 be da 86 4b 3e ef ed 93 bd
       0.16227902 -0.31813508 0.1987566 -0.072231166
000020 81 0e 1b 3e 93 78 4e be 00 81 f7 bc a1 9b 5a 3d
       0.15142252 -0.20163183 -0.03021288 0.053371076
000030 da 81 9b 3e 9c 62 05 3d f6 bf 97 3e 38 3d c2 be
       0.30372506 0.032564744 0.29638642 -0.3793733
000040 60 21 ea bd 3f b1 d6 be 88 c3 46 bc d0 a1 35 3d
       -0.11432147 -0.41932103 -0.012131579 0.04434377
000050 bd 87 cd bd 65 9c 58 3e ac 04 7e bd f6 92 b8 be
       -0.10035656 0.2115341 -0.062016174 -0.36049622
000060 02 1e a5 3e 1e 0d 8e 3e 2d 0f 5e 3e 37 50 a9 3e
       0.32249457 0.27744383 0.21685477 0.33069012
000070 85 59 ce 3d 2e 49 0e 3e de 20 93 3e 30 3f 22 bd
       0.10075668 0.13895103 0.28736013 -0.03961104
000080 55 2c a0 be 22 73 74 be 02 9a a1 bd 1b 04 c1 bd
       -0.31283823 -0.23872045 -0.07890703 -0.09424611
000090 17 53 2e 3d 59 9d 96 3e ab 9f d8 3d 89 4a ad be
       0.04255971 0.29416922 0.10577329 -0.33845928
0000a0 a2 39 92 bc f1 db e1 3c 13 24 94 3e 84 70 0c bd
       -0.017849747 0.027570697 0.28933772 -0.03428699
0000b0 8f 13 69 be 29 5c 2b be 52 74 43 bd 71 34 d4 3b
       -0.22761367 -0.16734375 -0.047718354 0.006475978
0000c0 f7 14 98 be 35 3e bf 3e 51 ce 68 3e 61 09 f9 bd
       -0.29703495 0.37352148 0.22734953 -0.12159992
0000d0 70 b2 79 be 36 a9 05 bd 37 e1 36 3e 4f 3d 66 be
       -0.24384475 -0.032632075 0.1785935 -0.22484325
0000e0 e8 d4 b5 bd a4 88 56 3e 3d 7c 40 be 13 c7 5b 3c
       -0.08878499 0.20950562 -0.18797393 0.013414162
0000f0 76 0c 9d be cd d2 8a 3e 65 eb 1d 3e a7 ee 8d be
       -0.3067357 0.27113953 0.15421827 -0.2772114

layers.layer_1.bias f4 [8]
000000 cb d4 3a be b5 cc 1d 3d 6d 1a 01 3d 11 ed 9a 3c
       -0.18245237 0.038525302 0.031519342 0.01891187
000010 c0 ff 8a be fd 40 4a be c2 b5 3e 3e a1 96 96 be
       -0.27148247 -0.19751354 0.18624023 -0.29411796

layers.layer_2.weight f4 [16, 8]
000000 4f 35 15 be a5 fb 5d 3e d5 10 84 3e b9 ce 29 bd
       -0.14571117 0.21678026 0.25794092 -0.04145691
000010 03 de 27 3e 71 e7 bc 3d f1 a4 84 bc ba 0a 41 bd
       0.16393284 0.092238314 -0.016191931 -0.04712937
000020 3e 0d 41 3e 80 3c c3 3e 89 96 77 3e 9b 62 6a be
       0.18852708 0.38132095 0.24178518 -0.22889178
000030 76 2f 7d be dd 43 d2 be 47 ae 36 3c 5d 37 b0 bd
       -0.24725136 -0.410674 0.011149949 -0.0860431
000040 6b 7c 3d be d8 2a 94 ba 16 01 da 3e ee 4a 80 3e
       -0.18504493 -0.0011304272 0.42578954 0.25057167
000050 5a 22 1f 3d fa ad 34 be e5 09 38 3e ff 1d 04 3d
       0.03885112 -0.17644492 0.17972524 0.03225517
000060 3c 84 d4 be 3e 8d 17 3e cf 97 d0 3e de 18 b3 be
       -0.41507137 0.14799973 0.4074082 -0.3497991
000070 fd 07 ac bc c8 af 92 3c 8b 08 8c be 6c 1d 83 be
       -0.020999903 0.017906085 -0.27350268 -0.25608385
000080 f2 64 20 3e 46 00 a7 bc 4c 28 a4 3e 0f f4 76 bd
       0.15663508 -0.020385873 0.32061994 -0.060291346
000090 12 35 3e 3e a8 e0 a5 be 65 20 f6 bc b2 27 a5 3e
       0.18574932 -0.32397962 -0.030044744 0.32256848
0000a0 5e 99 c9 3d c7 a1 90 bd 9f d6 cd 3d 92 94 5b 3e
       0.098437056 -0.070621066 0.10050701 0.21443394
0000b0 bd 3e 87 be 03 f6 26 3e 62 92 bf bd 3e f2 09 bd
       -0.26415053 0.16304784 -0.09354092 -0.033678286
0000c0 c0 73 12 3e 85 47 81 be 0f 62 b6 bc cd 07 9e 3e
       0.14301968 -0.25249878 -0.022263555 0.30865327
0000d0 10 81 22 3e 20 b3 2c be 39 94 50 bd 9b fd 9c 3e
       0.15869546 -0.16865206 -0.050922606 0.30662236
0000e0 9e f9 90 3e 11 1f 33 3e 5f 2b b6 be cd 89 6d 3e
       0.28315443 0.1749232 -0.35579965 0.23197098
0000f0 46 18 29 bd c4 b3 2b 3e 90 a7 a3 3e 61 89 d3 3d
       -0.041282915 0.16767794 0.31963778 0.10328937
000100 b1 06 af 3e b6 f1 ec 3d 32 bb 73 3d 47 d8 c9 3c
       0.34184793 0.1156954 0.059504695 0.024639262
000110 ff 82 c3 be 74 60 69 be 70 ed 63 be 13 55 93 be
       -0.3818588 -0.227907 -0.22258544 -0.28775844
000120 fb 41 d3 3d 39 4c 1b 3e be e9 06 bd 51 73 a8 be
       0.10315319 0.15165795 -0.032937758 -0.3290048
000130 99 bb ce 3e bf 03 5f 3e 97 f3 3a 3e eb 9a cb 3e
       0.403775 0.21778773 0.18256985 0.3976663
000140 9f 52 fb bd 79 f6 83 be 4e a7 8e be a3 18 2e 3d
       -0.12271618 -0.2577398 -0.27862018 0.042503964
000150 3b 08 bf be da c5 a8 3e 2f cc 64 bc fb 69 f9 3d
       -0.37310967 0.3296345 -0.013964697 0.12178417
000160 70 0b 84 be 84 63 6a 3c 4b 26 e8 3d ea 78 1d be
       -0.25789976 0.014305953 0.11335429 -0.15378156
000170 e6 34 c7 3e 49 14 5c be 0e 47 0c 3e 4f a5 48 be
       0.38907546 -0.21492113 0.1369898 -0.1959431
000180 cf b3 f4 3c 4b ca 16 be a4 26 a7 3d 40 97 9e 3e
       0.029870896 -0.14725606 0.08161667 0.3097477
000190 2e 43 f0 3c bf b6 10 3d 19 25 e5 bd b0 77 6e 3e
       0.029328909 0.03533053 -0.111887164 0.23287845
0001a0 6f 01 4c bc b4 a8 45 3e 0b cd 6c be ca f5 b5 3e
       -0.012451514 0.19302636 -0.23125093 0.35539085
0001b0 07 08 95 3e f5 2b 9e 3e 8f 9a 39 3e e7 41 a7 3d
       0.29107687 0.30892912 0.18125366 0.08166867
0001c0 80 1f 88 be 0e bb 6e 3d 13 17 55 3e 37 19 31 be
       -0.26586533 0.058283858 0.20809583 -0.17294775
0001d0 6b 3c 08 3e eb c2 0a 3e ab d4 9e be c6 b5 86 be
       0.13304298 0.13550918 -0.31021628 -0.26310557
0001e0 72 ac 62 be 5a 87 69 3c bf 61 7f bd d0 e6 a2 3d
       -0.22136095 0.014253462 -0.062349077 0.0795418
0001f0 a7 5a c2 bd 03 66 60 be 21 74 8e 3c 2a 8e 65 3e
       -0.09489947 -0.21913914 0.017389359 0.22417513

layers.layer_2.bias f4 [16]
000000 a6 8a 3e be 73 7f a2 3e c1 e8 87 3d 8f 78 a4 3e
       -0.18607578 0.3173786 0.06636191 0.3212323
000010 c6 42 90 be 88 60 cc be 32 88 0a 3e bd 9b 97 be
       -0.28175944 -0.39917397 0.13528517 -0.29611006
000020 58 5d 7b be 1f 8d 3c 3e 7b 94 31 3e e9 d8 92 be
       -0.24547327 0.18413208 0.17341797 -0.28681114
000030 e5 7c 71 3e 57 40 a5 bd 98 58 81 3e f1 c9 64 be
       0.235828 -0.080689125 0.25262904 -0.2234266

layers.layer_3.weight f4 [1, 16]
000000 04 e6 a8 be 50 06 7f be 06 74 08 be 06 3a ab be
       -0.32987988 -0.24904752 -0.1332551 -0.33442706
000010 d9 42 cc bd ec f0 9f bd 19 87 d8 3c 52 64 00 3e
       -0.09973688 -0.07809624 0.026431607 0.12538269
000020 6b 4f 88 3d 3b 43 97 be 0b 08 53 3e cc ef 69 be
       0.06655773 -0.2954348 0.20608537 -0.22845381
000030 e9 aa 25 3e 4a 75 72 3e 89 8f 5c be 75 a5 fb bc
       0.16178478 0.23677555 -0.2153913 -0.030718544
