Results/Laplace_EXP/Models/Laplace_EXP_PINN_step_2500.pth (torch, 4644 bytes, 7 tensors)

layers.layer_0.weight f4 [8, 2]
0	0xbf2b6595	-0.66951877
1	0xbdbbc29d	-0.09167979
2	0xbec39693	-0.38200817
3	0xbdee5794	-0.11637798
4	0xbf21d1e6	-0.63210905
5	0x3cb27b83	0.02178741
6	0xbf25610e	-0.6460122
7	0xbe217157	-0.15765892
8	0x3ea3a5ad	0.31962338
9	0xbde213dc	-0.11038944
10	0x3ecd5453	0.40103397
11	0x3da5a123	0.08087375
12	0x3ef0af3b	0.4700869
13	0x3f248653	0.6426746
14	0xbebc6ead	-0.3680319
15	0x3d0eb5f7	0.034841504

layers.layer_0.bias f4 [8]
0	0xbec6acf4	-0.38803828
1	0x3e6386c1	0.22219373
2	0xbee653e8	-0.4498589
3	0x3e9b0fd8	0.30285525
4	0x3cedb87b	0.029018631
5	0xbeaf8af1	-0.3428569
6	0xbea69c14	-0.32540953
7	0x3e7b3459	0.24531688

layers.layer_1.weight f4 [8, 8]
0	0x3ed02492	0.406529
1	0x3e9122e5	0.28346935
2	0x3b6d3020	0.0036192015
3	0x3d83b611	0.06431211
4	0x3e57d475	0.2107714
5	0xbeacc803	-0.33746347
6	0x3e8a5ad8	0.27022433
7	0xbdb00bd7	-0.08596008
8	0x3e1f03fd	0.15528865
9	0xbe57d199	-0.21076049
10	0xbccf831c	-0.025331073
11	0x3d45e7ec	0.04831688
12	0x3e9af3e2	0.30264193
13	0x3d3a837c	0.04553555
14	0x3e80a677	0.25127003
15	0xbec7a9c5	-0.3899671
16	0xbde9e4f4	-0.114206225
17	0xbedb7d31	-0.4286895
18	0xbc08ee7a	-0.0083576385
19	0x3d236f89	0.03990129
20	0xbde8bfef	-0.113647334
21	0x3e609714	0.21932632
22	0xbde3bcaf	-0.11119973
23	0xbeb786c1	-0.35844997
24	0x3ea5b13b	0.3236178
25	0x3e92ea48	0.28694367
26	0x3e5996dd	0.21248956
27	0x3eabebbe	0.33578295
28	0x3df9d993	0.12199702
29	0x3e09c207	0.13452922
30	0x3ea62be5	0.32455364
31	0xbd4ccb3b	-0.049998503
32	0xbe9e672e	-0.30938095
33	0xbe7d5b6b	-0.24741904
34	0xbd9c118c	-0.07620534
35	0xbdc20401	-0.0947342
36	0x3d2abf6e	0.041686468
37	0x3ea0481a	0.3130501
38	0x3ccd9f38	0.025100335
39	0xbeb42db1	-0.3519111
40	0xbc89a131	-0.016800495
41	0x3d2c4ee2	0.042067416
42	0x3e91d9c1	0.28486446
43	0xbcdb039e	-0.026735123
44	0xbe577c19	-0.21043433
45	0xbe383242	-0.17987922
46	0x3c30e28f	0.010796203
47	0x3bb58035	0.005538965
48	0xbe983dfb	-0.29734787
49	0x3ec5d830	0.386415
50	0x3e5fd056	0.21856818
51	0xbdebf540	-0.11521387
52	0xbe58ad2a	-0.21159807
53	0xbd205bb0	-0.03914994
54	0x3e64e41e	0.22352645
55	0xbe73365d	-0.23751207
56	0xbdb0af7d	-0.08627222
57	0x3e63aa94	0.22233039
58	0xbe3f9b9f	-0.18711708
59	0x3cb832f6	0.022485238
60	0xbe9ad412	-0.30239922
61	0x3e855572	0.26041752
62	0x3e27b2ee	0.1637685
63	0xbe8ca1c7	-0.27467176

layers.layer_1.bias f4 [8]
0	0xbe4bb978	-0.1989497
1	0xbbacf2bd	-0.00527796
2	0x3d032e06	0.032026313
3	0xbb832f6d	-0.0040034563
4	0xbe920864	-0.28522027
5	0xbe45d785	-0.19320495
6	0x3e3c568e	0.18392393
7	0xbe9572b9	-0.2918909

layers.layer_2.weight f4 [16, 8]
0	0xbe24daf7	-0.16099153
1	0x3e528b90	0.20561051
2	0x3e8915b5	0.26774374
3	0xbd5196df	-0.051169273
4	0x3e2c1b59	0.16807307
5	0x3dbd7656	0.092510864
6	0xbcf632ac	-0.03005346
7	0xbd45c739	-0.048285697
8	0x3e2d45dd	0.16921182
9	0x3eb5412b	0.35401282
10	0x3e8034b7	0.25040218
11	0xbe77fc71	-0.24217393
12	0xbe7c72fd	-0.2465324
13	0xbecfb5be	-0.40568346
14	0xbc407456	-0.011746487
15	0xbdbe2fd0	-0.09286463
16	0xbe595e9e	-0.212275
17	0xbd073a85	-0.033014793
18	0x3ee1c881	0.44098285
19	0x3e6cf9c9	0.2314216
20	0x3d32001a	0.043457128
21	0xbe2d96b6	-0.16952023
22	0x3e129ab6	0.1431683
23	0x3cd700e2	0.026245538
24	0xbedf3630	-0.4359603
25	0x3e042eb0	0.12908435
26	0x3ed597ae	0.41717285
27	0xbeba0b18	-0.3633659
28	0xbc882ae2	-0.01662201
29	0x3cd695db	0.026194504
30	0xbe948ce9	-0.29013756
31	0xbe83e787	-0.2576258
32	0x3e05cafa	0.1306571
33	0xbc9a41c5	-0.01883019
34	0x3eafd2f8	0.34340644
35	0xbda09a5a	-0.0784194
36	0x3e4ef44e	0.20210382
37	0xbea7b5be	-0.32755846
38	0xbd69bd72	-0.057065435
39	0x3eaa699c	0.332837
40	0x3dae5218	0.08511752
41	0xbdb7c966	-0.089739606
42	0x3dd896f1	0.10575665
43	0x3e5319c5	0.20615299
44	0xbe86edc7	-0.26353285
45	0x3e2f521a	0.17121163
46	0xbddcdf7f	-0.10784816
47	0xbd15783a	-0.03649161
48	0x3e2226c2	0.15835097
49	0xbe723cb1	-0.23655964
50	0xbd000873	-0.031258058
51	0x3ea2f96b	0.31830916
52	0x3e1f9aed	0.15586443
53	0xbe2e71e7	-0.17035638
54	0xbd245ac6	-0.04012563
55	0x3e9e0836	0.3086564
56	0x3ea9aa50	0.3313775
57	0x3e598b2a	0.21244493
58	0xbec5b6d3	-0.38616046
59	0x3e89f304	0.2694322
60	0xbd77efb6	-0.06053134
61	0x3e1ec88e	0.15506193
62	0x3ec2c4db	0.38040814
63	0x3dd1da46	0.102467105
64	0x3ebd6bce	0.3699631
65	0x3e1c3727	0.15255414
66	0x3d3b6005	0.04574587
67	0x3d34b533	0.044118118
68	0xbec4c777	-0.3843343
69	0xbe717d88	-0.23583043
70	0xbe382d73	-0.17986088
71	0xbe8ed368	-0.27895665
72	0x3db8051c	0.089853495
73	0x3e095e90	0.13414979
74	0xbcc1da26	-0.023663592
75	0xbead7a22	-0.33882242
76	0x3ed064ee	0.40702003
77	0x3e6468fd	0.22305675
78	0x3e25879d	0.16165014
79	0x3ecac606	0.39604205
80	0xbde223ff	-0.11042022
81	0xbe8110f0	-0.25208235
82	0xbe940d9a	-0.28916627
83	0x3d4f5967	0.05062237
84	0xbec220e8	-0.3791573
85	0x3ea6f351	0.3260751
86	0x39e4d4e6	0.0004364617
87	0x3df27f4c	0.11840686
88	0xbe8b8338	-0.2724855
89	0xba526835	-0.00080263923
90	0x3df85bd7	0.12126892
91	0xbe267c77	-0.16258417
92	0x3ec855a7	0.39127848
93	0xbe5a99cb	-0.2134773
94	0x3e005e40	0.12535954
95	0xbe4bf99b	-0.19919436
96	0x3d402cce	0.04691773
97	0xbe059cf8	-0.1304816
98	0x3d93c020	0.07214379
99	0x3ea4288f	0.32062194
100	0x3cd7403d	0.026275748
101	0x3d0a3eaf	0.033751186
102	0xbdc74411	-0.097297795
103	0x3e715362	0.23566964
104	0x3b5161fb	0.003194927
105	0x3e4bce15	0.19902833
106	0xbe78669e	-0.24257895
107	0x3ebb5a1e	0.3659219
108	0x3e9194ab	0.28433737
109	0x3e9d7dd1	0.30760053
110	0x3e4673a4	0.19380051
111	0x3da2ed45	0.07955412
112	0xbe95f041	-0.29284862
113	0x3d11fb81	0.035640243
114	0x3e64cfa7	0.22344838
115	0xbe43d524	-0.19124275
116	0x3e0fbf2f	0.14037775
117	0x3e119358	0.14216363
118	0xbeabdc3e	-0.3356647
119	0xbe8752a1	-0.26430228
120	0xbe812fd8	-0.25231814
121	0xbc994c0a	-0.018713016
122	0xbd296908	-0.04135993
123	0x3d6ecdfb	0.058301907
124	0xbdb2c2d2	-0.08728565
125	0xbe5e6f9f	-0.21722268
126	0xbb9760c6	-0.0046196906
127	0x3e61bf1c	0.22045559

layers.layer_2.bias f4 [16]
0	0xbe3c1914	-0.18368942
1	0x3ea3a4e3	0.31961736
2	0x3d6e3c9e	0.058163278
3	0x3ea3249c	0.31863868
4	0xbe93f4b1	-0.28897622
5	0xbece0a2c	-0.40242136
6	0x3e08c588	0.13356602
7	0xbe8fd50c	-0.2809223
8	0xbe72ea3e	-0.23722169
9	0x3e305352	0.17219284
10	0x3e3f894a	0.18704715
11	0xbe8f8c84	-0.28036892
12	0x3e6c728d	0.23090573
13	0xbd97b0f3	-0.07406797
14	0x3e7c8279	0.24659146
15	0xbe6212bb	-0.22077458

layers.layer_3.weight f4 [1, 16]
0	0xbeae5872	-0.34051853
1	0xbe6ecf44	-0.23321253
2	0xbe12195a	-0.14267483
3	0xbeb60fdb	-0.35558972
4	0xbdddf1db	-0.10837146
5	0xbd9b7288	-0.075902045
6	0x3d588f6d	0.052871156
7	0x3e283890	0.16427827
8	0x3d94419c	0.072390765
9	0xbe97d845	-0.29657188
10	0x3e56b291	0.20966555
11	0xbe722876	-0.23648247
12	0x3e31ea0a	0.17374435
13	0x3e879038	0.26477218
14	0xbe8215b9	-0.25407198
15	0xbd295156	-0.041337334
