Results/Laplace_EXP/Models/Laplace_EXP_PINN_step_200.pth (torch, 4632 bytes, 7 tensors)

layers.layer_0.weight f4 [8, 2]
000000 6d c0 31 bf e2 a9 f4 bd eb 34 b8 be 9d 89 2a be
       -0.69434243 -0.11946465 -0.35977873 -0.16654058
000010 ed 0e 26 bf ec 69 84 3e 13 34 28 bf e6 05 7f bd
       -0.64866525 0.25862062 -0.6570446 -0.062261485
000020 a7 87 87 3e 0a 00 60 be 29 35 c6 3e 95 61 8c 3d
       0.26470682 -0.21875015 0.38712433 0.0685455
000030 c6 aa be 3e 7b 8b f1 3e bc be ad be 49 09 6a 3e
       0.37239665 0.47176728 -0.3393458 0.22855105

layers.layer_0.bias f4 [8]
000000 ad 4f 96 be f9 8e 50 3e 74 d8 b1 be ac dc 9b 3e
       -0.29357663 0.2036704 -0.34735453 0.30441797
000010 25 aa 23 3e 76 f9 93 be 64 64 b7 be e4 80 20 3e
       0.15982874 -0.2890126 -0.3581878 0.15674168

layers.layer_1.weight f4 [8, 8]
000000 cc f5 a8 3e d5 97 35 3e 10 02 14 bd 11 c1 40 bc
       0.33000028 0.177337 -0.03613478 -0.011764781
000010 ba b2 50 3e 95 89 81 be d9 85 d9 3d b2 f2 e6 bd
       0.20380679 -0.2530028 0.106212325 -0.11276759
000020 b4 b1 3b 3e bd df 17 be 7c 16 74 bb f7 7f c7 3d
       0.18329507 -0.14831443 -0.0037244847 0.09741204
000030 6b 59 87 3e 7e 2e f7 bc 27 34 b0 3e 81 ab a4 be
       0.26435408 -0.030173536 0.3441479 -0.32162097
000040 15 3a aa bd 3a 39 bf be 04 5e 18 3c 98 18 a3 3d
       -0.083118595 -0.37348348 0.009299759 0.07963675
000050 49 dc fb bd e3 56 2b 3e 18 64 17 bd 5d 22 a8 be
       -0.122978754 0.16732363 -0.03696069 -0.32838717
000060 4d fa 94 3e 54 42 74 3e cd f0 4a 3e a3 c7 9a 3e
       0.29097214 0.23853427 0.1981842 0.30230436
000070 4d 3e e2 3d 1d e5 2b 3e 9e ea 8b 3e b8 e4 4e bd
       0.11047039 0.16786619 0.27327436 -0.050511092
000080 3e 2c 99 be f4 0a 4b be 79 b1 90 bd d6 da 80 bd
       -0.29916567 -0.19828397 -0.070651 -0.0629174
000090 82 74 ae 3c 02 a0 67 3e 46 f4 0b 3e 83 7d 92 be
       0.02129579 0.22619632 0.13667402 -0.28611383
0000a0 4b 4f a4 bd 9f d4 65 bd 5d 3d 76 3e f1 2c cc bd
       -0.080229364 -0.056110974 0.24046846 -0.099695094
0000b0 8c a1 31 be 80 6d a9 bd 39 5d ea bd 3f b9 78 bd
       -0.17346781 -0.082728386 -0.11443562 -0.06072354
0000c0 46 9d a8 be 85 8c aa 3e 54 75 51 3e 69 2d 19 be
       -0.3293249 0.33310333 0.20454913 -0.14958729
0000d0 77 a0 72 be 59 f2 b2 bb 07 d9 3b 3e 53 6d 71 be
       -0.23694025 -0.005461019 0.18344508 -0.2357686
0000e0 b5 7a ec bd e3 1f 2b 3e b6 1d 57 be 25 a0 a7 bc
       -0.11546842 0.16711383 -0.21007428 -0.020462105
0000f0 a4 cb 91 be 2f 55 9e 3e c4 f4 2f 3e c3 5e 9d be
       -0.28475678 0.30924365 0.17183214 -0.3073636

layers.layer_1.bias f4 [8]
000000 35 4b 35 be 1e e7 11 3e 24 91 12 3d 2f be a0 3d
       -0.1770447 0.1424832 0.035782948 0.07848775
000010 0d 6c 88 be 62 ac 55 be 46 79 23 3e 7d 34 92 be
       -0.26644936 -0.2086654 0.15964231 -0.2855567

layers.layer_2.weight f4 [16, 8]
000000 ff 72 be bd f9 5e 36 3e f5 cd 51 3e 34 c9 c0 3a
       -0.092992775 0.17809667 0.20488723 0.0014708401
000010 b6 56 fc 3d 48 10 0b 3e 20 b8 c0 bc c9 b5 9e bd
       0.12321226 0.1358043 -0.023525298 -0.077495165
000020 22 c0 80 3e 75 0a bc 3e c9 f8 3d 3e dc 4c 33 be
       0.25146586 0.36726728 0.18551935 -0.17509788
000030 d9 95 92 be 5d e9 bc be 66 4a a4 3c da 54 ed bd
       -0.2862995 -0.36896792 0.020055007 -0.1158845
000040 96 35 df bd 4e 88 d4 bc ed c6 b6 3e 12 74 a0 3e
       -0.108988926 -0.025943901 0.35698643 0.31338555
000050 df bc 34 bc 84 be 03 be 5a 33 43 3e 2e 75 fa bb
       -0.0110313585 -0.12865645 0.19062558 -0.0076433634
000060 02 94 b5 be 93 ed 0c 3e 05 3c b8 3e b2 e2 99 be
       -0.35464483 0.13762502 0.3598329 -0.30055767
000070 8b 51 63 bd b5 4c 69 3d 96 8c 8a be ad ea 90 be
       -0.055497687 0.05695792 -0.27060384 -0.28304043
000080 a9 b1 79 3e 20 b3 ce bd 66 95 6a 3e ca 5e 1f 3c
       0.24384178 -0.10092759 0.22908553 0.009727189
000090 b0 f3 dd 3d 59 58 84 be 1b ba 67 bd a2 bf 81 3e
       0.10837495 -0.25848654 -0.05657397 0.25341517
0000a0 0b 03 14 3e 68 8c a5 bd 8a 5e 82 3d bc a3 80 3e
       0.14454286 -0.08083421 0.06365688 0.2512492
0000b0 5f 98 94 be 40 47 51 3e 77 d6 b7 bd 8c 43 5b bd
       -0.290225 0.20437336 -0.08976453 -0.053531215
0000c0 d6 26 1b 3e 6d db 8b be 9d 86 0b bd 9c 88 a3 3e
       0.15151533 -0.27315846 -0.034063924 0.31940162
0000d0 26 7a 15 3e 8f 86 19 be d8 a2 7a bd 33 9d 97 3e
       0.14597377 -0.14992736 -0.061190456 0.2961212
0000e0 ad ba 25 3e b2 38 56 3e 76 e2 83 be 0b 59 06 3e
       0.16184492 0.20920065 -0.25758713 0.13119905
0000f0 63 90 09 3d 12 6f ba 3d 29 1d 9a 3e 7f f6 2a 3e
       0.033584964 0.09103216 0.30100372 0.16695593
000100 c9 fd 87 3e 6a 16 05 3e ae b5 fe 3d af d3 1b bd
       0.2656081 0.12996832 0.124369964 -0.038043674
000110 5b de ab be 30 4a 8c be 12 a5 76 be 8c 9f 80 be
       -0.3356808 -0.2740035 -0.24086407 -0.25121725
000120 9b 70 17 3e 9f 0f 07 3e b4 cb a2 bd 57 4d 94 be
       0.1478905 0.13189553 -0.079490095 -0.28965256
000130 49 cf bc 3e 32 dc 7a 3e e5 2b 3e 3e 97 f4 bc 3e
       0.36876896 0.2449806 0.18571432 0.36905357
000140 c6 12 2d be 01 b0 65 be 0a 21 6a be 2c 87 73 3b
       -0.16901693 -0.22430421 -0.22864166 0.0037159426
000150 4e 8f aa be 7a 7f 9a 3e d0 b7 14 bc 63 6d 20 3e
       -0.33312458 0.30175382 -0.009077027 0.15666728
000160 83 3d 5a be e5 6d 60 bc 4c 52 8b 3d 7b 68 f0 bd
       -0.21312527 -0.013698076 0.06802806 -0.11738678
000170 dd 89 b5 3e cc 51 3b be 0f c7 02 3e cb 14 62 be
       0.35456744 -0.18292922 0.12771247 -0.22078244
000180 ad 7d c3 bc 1c b8 ec bd 2c 2c 07 3e 68 87 88 3e
       -0.023863638 -0.115585536 0.13200444 0.26665807
000190 b6 5c 87 3d 96 8b 39 bc 25 22 dc bd af 7e 84 3e
       0.0660948 -0.011324784 -0.107487 0.25877902
0001a0 e8 77 86 bd 74 fe 6e 3e dd 5b 36 be 94 49 9f 3e
       -0.06565839 0.23339254 -0.1780848 0.31110823
0001b0 73 f4 a9 3e 6c 3a 86 3e 92 48 3e 3e 39 42 e7 3d
       0.33194312 0.26216447 0.18582371 0.11291928
0001c0 fe c9 45 be b4 22 e1 3c 2c 62 13 3e fd 90 e8 bd
       -0.19315335 0.027482368 0.14392918 -0.11355779
0001d0 65 1c ae 3d be 3d 3e 3e a1 58 9e be 83 6a 9a be
       0.085015096 0.1857824 -0.30926993 -0.30159387
0001e0 43 d9 48 be 6d a7 c3 3c cd 38 ab bd 93 27 bf 3d
       -0.19614129 0.023883546 -0.08360443 0.0933372
0001f0 f1 f9 cf bd 53 09 5b be 5e 5f 04 3d a5 bb 64 3e
       -0.101550944 -0.21390276 0.03231751 0.22337206

layers.layer_2.bias f4 [16]
000000 02 5e 48 be bc 7c a6 3e dd 62 d3 3d 2b 55 b7 3e
       -0.19567111 0.3251704 0.10321591 0.35807166
000010 0b 90 9c be e5 b3 b2 be 84 c8 08 3e 27 29 b5 be
       -0.30578646 -0.34902874 0.1335774 -0.3538296
000020 50 a5 9c be 98 d2 48 3e 03 2e 1e 3e 9b 00 9c be
       -0.30594873 0.19611585 0.1544724 -0.30469212
000030 e4 87 75 3e 06 bc ab bd c4 30 8e 3e 6c 73 61 be
       0.2397762 -0.08385472 0.2777158 -0.22016686

layers.layer_3.weight f4 [1, 16]
000000 d9 74 85 be f3 4f 46 be d4 3a 73 bd 40 fd 89 be
       -0.2606571 -0.19366436 -0.059382275 -0.26951027
000010 ea 73 e6 bc 03 86 d9 bd cb 77 1b bd 5d 67 b1 3c
       -0.028131444 -0.10621264 -0.03795604 0.021655733
000020 bb 27 05 3d ef 49 87 be ef 7d 1e 3e 1a 95 34 be
       0.032508593 -0.26423594 0.15477727 -0.17635003
000030 f9 13 0d 3e 80 ab 58 3e 5e c9 e3 bd 9d f4 59 3c
       0.1377715 0.21159172 -0.11122392 0.013302949
