Results/Laplace_EXP/Models/Laplace_EXP_PINN_step_3000.pth (torch, 4644 bytes, 7 tensors)

layers.layer_0.weight f4 [8, 2]
0	0xbf2f23b5	-0.6841386
1	0xbdf27762	-0.11839177
2	0xbebdc1d0	-0.3706193
3	0xbe3d9d9b	-0.18517153
4	0xbf1f708d	-0.62281114
5	0xbce6da2a	-0.0281802
6	0xbf271db1	-0.6527968
7	0xbe81f559	-0.25382498
8	0x3ec12424	0.37722886
9	0xbe84d9b8	-0.25947356
10	0x3ecbfc9c	0.39841163
11	0x3e30715f	0.17230748
12	0x3f13d6a5	0.57749397
13	0x3f3ccf1c	0.73753524
14	0xbec2d34f	-0.3805184
15	0xb96609d4	-0.0002193817

layers.layer_0.bias f4 [8]
0	0xbea1157e	-0.3146171
1	0x3e869acd	0.2628998
2	0xbedd692e	-0.43244308
3	0x3eb93989	0.36176708
4	0xbbd77fb6	-0.0065765036
5	0xbeb4376a	-0.35198528
6	0xbe590099	-0.21191634
7	0x3e5b9379	0.21442975

layers.layer_1.weight f4 [8, 8]
0	0x3ecac4b4	0.39603198
1	0x3ea9e5ba	0.3318308
2	0xbd2aada3	-0.0416695
3	0x3dcd881b	0.10035726
4	0x3eabdfd6	0.3356921
5	0xbec59b45	-0.38595024
6	0x3ebcb682	0.36857992
7	0xbdf2d49b	-0.118569575
8	0x3e1a2791	0.15054156
9	0xbe60fee5	-0.21972235
10	0xbcf13953	-0.02944628
11	0x3d2ad246	0.04170444
12	0x3e95bc7a	0.2924536
13	0x3d61173e	0.054953806
14	0x3e600179	0.21875562
15	0xbecb3fdf	-0.39697167
16	0xbdf4f969	-0.11961634
17	0xbee40de5	-0.4454185
18	0xbc05341d	-0.008130101
19	0x3cee14bc	0.029062621
20	0xbe3dae6b	-0.18523566
21	0x3e701838	0.23446739
22	0xbe407b70	-0.18797088
23	0xbeb28dce	-0.34873813
24	0x3ea6b0f6	0.32556885
25	0x3e9edfe9	0.31030205
26	0x3e513bca	0.20432964
27	0x3eb40d80	0.3516655
28	0x3e51047a	0.20411864
29	0x3de92059	0.11383123
30	0x3ec7b6e0	0.3900671
31	0xbd86a5ef	-0.06574618
32	0xbea907f8	-0.33013892
33	0xbe883133	-0.26600036
34	0xbdc776ff	-0.097394936
35	0xbdd2d06c	-0.102936596
36	0x3b92b09a	0.004476619
37	0x3ea8518f	0.32874724
38	0xbd56ba9c	-0.05242406
39	0xbeb50113	-0.35352382
40	0xbb78201c	-0.0037860936
41	0x3d945df7	0.07244485
42	0x3e9403bf	0.28909108
43	0xbb4af4b9	-0.003096862
44	0xbe06a557	-0.1314901
45	0xbe53fbbe	-0.20701501
46	0x3d83e38e	0.06439887
47	0xb9aa1018	-0.00032436918
48	0xbea6bee4	-0.32567513
49	0x3ecc69eb	0.3992456
50	0x3e2f3f33	0.17113952
51	0xbde8f383	-0.11374571
52	0xbdd0c60f	-0.10194027
53	0xbd5abfee	-0.053405695
54	0x3ea9746f	0.33096644
55	0xbe8b1f49	-0.27172306
56	0xbdae225d	-0.08502648
57	0x3e7ab8ef	0.24484609
58	0xbe420ae8	-0.18949473
59	0x3d20b074	0.03923078
60	0xbe832cee	-0.25620216
61	0x3e736227	0.23767911
62	0x3e523e9c	0.20531696
63	0xbe8ca85d	-0.274722

layers.layer_1.bias f4 [8]
0	0xbe2a60a8	-0.16638434
1	0xbc3b7ceb	-0.011443357
2	0x3d8a9fbe	0.0676875
3	0xbc95202a	-0.018203814
4	0xbe883411	-0.26602224
5	0xbe6cc8a5	-0.23123415
6	0x3e6a2f12	0.22869518
7	0xbe8f0e08	-0.27940392

layers.layer_2.weight f4 [16, 8]
0	0xbe519763	-0.20467906
1	0x3e2617e9	0.16220059
2	0x3e9520c7	0.2912657
3	0xbda1647e	-0.078804955
4	0x3e31cdce	0.17363665
5	0x3db164ea	0.08661826
6	0xbd6fe328	-0.058566242
7	0xbd55e3e6	-0.052219294
8	0x3dfee5ac	0.1244615
9	0x3e9ff332	0.3124023
10	0x3e8ce6da	0.27519876
11	0xbe8ae9b5	-0.2713143
12	0xbe749ea7	-0.23888646
13	0xbecf4b54	-0.40487158
14	0xbd47f7db	-0.048820358
15	0xbdcaeaa2	-0.09908034
16	0xbe8f4d32	-0.27988583
17	0xbdcbfb3a	-0.09960027
18	0x3ef74d14	0.48300993
19	0x3e3a7d1c	0.18211788
20	0x3d6a650e	0.05722528
21	0xbe2b2af0	-0.16715598
22	0x3d9db9bf	0.07701444
23	0x3c7712f5	0.015080203
24	0xbef94164	-0.48682702
25	0x3db86f30	0.09005582
26	0x3ee523c5	0.44753852
27	0xbec9b9f1	-0.39399675
28	0xbb2d20fa	-0.002641736
29	0x3d4bba29	0.049738083
30	0xbea7f4c0	-0.32803917
31	0xbe809baf	-0.25118777
32	0x3d73fe9d	0.05956899
33	0xbda09b3b	-0.07842108
34	0x3ec87be8	0.39157033
35	0xbe089983	-0.1333981
36	0x3e64d583	0.22347073
37	0xbeb2580a	-0.34832793
38	0xbddfcdb7	-0.10927909
39	0x3eb0263c	0.3440417
40	0x3d5f2348	0.054477006
41	0xbdf33341	-0.1187501
42	0x3df4e4a0	0.11957669
43	0x3e4145ab	0.18874232
44	0xbe84f97f	-0.259716
45	0x3e33c1cf	0.17554401
46	0xbe0904f2	-0.13380793
47	0xbd24cd38	-0.040234774
48	0x3e683a43	0.22678475
49	0xbe29c663	-0.16579585
50	0xbd989a4d	-0.074513055
51	0x3eba3833	0.36371002
52	0x3e12eb61	0.14347602
53	0xbe3137f8	-0.17306507
54	0x3b6cf848	0.003615873
55	0x3ea00b03	0.312584
56	0x3ed9912a	0.42493564
57	0x3e9cea84	0.3064767
58	0xbeece066	-0.46264952
59	0x3eb0de8b	0.34544787
60	0xbddbe002	-0.107360855
61	0x3db7d097	0.08975332
62	0x3ef4120c	0.4767002
63	0x3d866d55	0.06563822
64	0x3ededb25	0.4352657
65	0x3e60cfb6	0.21954235
66	0x3c08f2fc	0.008358713
67	0x3dba2551	0.09089149
68	0xbec96524	-0.39334977
69	0xbe798c0f	-0.24369834
70	0xbdd91d03	-0.10601237
71	0xbe853881	-0.26019672
72	0x3d5409c7	0.051767137
73	0x3dc7e221	0.097599275
74	0xb9f140ff	-0.00046015528
75	0xbebaeeee	-0.36510414
76	0x3ed496e1	0.4152136
77	0x3e60fdc7	0.21971808
78	0x3dfea394	0.12433544
79	0x3ec84017	0.39111397
80	0xbd8ce8d4	-0.06880346
81	0xbe617abe	-0.22019479
82	0xbea101e0	-0.31446743
83	0x3d9dd09c	0.07705805
84	0xbec703fa	-0.3887022
85	0x3eab4b27	0.33455774
86	0x3ca7b1fa	0.020470608
87	0x3de8f75f	0.11375307
88	0xbea259fa	-0.31709272
89	0xbd42b6d1	-0.04753763
90	0x3e13e44e	0.1444256
91	0xbe431e4e	-0.19054529
92	0x3eca2cc2	0.39487273
93	0xbe617231	-0.22016217
94	0x3dd08fd6	0.101836845
95	0xbe516572	-0.20448855
96	0x3dbff00c	0.09371957
97	0xbdaadc00	-0.08342743
98	0x3d3e5863	0.04647101
99	0x3eb3296c	0.3499254
100	0x3c9fa281	0.019486668
101	0x3d09e8ab	0.033669155
102	0xbd846eb0	-0.064664245
103	0x3e754733	0.23952942
104	0x3d4784e2	0.04871071
105	0x3e70ed2d	0.23527975
106	0xbe8b9e01	-0.27268985
107	0x3eca0a73	0.39461097
108	0x3e8a804a	0.27051002
109	0x3e993ace	0.29927677
110	0x3e692e49	0.22771563
111	0x3d950c94	0.0727779
112	0xbeb8ce1f	-0.36094758
113	0xbcdbb82e	-0.026821222
114	0x3e896bad	0.26839963
115	0xbe739846	-0.23788556
116	0x3e23b36b	0.15986411
117	0x3e26162d	0.16219397
118	0xbec910e1	-0.3927069
119	0xbe835114	-0.25647795
120	0xbeb41c28	-0.35177732
121	0xbdfecc7c	-0.12441346
122	0x3d11917b	0.03553913
123	0xbcb1924e	-0.021676209
124	0xbd72ec89	-0.05930761
125	0xbe6f5a49	-0.23374285
126	0xbd9e5e65	-0.07732848
127	0x3e554da5	0.208304

layers.layer_2.bias f4 [16]
0	0xbe1dff03	-0.1542931
1	0x3eaa3de5	0.33250347
2	0x3da5ea78	0.08101362
3	0x3e975561	0.29557326
4	0xbe6f2394	-0.23353416
5	0xbece26f5	-0.40264097
6	0x3de749d6	0.1129338
7	0xbe4f19be	-0.20224664
8	0xbe7e0a27	-0.2480856
9	0x3e2d753a	0.1693925
10	0x3e2eeb81	0.17082025
11	0xbe7f1beb	-0.24912994
12	0x3e53be86	0.20678148
13	0xbd73de15	-0.059537966
14	0x3e6d87f2	0.2319639
15	0xbe2c6fb5	-0.16839488

layers.layer_3.weight f4 [1, 16]
0	0xbebc3051	-0.36755612
1	0xbe817397	-0.252835
2	0xbe48a976	-0.19595894
3	0xbecf38e1	-0.40473083
4	0xbe07f288	-0.13276112
5	0xbd8f1120	-0.06985688
6	0x3defda28	0.11711532
7	0x3e789954	0.2427724
8	0x3dc1eb47	0.09468704
9	0xbe9ae2f3	-0.30251274
10	0x3e5d56ed	0.21615191
11	0xbe849bb4	-0.25900042
12	0x3e571c61	0.2100692
13	0x3ea90bb2	0.33016735
14	0xbea83168	-0.32850194
15	0xbdff5388	-0.12467104
