Results/Laplace_EXP/Models/Laplace_EXP_PINN_step_2200.pth (torch, 4644 bytes, 7 tensors)

layers.layer_0.weight f4 [8, 2]
-0.68046415 -0.06790947 -0.38395226 -0.083013326 -0.64320093 0.048891075 -0.6509954 -0.11346341
0.31608033 -0.08520705 0.39977014 0.03009633 0.40607038 0.5796598 -0.36700067 0.051613975
00000000: e632 2ebf 1f14 8bbd 6495 c4be e402 aabd
00000010: d1a8 24bf 0242 483d a2a7 26bf 815f e8bd
00000020: 48d5 a13e 0981 aebd acae cc3e 948c f63c
00000030: 75e8 cf3e 9664 143f 83e7 bbbe 2d69 533d

layers.layer_0.bias f4 [8]
-0.39558482 0.20712683 -0.4454627 0.28337172 0.05495198 -0.32974425 -0.40026838 0.23039682
00000000: 188a cabe 0e19 543e b013 e4be 1916 913e
00000010: 5415 613d 3dd4 a8be faef ccbe 25ed 6b3e

layers.layer_1.weight f4 [8, 8]
0.40398654 0.26230177 0.012644949 0.05054387 0.17385611 -0.32220557 0.2236705 -0.07705456
0.15322895 -0.20485593 -0.028044268 0.05172597 0.30374205 0.03750375 0.28041595 -0.38355455
-0.11417044 -0.4222141 -0.010686481 0.04314896 -0.103545934 0.21384133 -0.07674905 -0.36001414
0.3231083 0.28001025 0.21564816 0.33184105 0.10622655 0.13849781 0.29872885 -0.04336744
-0.3105442 -0.2414394 -0.0768382 -0.09415826 0.042504244 0.3017871 0.084006354 -0.34419787
-0.01759122 0.03216262 0.28773472 -0.03229883 -0.22385442 -0.17130987 -0.025538264 0.0066627883
-0.2955132 0.37768817 0.22653002 -0.11942031 -0.23709883 -0.033973496 0.18919325 -0.22856145
-0.08768225 0.21360324 -0.18741073 0.016265796 -0.30623075 0.2680107 0.15560862 -0.27629858
00000000: 53d7 ce3e 6b4c 863e c32c 4f3c 1707 4f3d
00000010: 5607 323e 21f8 a4be e109 653e c8ce 9dbd
00000020: 0de8 1c3e c1c5 51be 18bd e5bc 9cde 533d
00000030: 1484 9b3e 889d 193d ae92 8f3e 4361 c4be
00000040: 31d2 e9bd 722c d8be 5a16 2fbc f7bc 303d
00000050: e40f d4bd 39f9 5a3e 9b2e 9dbd c653 b8be
00000060: 736e a53e 815d 8f3e dfd2 5c3e 12e7 a93e
00000070: 4e8d d93d 5fd2 0d3e fdf2 983e 0fa2 31bd
00000080: a6ff 9ebe e43b 77be 595d 9dbd 0cd6 c0bd
00000090: ee18 2e3d d783 9a3e 860b ac3d b43a b0be
000000a0: 761b 90bc f4bc 033d f751 933e c74b 04bd
000000b0: 183a 65be db6b 2fbe 9f35 d1bc 8553 da3b
000000c0: 824d 97be 5860 c13e 7cf7 673e a392 f4bd
000000d0: 09ca 72be cb27 0bbd e0bb 413e 030c 6abe
000000e0: c092 b3bd cfba 5a3e 99e8 3fbe d93f 853c
000000f0: 47ca 9cbe b338 893e de57 1f3e 0277 8dbe

layers.layer_1.bias f4 [8]
-0.19253103 0.019475164 0.030675406 0.008471131 -0.278188 -0.19451109 0.18254007 -0.29402846
00000000: db26 45be 618a 9f3c fd4a fb3c 80ca 0a3c
00000010: a86e 8ebe ea2d 47be c9eb 3a3e e68a 96be

layers.layer_2.weight f4 [16, 8]
-0.1499748 0.21480748 0.26108086 -0.044152007 0.16557166 0.09253551 -0.020047264 -0.046863828
0.18257438 0.37215254 0.24438664 -0.23309033 -0.24718158 -0.40863982 0.0037681786 -0.08805584
-0.1929668 -0.010285804 0.43044797 0.24494936 0.040451486 -0.17363416 0.16854288 0.031179467
-0.42158884 0.14159518 0.41015068 -0.35416436 -0.019870194 0.020188387 -0.2783904 -0.25675845
0.14946277 -0.01612425 0.32807025 -0.06508659 0.19190273 -0.3248988 -0.03685088 0.32763493
0.09437801 -0.07690328 0.102094926 0.21182425 -0.26400924 0.16622968 -0.09797933 -0.034458157
0.1465581 -0.24943699 -0.024507655 0.31091818 0.15785336 -0.16902135 -0.04856115 0.3068619
0.29841 0.18567087 -0.36460292 0.24390154 -0.04686324 0.16589053 0.33835873 0.103215456
0.35005328 0.12692434 0.05536521 0.030388718 -0.382695 -0.23105982 -0.20929472 -0.28573602
0.099553324 0.14673206 -0.030112077 -0.33173802 0.40489778 0.22012253 0.17623062 0.39775342
-0.119640365 -0.25724256 -0.28191268 0.044543263 -0.37532562 0.32766265 -0.009606004 0.119966365
-0.26169047 0.010886774 0.115677506 -0.15598778 0.3899837 -0.21395658 0.13384558 -0.19638789
0.0348269 -0.14311984 0.07864808 0.31293678 0.028185245 0.03482303 -0.107817195 0.23335543
-0.007693281 0.19362381 -0.23487088 0.3586782 0.28872502 0.3091628 0.18461323 0.0806732
-0.27389485 0.05223304 0.21265367 -0.17850715 0.13536164 0.1371295 -0.3173522 -0.26318526
-0.22995062 0.006937994 -0.056072112 0.073673695 -0.09222809 -0.21848913 0.01163497 0.22386894
00000000: fe92 19be 7ef6 5b3e 64ac 853e bcd8 34bd
00000010: 9e8b 293e 4283 bd3d 293a a4bc 49f4 3fbd
00000020: c7f4 3a3e c78a be3e 7e40 7a3e 3baf 6ebe
00000030: 2b1d 7dbe 3d39 d1be 8cf3 763b 9f56 b4bd
00000040: 1799 45be ca85 28bc ad63 dc3e 01d4 7a3e
00000050: 75b0 253d 27cd 31be 8196 2c3e 156c ff3c
00000060: 7eda d7be 54fe 103e 45ff d13e 0855 b5be
00000070: d1c6 a2bc 1e62 a53c 3089 8ebe d875 83be
00000080: c50c 193e 0117 84bc d3f8 a73e 1e4c 85bd
00000090: 2682 443e 2359 a6be f3f0 16bd c4bf a73e
000000a0: 4249 c13d 787f 9dbd 2517 d13d 75e8 583e
000000b0: 382c 87be 1d38 2a3e 63a9 c8bd ff23 0dbd
000000c0: 5413 163e 696c 7fbe 47c4 c8bc ab30 9f3e
000000d0: 50a4 213e ef13 2dbe 0ee8 46bd 011d 9d3e
000000e0: 32c9 983e 8120 3e3e 3cad babe 53c1 793e
000000f0: abf3 3fbd 35df 293e 5b3d ad3e a062 d33d
00000100: 2f3a b33e 74f8 013e a1c6 623d c3f1 f83c
00000110: 99f0 c3be f29a 6cbe 5b51 56be fe4b 92be
00000120: 9de2 cb3d ee40 163e 9aad f6bc 91d9 a9be
00000130: c34e cf3e cd67 613e cd75 343e 56a6 cb3e
00000140: 0206 f5bd 4cb5 83be dc56 90be ff72 363d
00000150: ae2a c0be 66c3 a73e 8062 1dbc edb0 f53d
00000160: 4bfc 85be 715e 323c 54e8 ec3d 43bb 1fbe
00000170: f2ab c73e 6f17 5bbe d10e 093e e819 49be
00000180: a7a6 0e3d 028e 12be 3f12 a13d 4039 a03e
00000190: bee4 e63c 98a2 0e3d 43cf dcbd baf4 6e3e
000001a0: eb17 fcbb 5245 463e fe81 70be aba4 b73e
000001b0: c4d3 933e 964a 9e3e 400b 3d3e fe37 a53d
000001c0: f23b 8cbe 50f2 553d e2c1 593e 94ca 36be
000001d0: 3e9c 0a3e ad6b 0c3e fd7b a2be 38c0 86be
000001e0: 2d78 6bbe 1d58 e33b dfab 65bd 3ce2 963d
000001f0: 15e2 bcbd 9dbb 5fbe 9aa0 3e3c e63d 653e

layers.layer_2.bias f4 [16]
-0.18630512 0.317705 0.061664995 0.32168 -0.28621417 -0.40052846 0.13503198 -0.29651183
-0.24067608 0.17931879 0.17987801 -0.28562182 0.23469912 -0.07895053 0.2512561 -0.22332178
00000000: c5c6 3ebe 3baa a23e 6f94 7c3d 3eb3 a43e
00000010: aa8a 92be 1112 cdbe d345 0a3e 66d0 97be
00000020: ca73 76be 589f 373e f131 383e 063d 92be
00000030: f754 703e d1b0 a1bd a4a4 803e 77ae 64be

layers.layer_3.weight f4 [1, 16]
-0.33344632 -0.24248978 -0.13563026 -0.34086236 -0.10297306 -0.077390514 0.034013648 0.13725261
0.06826415 -0.29593116 0.20752673 -0.23089516 0.16506203 0.24461076 -0.22725289 -0.03289147
00000000: 7ab9 aabe 3e4f 78be a9e2 0abe 8385 aebe
00000010: 8ae3 d2bd eb7e 9ebd e551 0b3d f38b 0c3e
00000020: 13ce 8b3d 4a84 97be e381 543e c86f 6cbe
00000030: 0506 293e 3e7b 7a3e fbb4 68be 35b9 06bd
