Results/Laplace_EXP/Models/Laplace_EXP_PINN_step_700.pth (torch, 4632 bytes, 7 tensors)

layers.layer_0.weight f4 [8, 2]
000000 91 55 3c bf 73 1a 64 bd ff 8c c7 be 3d 2e de bd
       -0.73568064 -0.055689286 -0.3897476 -0.10848663
000010 c0 b2 30 bf 36 72 3d 3e 6e 57 31 bf f1 58 56 bd
       -0.6902275 0.185006 -0.6927403 -0.052330915
000020 54 85 99 3e 7b 82 28 be dc e3 d0 3e 96 b6 93 bb
       0.29984534 -0.16456024 0.40798843 -0.00450785
000030 6a 9a bb 3e 49 77 e7 3e e9 2b c3 be c7 56 20 3e
       0.36641246 0.45208195 -0.38119438 0.15658103

layers.layer_0.bias f4 [8]
000000 13 ce 8d be 32 cd 3d 3e 5b fe a7 be 70 ba 87 3e
       -0.27696285 0.18535307 -0.32811245 0.26509428
000010 88 af 1e 3e 66 ef 8a be b0 b5 bc be 73 71 00 3e
       0.15496647 -0.27135772 -0.36857367 0.12543277

layers.layer_1.weight f4 [8, 8]
000000 49 0e c5 3e 73 09 6e 3e 06 a7 8d 3c d2 b8 2d 3d
       0.3848746 0.23245792 0.017291557 0.042412587
000010 e9 0a 18 3e 38 08 9e be 06 bc 9c 3d 5b 91 67 bd
       0.14847912 -0.30865645 0.0765305 -0.056535106
000020 37 ee 17 3e 2d 20 3f be 0f 2a 1a bd 97 2b 77 3d
       0.14836966 -0.18664618 -0.037637766 0.060344305
000030 e3 a8 99 3e 21 e0 11 3c be c7 bb 3e 36 2d b9 be
       0.30011663 0.008903534 0.3667583 -0.36167306
000040 a6 49 e9 bd ff 99 d0 be 6d 5b a4 bc dd ac 41 3d
       -0.113910004 -0.4074249 -0.020063126 0.047283996
000050 73 91 bd bd 67 bd 4d 3e 2e e2 6f bc 6a 81 b9 be
       -0.09256258 0.20091783 -0.014641328 -0.36231548
000060 e0 5b a3 3e 48 27 8a 3e 88 67 65 3e e2 c6 a9 3e
       0.31906033 0.26983094 0.22402775 0.33159548
000070 00 a0 ad 3d 33 2b 0d 3e fa 8b 7f 3e 4b 3c af bc
       0.08477783 0.1378601 0.2495574 -0.021391055
000080 5d 88 aa be e0 c6 6f be 8f bf d4 bd 24 f7 c9 bd
       -0.33307162 -0.23415709 -0.103880994 -0.098615915
000090 f5 23 68 3d 1c fb 86 3e b2 09 0e 3e fa c9 a6 be
       0.056674916 0.26363456 0.13870886 -0.3257597
0000a0 41 49 f6 bc 0b 26 d4 39 1d 79 93 3e b8 a8 3a bd
       -0.030064227 0.00040464135 0.2880334 -0.04557106
0000b0 a1 d9 63 be f5 ff 0f be d5 ff 1d be ac 0b 94 bb
       -0.22250988 -0.14062484 -0.15429623 -0.004517993
0000c0 09 ed a0 be 34 fa b5 3e fc 4a 5e 3e ba 4d 05 be
       -0.31430843 0.35542452 0.21708292 -0.13017932
0000d0 f3 30 7d be 65 f6 db bc 6e 70 26 3e f8 70 5e be
       -0.24725704 -0.026850889 0.16253826 -0.21722782
0000e0 d1 3e c3 bd 4f 38 45 3e 2f 92 43 be a7 a7 4e 3b
       -0.09533466 0.19259761 -0.19098733 0.0031533034
0000f0 32 e5 9b be f9 98 91 3e 70 90 1b 3e f7 73 90 be
       -0.304483 0.2843702 0.15191817 -0.28213474

layers.layer_1.bias f4 [8]
000000 25 b4 0b be 3a eb 09 3e b0 cf 29 3d 93 98 95 3d
       -0.13642938 0.13468638 0.04145783 0.07304492
000010 5d 97 6f be 5c 7f 58 be 01 f8 51 3e c5 b8 95 be
       -0.23397584 -0.21142334 0.20504762 -0.2924253

layers.layer_2.weight f4 [16, 8]
000000 a0 8f 02 be 20 f7 5b 3e 49 55 76 3e 40 0f fa bc
       -0.12750101 0.2148099 0.24055971 -0.03052485
000010 5f 4e 1e 3e 10 42 c3 3d f4 2d df bb 06 38 5c bd
       0.15459584 0.09534085 -0.006810898 -0.053764366
000020 0f 7e 5c 3e 2f 23 cf 3e 8a cb 65 3e cc be 56 be
       0.21532463 0.4045653 0.22440925 -0.2097122
000030 b8 bf 80 be fa 6c d0 be 3e 6c 0b 3d c0 64 b1 bd
       -0.2514627 -0.40708143 0.034038775 -0.08661795
000040 a2 dd 1c be 63 79 8d 3c 32 86 cd 3e 7b 7c 8b 3e
       -0.15318921 0.017269796 0.40141445 0.2724341
000050 59 fc eb 3c 2e 75 35 be 81 2f 57 3e 3c e8 d2 3c
       0.028806852 -0.17720482 0.21014215 0.025745504
000060 46 82 c7 be f3 8f 30 3e f3 a9 ca 3e 2a a7 aa be
       -0.38966578 0.17242412 0.39582786 -0.3333066
000070 e3 87 be bc 80 50 8a 3c f4 aa 84 be 2d b7 82 be
       -0.023258155 0.016884089 -0.25911677 -0.25530377
000080 ff 6a 41 3e e0 2e 3d bd 0b 68 91 3e e0 36 29 bd
       0.18888472 -0.04618728 0.2839969 -0.0413121
000090 e6 aa 22 3e 94 cf a1 be a7 35 a9 bc e3 63 97 3e
       0.15885505 -0.31603682 -0.020655466 0.29568395
0000a0 49 e9 ec 3d 56 c2 56 bd 12 b2 bb 3d e0 dc 66 3e
       0.11567933 -0.052431427 0.091648236 0.22545195
0000b0 0d 2a 88 be 3f d2 23 3e 37 7c a5 bd d2 b4 0a bd
       -0.26594582 0.15998171 -0.08080333 -0.03386385
0000c0 e7 d6 0b 3e 62 2e 82 be 2b 59 8c bc f8 f5 9b 3e
       0.13656197 -0.25426012 -0.017132362 0.30461097
0000d0 b6 c8 24 3e a2 73 2e be b6 a0 5c bd 58 5a 9d 3e
       0.1609219 -0.17036298 -0.053864203 0.3073299
0000e0 ad bf 65 3e 73 9e 1b 3e 36 ee a2 be 58 b4 41 3e
       0.224364 0.15197162 -0.31822366 0.18916452
0000f0 c6 e6 bc bc 8a a4 1c 3e fa 8c 89 3e 76 e9 e8 3d
       -0.02305926 0.15297142 0.2686537 0.11372654
000100 f5 aa 9f 3e f8 a5 b2 3d 32 11 a3 3d 7e 31 87 3b
       0.31185117 0.08723062 0.07962264 0.004125773
000110 91 76 c0 be f2 8a 64 be 8e 7b 85 be 4a 27 92 be
       -0.3759046 -0.22318628 -0.26070827 -0.285456
000120 f6 13 ee 3d 75 70 29 3e 74 8d 3a bd ca c5 a3 be
       0.11624901 0.16546805 -0.045545056 -0.3198684
000130 a0 39 cc 3e 5d 93 56 3e 8d d2 4c 3e d8 04 c9 3e
       0.39887714 0.20954652 0.20002194 0.39261508
000140 a2 65 09 be 9b 7f 85 be 88 84 87 be 44 27 14 3d
       -0.13417676 -0.26073918 -0.264683 0.03617026
000150 d7 ee ba be d4 c5 ae 3e 32 18 d9 bc d7 07 07 3e
       -0.36510345 0.34135306 -0.026500795 0.13186584
000160 c5 2b 7c be 3a e8 b0 3c 15 36 d2 3d d0 f9 17 be
       -0.24626072 0.02159511 0.102642216 -0.1484139
000170 51 16 c5 3e 16 73 62 be bb 77 14 3e 07 a4 4b be
       0.3849359 -0.22114214 0.14498799 -0.1988679
000180 32 63 03 3c e6 4c 19 be e6 f9 ca 3d 55 8d 97 3e
       0.0080192555 -0.1497074 0.099109456 0.29600015
000190 ce 7c 19 3d 4c 88 e5 3c cf 29 f8 bd 54 a5 72 3e
       0.03747254 0.028019093 -0.12117349 0.2369588
0001a0 d6 73 10 bd f2 52 4c 3e ae 40 58 be 89 0a ae 3e
       -0.03526672 0.19953516 -0.21118423 0.33992413
0001b0 60 f2 9a 3e 86 fa 97 3e f8 0e 31 3e f9 d2 b7 3d
       0.30263042 0.29683322 0.17290866 0.08975787
0001c0 ef 2d 6f be 44 c9 8b 3d 63 e5 3d 3e e4 db 1a be
       -0.23357366 0.06825498 0.18544535 -0.15122944
0001d0 a4 ab fa 3d 49 2b 11 3e f7 9e 95 be a5 36 8a be
       0.12239769 0.14176668 -0.29222843 -0.26994815
0001e0 30 9a 44 be 4f 97 83 3c e1 16 b7 bd 48 29 ca 3d
       -0.19199443 0.01606336 -0.08939911 0.09871155
0001f0 e3 40 dc bd 1e a1 54 be cc 49 e7 3c 62 c1 5f 3e
       -0.10754564 -0.20764586 0.028233431 0.21851113

layers.layer_2.bias f4 [16]
000000 4c d0 39 be 9c 30 a4 3e 34 b3 c3 3d 15 9d a3 3e
       -0.18145865 0.32068336 0.09555665 0.31955782
000010 d0 73 89 be c9 2e c8 be 35 d6 0a 3e 57 91 9b be
       -0.2684617 -0.39098194 0.13558276 -0.30384323
000020 b1 aa 8f be 6a a2 50 3e 2a 91 11 3e 3a f0 91 be
       -0.28059915 0.20374456 0.14215532 -0.2850359
000030 45 9b 72 3e cf 5b af bd 17 6c 87 3e bc ae 63 be
       0.23692043 -0.08562433 0.26449654 -0.22234625

layers.layer_3.weight f4 [1, 16]
000000 bd 24 9e be 28 85 81 be f8 b2 e3 bd bb 8f 9d be
       -0.30887404 -0.25296903 -0.1111812 -0.3077372
000010 cc a0 a1 bd 00 6c aa bd 20 bc bd ba db 51 9d 3d
       -0.07891998 -0.083213806 -0.0014475621 0.07681628
000020 67 96 6d 3d 5b c4 94 be ae e7 48 3e 64 fe 5c be
       0.058004763 -0.29056057 0.19619629 -0.21581417
000030 b0 e6 18 3e 41 4e 55 3e 38 03 2d be e5 49 43 bc
       0.1493175 0.20830633 -0.16895759 -0.011919473
